c220g2_power.pt (torch, 88107 bytes, 6 tensors)

weight f4 [128, 7]
000000 9a 91 72 bc 73 bd 88 bd e4 b3 00 00 e8 b7 00 80
       -0.014805222 -0.066767596 6.4533e-41 -6.5973e-41
000010 cd a8 00 80 53 22 91 3d 63 aa 00 00 f7 6c 28 be
       -6.0554e-41 0.07086625 6.1123e-41 -0.16447817
000020 67 07 99 bd 5f 0c df 3d 0f aa b7 3c 43 5e db 3e
       -0.07472115 0.108910315 0.022419957 0.42845353
000030 1f b0 13 3d d9 67 8e 3c 70 0e 67 3e 8c 89 9a bd
       0.036056634 0.017383503 0.22564101 -0.07545766
000040 13 0d c5 3e ba 6a 72 3c 7c bc 9d 3e b8 5a 3c 3e
       0.38486537 0.014795953 0.30807865 0.18393981
000050 09 3f 4a 3e f8 bd a2 3c bd 41 1e 3e 62 2a a6 be
       0.19750609 0.019865975 0.15454765 -0.3245421
000060 3e cb a9 3b ab ce 25 be 8f eb aa 3e 3b 50 69 3e
       0.005181699 -0.16192119 0.33382842 0.22784512
000070 d9 9f 26 be e7 0c 1d 3e c7 dd c4 3d ff 97 d3 3d
       -0.16271915 0.15336953 0.09612613 0.10331725
000080 f7 bc 98 3e bf 52 97 3e aa 6c 4a be d5 46 45 3d
       0.2983167 0.29555318 -0.19768015 0.048163254
000090 71 92 75 be 36 01 40 3e 67 cf aa 3d fc 03 02 be
       -0.23981644 0.18750462 0.0834034 -0.12696832
0000a0 84 74 39 3e 91 f2 b7 3d 77 6c 13 bb b8 9d 00 00
       0.18110853 0.08981813 -0.002249507 5.6579e-41
0000b0 bb 33 a0 bc f1 42 9e 37 69 24 9e bd 1e a0 00 80
       -0.019555917 1.886624e-05 -0.077217884 -5.7439e-41
0000c0 30 7a e3 bc 38 bf 00 80 1c 62 8a bd b8 fa a6 bd
       -0.027768224 -6.8596e-41 -0.06756994 -0.081532896
0000d0 13 72 9d bc 49 05 66 ba 29 b5 86 3d e9 12 41 a7
       -0.019219434 -0.0008774591 0.06577522 -2.6794382e-15
0000e0 e6 53 85 b7 d7 be 00 80 b2 95 0e af ba a5 00 00
       -1.5893904e-05 -6.846e-41 -1.2968007e-10 5.9451e-41
0000f0 56 50 d0 bc 45 63 d4 3c 4b ab 00 80 10 8a a3 3e
       -0.025428932 0.025926242 -6.1448e-41 0.3194127
000100 1c 64 3c be 6e 31 97 be 4a 20 ac 3e 50 0a 21 be
       -0.18397564 -0.295299 0.33618385 -0.1572659
000110 45 74 cc bd 49 0a bf 3e d8 b6 b8 bc 0f 40 5a be
       -0.09983114 0.37312534 -0.022548124 -0.21313499
000120 e9 c4 b5 3e 47 4f c3 be 91 b5 88 be e7 a2 42 be
       0.35501793 -0.3814642 -0.26701024 -0.19007455
000130 82 63 5b 3e 40 5f c2 3e 3f 83 23 3d ca 15 83 3e
       0.21424678 0.37963295 0.039920088 0.2560256
000140 b4 ec 88 3e f8 91 9a 3b 03 3e 87 bd c8 a0 81 be
       0.2674309 0.004717108 -0.06603625 -0.2531798
000150 b5 8f 41 be f4 64 2d be 71 c5 b5 be ac 93 5a 3e
       -0.18902476 -0.16933042 -0.35502198 0.21345395
000160 a6 02 27 3d 49 b2 28 be 51 f6 7f 3e 3f 31 c7 bd
       0.04077401 -0.1647426 0.24996306 -0.0972619
000170 a6 ba 78 3e 2e 18 05 3e 5d 6e 3a bc 29 20 eb 3e
       0.2428995 0.12997505 -0.011378852 0.45922974
000180 be 17 99 3e 62 22 5c 3d 4f a0 64 3e e0 30 8b bc
       0.29900926 0.053743728 0.22326778 -0.016991079
000190 ec 81 96 be 0d db 8a 3e af d1 25 3e c0 eb 94 be
       -0.29395998 0.27120247 0.16193269 -0.29086113
0001a0 49 ab a8 3e 4f ff 85 bd bc a3 00 00 00 68 b8 bd
       0.3294318 -0.06542837 5.8737e-41 -0.090042114
0001b0 fc 3b 83 bc f0 4a fe 36 ba a8 00 80 45 a0 00 80
       -0.016019814 7.5785138e-06 -6.0528e-41 -5.7494e-41
0001c0 60 76 2d 3e 49 fb c3 3e b8 df 0b 3e cf b0 6c 3e
       0.16939688 0.38277653 0.1365956 0.23114322
0001d0 0b b1 b9 3d a8 2a ca 3d 8c 27 88 3e b9 93 87 bc
       0.090669714 0.09871417 0.26592672 -0.016549932
0001e0 f2 22 88 3e ee 98 32 be ef 23 d6 3e 30 14 1a be
       0.2658916 -0.1744115 0.4182429 -0.15046763
0001f0 ea c3 9e 3e eb ec 05 be 37 34 fc bc c3 4e cd 3a
       0.31008846 -0.13078658 -0.030786617 0.0015663732
000200 df a0 db bc 9f 24 39 3e f3 29 91 3d b0 e6 d3 bb
       -0.026810108 0.18080376 0.07088079 -0.006466709
000210 20 64 80 bd e4 fa 54 3d 5c 7a 9b 3c 02 ba 4e be
       -0.06269097 0.05199708 0.018979244 -0.20188144
000220 ea 47 87 3d d8 77 26 3e 03 09 43 3e 13 5b 9d 3e
       0.066055134 0.16256654 0.19046406 0.30733547
000230 32 67 c6 3d b2 9d 80 3e ef 97 75 be 9b 79 94 3e
       0.09687652 0.25120312 -0.2398374 0.28999028
000240 55 41 6a be fc 5d 9b be 77 6d 32 3e 69 80 93 bd
       -0.22876485 -0.30345142 0.1742457 -0.07202227
000250 f9 db 75 be 9d 0a 83 be e7 46 ed bd 40 73 d5 3d
       -0.24009694 -0.25594035 -0.11585789 0.10422373
000260 93 b5 43 be 53 da 53 3e b5 5d 8f 3e 89 e9 9a be
       -0.19112234 0.20688753 0.2800118 -0.30256298
000270 a1 f8 d2 3e 3b ea cc 3d d0 38 ce bd 3d d7 7d be
       0.41205314 0.100056134 -0.1006943 -0.24789138
000280 c7 4f 0a bd 28 2f 59 be 2f fe 86 3e 0e 18 ce 3b
       -0.033767488 -0.21209395 0.26365802 0.0062894886
000290 13 12 01 bc 08 2b b0 be c9 20 7d 3e 59 d3 92 3e
       -0.007877844 -0.3440783 0.24719538 0.2867687
0002a0 ee 9f 00 00 e9 be 00 00 e7 f1 4a bd 2a 43 56 b3
       5.7372e-41 6.8486e-41 -0.049547102 -4.9886843e-08
0002b0 4c 9d 00 80 39 44 58 bd dc a2 00 80 bf a2 00 80
       -5.6427e-41 -0.052799437 -5.8423e-41 -5.8382e-41
0002c0 d8 66 96 bd 60 a9 00 80 22 20 09 26 d9 ca 66 3d
       -0.07343835 -6.076e-41 4.757497e-16 0.056345794
0002d0 8a ba 00 00 0d a9 00 80 52 cd 88 3c 95 08 8b bd
       6.6918e-41 -6.0644e-41 0.016699467 -0.06788746
0002e0 b0 bd 00 00 6d 34 7a b7 4e b0 00 00 cf a0 00 80
       6.8047e-41 -1.49133675e-05 6.3246e-41 -5.7687e-41
0002f0 b9 b8 00 00 67 6e 91 3c 67 34 91 bc 9e 59 d5 b9
       6.6266e-41 0.01775284 -0.017725183 -0.00040693296
000300 45 d6 9c 3d 3a 34 56 bc b0 f9 98 3b 48 4a 0a 3b
       0.07658056 -0.013073975 0.004668437 0.0021101404
000310 6d b6 4e 3e c3 f0 99 be 59 e5 d4 3e 06 ba 90 be
       0.20186777 -0.300665 0.41581228 -0.28266925
000320 0b 3d 80 bd 1c fc 9e be fd fb 61 be b8 f9 e5 3e
       -0.06261643 -0.3105172 -0.22068782 0.44917083
000330 7a cb 59 be 6a 3c 61 be cb 4d 8d 3e c8 05 d3 3e
       -0.21269026 -0.21995702 0.27598414 0.41215348
000340 8d f9 ef 3d f8 f0 22 3e d9 45 02 3d cb 60 5b 3e
       0.1171752 0.15912235 0.031804893 0.21423642
000350 2f 7e 65 bd 33 87 b7 bd 9c 2f 02 be 6c c8 a3 be
       -0.05602854 -0.08961334 -0.12713474 -0.31988847
000360 24 c7 53 3e 6e ac 89 3e 77 56 71 bc 20 df 1b 3e
       0.20681435 0.26889366 -0.0147300875 0.15221834
000370 bc 01 21 be b8 27 cc bc a3 52 55 be 16 33 93 3e
       -0.15723318 -0.024921283 -0.20832305 0.28749913
000380 9e f5 7a bc b9 1a 8c 3e 5c fb 5b bd 9e b7 54 3e
       -0.015317349 0.27364138 -0.05370651 0.2077317
000390 0b 0b e6 3e 0a 97 b8 3c 7e d8 8a be c7 30 cb bd
       0.449303 0.022532959 -0.27118295 -0.09921413
0003a0 45 b4 c2 be 74 d6 8a bd f4 e1 97 be e6 7d aa be
       -0.3802816 -0.06779185 -0.29664576 -0.33299178
0003b0 d9 a9 29 bd 79 8a 9a 3e 14 d1 ed bc 71 53 c5 3e
       -0.041421745 0.3018377 -0.02903036 0.38540223
0003c0 fc ca 9b 3d 48 20 81 bc 14 a2 c1 3e cd fd a7 be
       0.076070756 -0.015762463 0.37818968 -0.32810822
0003d0 fd 37 32 3e ea 0e f0 bd df 43 cc bb 02 8a 8a be
       0.1740417 -0.11721595 -0.006233677 -0.27058417
0003e0 d9 f8 96 3e 54 92 8a be 79 f5 f4 3d 35 fb ca 3e
       0.2948673 -0.27064764 0.11960883 0.3964478
0003f0 00 3a 97 be 80 1f 2c bc 4f 7e d3 bd 21 60 7f be
       -0.29536438 -0.010505557 -0.10326826 -0.24939014

bias f4 [128]
000000 61 04 60 b6 d0 e3 4b 3e 2c 16 d2 3e 64 e0 8d be
       -3.338115e-06 0.19911122 0.4103254 -0.2771026
000010 d3 f4 20 3e 2c 43 d0 3e 81 ad 00 80 2b aa ab bd
       0.15718393 0.40676248 -6.2241e-41 -0.08382066
000020 a3 9f d8 bc 6e 73 89 3d 1f fa 55 bd b7 ea ea 3e
       -0.026443308 0.067114696 -0.052240487 0.45882198
000030 4e aa 85 be a6 6c 55 3c 7f 37 6d bc 47 cf 10 bd
       -0.26106495 0.013026392 -0.014478563 -0.035353925
000040 7b fc 81 be f8 11 25 be 95 dd f6 3c 0b 9c ca 3e
       -0.2538794 -0.16120136 0.030134955 0.39572176
000050 9b e3 9e 3e 2f f3 65 3c bf 9c 14 be cd a0 c5 be
       0.31033024 0.01403503 -0.14512919 -0.38599244
000060 a0 b4 00 80 06 dc 13 bc b2 6d 13 bc fb 63 78 3b
       -6.4796e-41 -0.009024626 -0.008998321 0.003790139
000070 44 cd 8b bd ef ac cf 3e 81 45 c7 be d3 66 e3 3e
       -0.06826261 0.40561625 -0.38920215 0.44414386
000080 d1 c3 50 3e 50 e4 88 be bd fd 3b 3e 2a bf 57 be
       0.20387198 -0.2673669 0.18358512 -0.21069017
000090 18 6b ae 3e 92 fe 46 bd d0 fd bf 3e 43 4f e8 bd
       0.3406608 -0.04858262 0.3749833 -0.11343243
0000a0 d7 b4 7a be 18 d8 3a 3e c5 92 cf 3d c9 5a 79 3d
       -0.24483047 0.18246496 0.10135416 0.060877595
0000b0 e5 fc 4b be b3 74 e2 3e 02 64 78 be a8 b0 00 80
       -0.1992069 0.4422966 -0.242569 -6.3372e-41
0000c0 02 49 e0 bd 14 32 ce be 9b f1 87 3e e7 81 b8 3e
       -0.10951425 -0.40272582 0.26551518 0.36036608
0000d0 c9 25 c0 3e b6 c6 55 3e 34 93 ca 3e a5 b1 3c 3e
       0.37528828 0.20876583 0.39565432 0.18427141
0000e0 17 fa 9b bd 87 f4 9e 3d 77 36 92 3e ad b0 00 80
       -0.0761606 0.07761484 0.28557178 -6.338e-41
0000f0 8a 4b 09 3d 4d 95 74 be e6 14 2f bd e0 a3 26 be
       0.033519305 -0.23885079 -0.04274454 -0.16273451
000100 22 0c 91 be 75 b0 16 3e d8 8f dc 3e ea 5e 59 bd
       -0.2832957 0.1471575 0.43078494 -0.053069033
000110 4a f4 83 3e 9a da ab 3c 77 d1 ed 3d 63 cc cf 3e
       0.25772315 0.02097826 0.11612218 0.40585622
000120 f7 84 84 3c 17 6a 76 3d 1c 50 d9 bd 8f 33 4a 3e
       0.016176684 0.06015977 -0.10610983 0.1974623
000130 0e f2 aa bd f6 09 a6 3e a4 66 54 3e e3 3d 1f 3d
       -0.083469495 0.32429475 0.2074228 0.03887738
000140 a7 cd 9a 3e 81 51 c7 3e 0e 9d 9f be dc 76 aa be
       0.30235025 0.3892937 -0.3117451 -0.33293808
000150 1a 39 be bd 18 93 40 3e 72 f5 10 be 27 da 3b 3e
       -0.09288235 0.18806112 -0.1415613 0.18344937
000160 14 0a 9c 9f 17 82 19 b8 cb e0 bf bd 78 87 00 3e
       -6.608524e-20 -3.65992e-05 -0.09369048 0.12551677
000170 62 19 54 3e 9b f9 bd 3e 1b 0f 63 3e 6c e4 ef bd
       0.20712808 0.37104496 0.22173731 -0.1171349
000180 b2 35 4b 3e 30 f5 71 3d e1 1e c2 be cd e8 46 3e
       0.19844702 0.05907172 -0.37914184 0.19424744
000190 31 14 41 3d f5 64 95 be 50 a0 3b 3e 42 b8 8d 3e
       0.047138397 -0.29178587 0.18322873 0.2767964
0001a0 b9 31 47 be a6 76 28 be 76 ae 73 3e 4a 58 78 be
       -0.19452561 -0.16451511 0.2379702 -0.2425243
0001b0 7b bf 38 3e 84 06 ee bb 6a 1f 92 3d 1e 55 61 be
       0.18041794 -0.0072639603 0.07134898 -0.22005126
0001c0 e4 58 43 3e 85 19 98 be d0 66 11 bd 36 2c a0 be
       0.19076878 -0.2970697 -0.03549844 -0.3128373
0001d0 ec c8 ad 3e ba c3 b9 3d 17 c3 00 00 69 eb 90 3e
       0.33942354 0.09070535 6.9985e-41 0.28304604
0001e0 41 57 9a 3e c7 c8 da bd d2 a2 1f 3e 78 82 7b 3e
       0.30144694 -0.106828265 0.15589455 0.24561489
0001f0 20 f8 e6 3e 10 4b 12 be 5a 84 a8 be 23 81 62 be
       0.4511118 -0.14286447 -0.32913476 -0.22119574

weight f4 [128, 128]
000000 33 bf 00 80 51 60 94 bd 54 bc b8 bd 92 4e 94 bc
       -6.859e-41 -0.072449334 -0.09020296 -0.018103871
000010 f8 e5 0a bd 47 81 00 bd 14 bf 00 00 3f ae 00 00
       -0.03391072 -0.03137329 6.8546e-41 6.2508e-41
000020 dd a8 00 00 32 4c 63 3d 36 3c f7 3c a0 ea 2b 3c
       6.0577e-41 0.055492587 0.030180078 0.010492951
000030 64 36 a6 3d a4 c8 91 3d c2 bb 5c bd 22 ba 00 00
       0.08115843 0.07118347 -0.053889997 6.6772e-41
000040 60 c7 c1 3d a0 99 ac 3d 04 da c6 3c 1d 02 fe 3c
       0.09461856 0.08427739 0.02427388 0.031006867
000050 4c d1 96 bd 16 d8 93 3d 61 8e ce 3d 2c 7c a9 3c
       -0.07364139 0.072189495 0.1008575 0.020689093
000060 4e b8 00 00 63 b2 00 80 5e a1 00 80 12 d8 63 3c
       6.6116e-41 -6.3993e-41 -5.7888e-41 0.013906496
000070 f6 1c 9e bc 18 d5 9d bd 8f a1 46 3d 8f b5 9f bc
       -0.019300919 -0.0770666 0.048493918 -0.019495754
000080 fe 62 f6 3c 45 4c 13 bd 39 f7 b4 bd 5f 89 bf 3d
       0.0300765 -0.03596141 -0.088362165 0.09352373
000090 0c d6 c4 bd e2 98 30 3d ad 62 80 3c ba 7c a5 3c
       -0.09611139 0.04311455 0.015672052 0.020201076
0000a0 c7 83 a1 3c 93 7c 8b bd 80 bd 0a 3c e5 26 f6 3c
       0.019716157 -0.0681087 0.008468032 0.030047843
0000b0 4c 4c 98 3d c5 ff a7 3c 4a 1f 99 bc a3 be 00 00
       0.074364275 0.020507703 -0.018691678 6.8388e-41
0000c0 23 b1 87 3d 87 79 af 3c 23 c4 c2 bd 26 2a 74 bd
       0.06625583 0.021420253 -0.09510066 -0.05961051
0000d0 cb 9f 09 be 7b a1 52 bc 8e b4 58 3d 5b a0 bd 3c
       -0.13439862 -0.012855883 0.052906565 0.023147753
0000e0 1d 41 f0 3c be 7e 19 bb a9 c7 7d bd d5 b4 00 80
       0.029327923 -0.0023421491 -0.06195799 -6.487e-41
0000f0 d3 31 38 3d 11 89 df 3d 97 a4 00 00 8e ff ae bc
       0.04496939 0.10914815 5.9044e-41 -0.021362092
000100 c0 cb 0b 3d fe 80 5b 3d e4 4c a8 3b 41 c2 00 00
       0.034129858 0.053589813 0.005136119 6.9685e-41
000110 9a 40 81 bd 93 2d 78 bc 0f 66 4b bd fb 8f 81 bc
       -0.0631115 -0.0151475845 -0.049657878 -0.015815726
000120 e8 06 9b 3d cb 99 a4 3c 21 9e f6 bc 25 22 92 bd
       0.07569677 0.020092865 -0.030104699 -0.07135419
000130 a3 9a f7 bc 3a 9d 9b 3d 1d e4 a9 3c 25 56 8a 3d
       -0.030225104 0.07598348 0.020738656 0.06754712
000140 5c 3b 53 3d 03 2e f5 3b 42 d2 35 3d 76 06 9c 3d
       0.05157028 0.0074822917 0.04438997 0.0761842
000150 74 75 70 3d ba b9 cf 3d 20 43 e6 3d f9 61 da bb
       0.058705762 0.101428464 0.11243272 -0.0066645113
000160 59 ae 00 80 d9 9e 00 80 6b a0 20 bd ed ba da bd
       -6.2544e-41 -5.6984e-41 -0.039215486 -0.106801845
000170 e2 8e 05 bd 21 e3 16 bd 32 62 e5 3c f2 83 5d 3d
       -0.032606967 -0.0368377 0.028000925 0.05408091
000180 98 4c 95 3d a6 ff 56 3d a2 af 95 3d ae 50 8d bd
       0.0729 0.0524899 0.0730889 -0.06900154
000190 0a cb a1 3d 82 b5 a9 3d fc 17 36 98 3d 66 b2 bc
       0.07900055 0.08286573 -2.3535058e-24 -0.021777267
0001a0 90 6a e3 bc c6 c7 02 3d eb 92 f5 bb 9f a1 a4 bc
       -0.027760774 0.0319288 -0.0074943206 -0.020096598
0001b0 70 a1 a0 3c ae b7 00 00 cb 74 8b bc 57 1a b6 b7
       0.01960823 6.5892e-41 -0.017023465 -2.1708356e-05
0001c0 eb d4 4c bd bc ce 90 3d d1 c1 00 80 aa dc b5 bc
       -0.050007742 0.070706815 -6.9528e-41 -0.022199947
0001d0 9f f6 9b bd 15 ae bb 3c 5a a1 00 80 01 0f 0d 3d
       -0.076153986 0.022910157 -5.7882e-41 0.034438137
0001e0 6c f1 1a bd 49 64 67 3c d9 f6 b4 bd da 92 67 bc
       -0.037827894 0.014123031 -0.08836145 -0.014134133
0001f0 74 92 b5 bd 72 a4 ac ba cc 2d 55 3d 1f 0b 41 3d
       -0.08865824 -0.0013171567 0.05204563 0.047129747
000200 d1 a4 00 00 c3 d3 d9 bb 01 e7 8d bc 76 bb 80 3c
       5.9125e-41 -0.0066475584 -0.017322065 0.015714388
000210 e1 a2 da 3c f8 a0 a3 bc 8b a0 00 80 42 b0 00 00
       0.026688995 -0.019974217 -5.7592e-41 6.323e-41
000220 14 af 00 00 d4 cb a0 ba 97 b5 44 3d 8b d1 a9 bd
       6.2806e-41 -0.0012267777 0.04802474 -0.0829192
000230 60 bf 34 ba 26 12 d7 3c bb 54 6b 3b 9b aa 00 80
       -0.0006894972 0.026253771 0.0035908658 -6.1202e-41
000240 99 2a 95 3d b6 81 34 3d bf 0c 16 3c e3 16 79 bb
       0.072835155 0.044069014 0.009158312 -0.0038008026
000250 77 31 e0 3c 65 1b c4 3c 5c 4f 83 3d 5e e7 5a 3d
       0.027367337 0.023938844 0.06411621 0.053443305
000260 4a b3 00 00 54 a4 00 80 c3 ad 00 80 95 5b 6b 3c
       6.4317e-41 -5.895e-41 -6.2334e-41 0.014365097
000270 c2 33 45 3d 09 2a 93 bd 1a 00 f4 bc 06 81 aa bb
       0.048145063 -0.07185752 -0.029785205 -0.005203369
000280 66 00 65 bd fe e8 e9 3b be 74 b2 bc 3f a9 4c 3c
       -0.055908583 0.0071383705 -0.021784183 0.012491523
000290 d3 34 30 bc 77 a8 31 3d a6 a3 5b bd 7a 9f 5c bb
       -0.010754782 0.04337355 -0.053622864 -0.0033664391
0002a0 6c 8c 72 3d db fa e6 bc 5e 54 4f 3d e1 0c 3b bd
       0.059215948 -0.02819579 0.05061757 -0.04566658
0002b0 7f 16 37 bd fe df 6e bd 71 24 f5 bb 83 9d 00 00
       -0.04469919 -0.058319084 -0.007481151 5.6505e-41
0002c0 e1 a8 96 3c d1 0f 8e 3b d6 43 b6 bc ea e6 0b bd
       0.018391075 0.0043353816 -0.022249144 -0.034155764
0002d0 2d fc c8 bc 7a ea 98 3c 7a a3 b7 bc 0f 91 5c 3d
       -0.02453431 0.018666495 -0.022416819 0.053849276
0002e0 04 ee f1 3c 84 87 0f bc 69 86 35 bd 31 b9 00 80
       0.02953244 -0.008760337 -0.044317637 -6.6434e-41
0002f0 8c b8 83 3d d9 31 03 3d 68 b3 00 00 b2 04 1b bd
       0.06431684 0.03202996 6.4359e-41 -0.037846275
000300 55 73 57 3c 34 3e c8 3c dd 6e ef bc 87 ad 00 80
       0.013150056 0.024443723 -0.029227668 -6.225e-41
000310 50 59 1b 3d 83 91 74 3b ab 58 34 20 9a ad 3f bb
       0.037926972 0.0037318177 1.5275931e-19 -0.0029247762
000320 a8 20 29 bb dc 88 a3 3b ce 3d 34 bd 7e 07 64 bc
       -0.0025806818 0.00499068 -0.044004254 -0.013917802
000330 ac b2 a3 3c 09 f5 64 3d f8 e1 6b 3d c3 7b 86 bb
       0.019982658 0.055897746 0.057588547 -0.004104109
000340 44 bf 55 3c 3a 1e 21 bd ba 76 5d 3b ca 29 0a bb
       0.01304609 -0.039335467 0.003379269 -0.0021082037
000350 35 9e 87 3d 73 93 71 3c 49 ec 29 bd 16 5f 17 bb
       0.066219725 0.014744627 -0.041485105 -0.0023097447
000360 31 aa 00 00 b4 a7 00 80 20 a9 99 3d f3 29 3d 3d
       6.1053e-41 -6.016e-41 0.07502961 0.046182584
000370 a4 5f e2 3a 48 e5 c4 bb e4 ac 00 00 a9 5d 30 3d
       0.0017270935 -0.006008778 6.2021e-41 0.04305807
000380 45 e7 fb bc 2e 49 38 bd f5 7d d1 3c 23 b9 c7 3b
       -0.030749926 -0.044991665 0.025572756 0.006095068
000390 ce f7 23 bc 51 17 c4 3d df a2 00 80 8d 1c 2a 3d
       -0.010007812 0.0957476 -5.8427e-41 0.041531134
0003a0 a0 89 19 bc e4 73 c9 3c 48 60 5a bd d4 83 1b 3d
       -0.009371191 0.024591394 -0.053314477 0.037967518
0003b0 27 98 55 bd eb bc 00 00 c5 92 12 3d d1 80 3d 3d
       -0.052147057 6.7771e-41 0.0357845 0.046265427
0003c0 08 f2 6e 3d ed 4b 5d 3d fd b3 00 00 11 9b 1a bd
       0.058336288 0.054027487 6.4568e-41 -0.03774554
0003d0 d9 4b d8 bc 91 3f 4b bc bc 9f 00 80 46 ad aa bb
       -0.026403354 -0.012405292 -5.7302e-41 -0.005208644
0003e0 20 36 75 bb 21 5e 8a 3d a8 14 e6 bc 56 10 43 3d
       -0.0037416294 0.06756235 -0.028086022 0.047623
0003f0 a4 5e 8a bd a0 26 36 3d 26 0d 69 bd 68 1a bc 3c
       -0.067563325 0.04447043 -0.056897305 0.02296181

bias f4 [128]
000000 6c 57 94 bd 4c e0 2d bd b3 ed 2a bb f9 47 a3 ae
       -0.07243237 -0.042450234 -0.0026081621 -7.425167e-11
000010 46 d5 f8 3d e8 10 f3 3d 82 8a 15 3e 82 3b 16 bd
       0.12150054 0.11868459 0.14603618 -0.036677845
000020 41 3b b0 bd 7a f2 fe 3d c9 48 44 bc dd 82 e1 bd
       -0.08605052 0.124485925 -0.011980244 -0.11011288
000030 0d 49 8f bb e7 b0 0b be cd ae 51 bc 62 3b 93 3b
       -0.004372722 -0.13641702 -0.012798023 0.004493163
000040 48 84 6d bc d4 0c f3 3d 23 b9 00 80 5b d8 44 3d
       -0.01449687 0.11867681 -6.6415e-41 0.048057895
000050 9c 58 86 bd 36 be 08 3d 78 9c a6 ba 86 9b 2f 3c
       -0.0655987 0.033384524 -0.0012711426 0.010718232
000060 b0 5d 88 bc 49 d9 e8 3d fa cd f0 bd cb 00 7e 3d
       -0.016646236 0.11369569 -0.11758037 0.062012475
000070 e9 c2 8e 3d c9 1e 0d 3d db 88 71 3d 45 b9 00 80
       0.0697077 0.034453187 0.058968406 -6.6462e-41
000080 33 97 84 3d c9 56 88 3d 13 0b a5 bb 35 41 8f 3d
       0.064741515 0.06657178 -0.0050367205 0.06994859
000090 5e bf 07 3e 53 10 13 3d fc 06 f1 bd e1 70 bf 3d
       0.13256595 0.03590424 -0.1176891 0.09347702
0000a0 bb 5b 29 bc 84 d5 7b 3d 03 1b 6c 3b 84 99 76 bd
       -0.010336812 0.06148292 0.0036026842 -0.060204998
0000b0 65 f6 f5 bc af 2b a3 ab 32 96 0d 3e 74 27 46 3d
       -0.030024717 -1.1593971e-12 0.13826826 0.04837747
0000c0 27 46 32 3e 50 be 91 3d 29 60 3e 3d 85 03 93 3c
       0.17409573 0.07116377 0.046478424 0.017946014
0000d0 0e 95 2f 3d 14 ad 77 3b 4d 07 a6 3c ff 68 42 3d
       0.04286676 0.0037792372 0.020267153 0.047463413
0000e0 96 bb 6c 3d 8b cd b9 bb ec a7 00 80 2c 48 c7 3d
       0.057796083 -0.0056702546 -6.0239e-41 0.097305626
0000f0 64 0e 77 3d bc a2 4d bc 0e b8 e6 3c 9c af 00 80
       0.06031646 -0.012551006 0.028163936 -6.2997e-41
000100 f0 76 b7 bd fe b2 0a 3c 43 e8 0f 3e ce 0e 10 3d
       -0.089582324 0.008465527 0.14053445 0.03517037
000110 4b 62 a3 3d 9d ab 02 3e c3 67 f7 bc ef e7 7d 3d
       0.07977732 0.12760778 -0.030200845 0.061988767
000120 2f 80 14 3e f0 5a 53 3d 12 b3 5d 3c 4c a3 00 80
       0.14502023 0.051600397 0.013531463 -5.858e-41
000130 de a7 60 3d 32 f7 94 bd 77 80 7d 3d 9b e3 f3 3d
       0.05484759 -0.07273711 0.06189009 0.11908647
000140 6b ab c1 3b fd 9f 00 00 fa 1c 8f 3d 39 f5 ac 3d
       0.005910327 5.7393e-41 0.06987949 0.0844521
000150 a6 1f 4d bc 09 6a 3b 3c 77 75 ef bd 67 d9 0f 3e
       -0.012519753 0.011438855 -0.116923265 0.14047776
000160 34 7d 75 bb ab aa 00 80 40 99 2b 3c aa 31 26 bd
       -0.003745866 -6.1224e-41 0.010473549 -0.040574707
000170 9d dc b8 3c 92 d3 89 bc 04 ab 72 3b f1 1a 57 3d
       0.022566134 -0.016824517 0.0037028203 0.052515928
000180 e6 b3 00 80 00 d3 dd 3c de 25 3c 3d 5c b1 a3 3b
       -6.4535e-41 0.027078152 0.04593455 0.004995508
000190 75 f8 57 bd 02 95 66 bb 5a 77 0d 3e a3 ea d2 3c
       -0.05272718 -0.003518403 0.1381506 0.02574665
0001a0 3e e3 98 bc 59 62 b4 3c 1a fd 90 bc 07 a2 00 80
       -0.018663045 0.022019552 -0.017698813 -5.8124e-41
0001b0 6d 94 98 3d 2c c4 c0 3d 4d 4d e1 3c bb b5 00 80
       0.07450185 0.09412417 0.02750268 -6.5193e-41
0001c0 4e 58 09 bc 55 e1 ec 3d 37 a3 00 80 9f 4a df 3d
       -0.00838287 0.11566416 -5.855e-41 0.10902905
0001d0 d6 8e 04 3e 17 a9 00 80 da 77 48 b6 01 c2 00 80
       0.12945113 -6.0658e-41 -2.9872085e-06 -6.9595e-41
0001e0 c7 02 23 bd 6d e5 db 3d f7 fd 48 3d 03 11 99 3d
       -0.03979757 0.10737119 0.049070325 0.07473948
0001f0 d5 98 f4 3c 06 76 bf 3d 34 b4 43 3d ba 56 9c 3d
       0.029858032 0.09348683 0.047779277 0.07633729

weight f4 [4, 128]
000000 4c b8 00 00 17 c3 00 00 22 0b a6 b9 b7 a3 00 00
       6.6113e-41 6.9985e-41 -0.00031670282 5.873e-41
000010 b9 4a 34 ba 0b 83 ff b9 e2 47 48 ba 53 66 bd b9
       -0.00068775896 -0.00048735025 -0.0007640106 -0.00036125127
000020 0a 23 c8 b7 61 e0 1d ba e1 9c 00 80 85 b5 00 80
       -2.3858174e-05 -0.000602251 -5.6278e-41 -6.5117e-41
000030 1e a4 00 00 94 ac 00 80 24 b4 00 80 ce b6 00 00
       5.8874e-41 -6.191e-41 -6.4622e-41 6.5578e-41
000040 91 7e 20 ba ce cb ee b9 7b bc 00 80 3b 68 8a b7
       -0.00061223755 -0.00045546744 -6.7614e-41 -1.6499418e-05
000050 bb a6 00 80 99 12 42 b9 04 b5 00 00 16 2e 14 ba
       -5.9812e-41 -0.0001850821 6.4936e-41 -0.00056526193
000060 fd ac 00 00 c8 12 00 ba 46 c3 00 80 13 a9 28 ba
       6.2057e-41 -0.0004885611 -7.0051e-41 -0.00064338854
000070 20 61 15 ba b8 b5 00 80 35 e8 05 ba 28 ad 00 80
       -0.00056983717 -6.5188e-41 -0.0005108149 -6.2117e-41
000080 b1 ef 27 ba c4 a9 a2 b9 5d 5b 42 b3 9c c4 27 ba
       -0.0006406261 -0.00031025533 -4.525224e-08 -0.00063998415
000090 ab 33 09 ba 38 ca 34 ba 32 94 d9 b5 ce e4 bd b9
       -0.00052338344 -0.0006896588 -1.621089e-06 -0.00036219362
0000a0 71 48 72 b9 11 a1 00 80 4f 95 95 b9 87 b0 00 80
       -0.00023105905 -5.778e-41 -0.00028530738 -6.3326e-41
0000b0 89 21 c3 b9 f7 a0 00 00 eb 41 90 ba cd d3 1f ba
       -0.00037218284 5.7743e-41 -0.0011005973 -0.00060969294
0000c0 68 51 37 ba 7a ed 90 b9 80 3b 2a ba 0c 96 ed b8
       -0.00069930265 -0.00027642754 -0.00064938515 -0.00011328989
0000d0 69 d8 d1 b9 c0 b1 00 00 c9 b9 00 80 88 19 16 ba
       -0.00040024825 6.3765e-41 -6.6647e-41 -0.00057258504
0000e0 b8 ee 2b ba 2d a0 00 80 12 be 00 80 2e 6b 4b ba
       -0.0006558704 -5.746e-41 -6.8184e-41 -0.00077598065
0000f0 64 bc 00 80 e9 a3 00 00 5a 8b 28 ba fc b3 00 80
       -6.7582e-41 5.88e-41 -0.00064294564 -6.4566e-41
000100 43 b4 00 00 18 c8 46 ba ae b7 3c ba 26 85 1b ba
       6.4666e-41 -0.0007582917 -0.0007199001 -0.00059326214
000110 6b 54 db b9 b2 33 f0 b9 83 ae 00 80 87 c1 00 00
       -0.0004183383 -0.00045814883 -6.2603e-41 6.9425e-41
000120 41 5d 22 ba 57 a6 00 80 90 ff 95 b7 6a a6 00 00
       -0.00061937055 -5.9671e-41 -1.788119e-05 5.9698e-41
000130 d2 e0 ff b9 6a 53 86 a3 dd a8 a1 b9 70 62 2b ba
       -0.00048804894 -1.4563636e-17 -0.00030834126 -0.00065378007
000140 fd 2b 94 b8 0a b3 00 00 be 11 14 ba f1 93 f9 b9
       -7.0653834e-05 6.4227e-41 -0.0005648396 -0.00047603206
000150 98 2a b2 b9 01 4f 8e a3 2f b0 00 80 87 1d 0d ba
       -0.0003398254 -1.542913e-17 -6.3203e-41 -0.0005383123
000160 93 a3 00 80 2a a2 00 80 82 9d 00 80 c6 a0 00 80
       -5.868e-41 -5.8174e-41 -5.6503e-41 -5.7675e-41
000170 76 4b 61 b9 94 af e8 b9 3e aa 46 b7 e9 c0 00 00
       -0.00021485784 -0.00044381304 -1.1841357e-05 6.9203e-41
000180 f1 9d 00 00 3c fa fd b7 1d db 05 ba 5c c0 00 80
       5.6659e-41 -3.0276475e-05 -0.0005106198 -6.9006e-41
000190 c0 9e 00 80 c7 4e 5b ba 68 ad d9 b9 17 af 00 80
       -5.6949e-41 -0.0008365926 -0.00041518663 -6.281e-41
0001a0 77 b5 00 00 07 eb 01 ba 0a 34 f5 b9 3b ba 00 00
       6.5097e-41 -0.0004955981 -0.00046768814 6.6807e-41
0001b0 af 59 b9 b9 75 a5 00 80 3b b0 00 00 15 ad 00 80
       -0.0003535277 -5.9355e-41 6.322e-41 -6.209e-41
0001c0 5a f0 e1 b9 3a 54 77 39 1d b9 00 00 cb 46 d7 b9
       -0.0004309442 0.00023587132 6.6406e-41 -0.0004106074
0001d0 43 1a 24 ba 9f bf 00 00 57 b1 00 00 8b b7 00 80
       -0.0006260017 6.874e-41 6.3618e-41 -6.5843e-41
0001e0 74 0f 4a 37 52 a4 c8 b9 53 55 8b b9 ae 7c d0 b9
       1.2043736e-05 -0.000382694 -0.00026575717 -0.00039765745
0001f0 90 a7 11 b9 23 be 1f ba 20 b6 00 00 71 c4 a8 b9
       -0.000138907 -0.0006093701 6.5334e-41 -0.00032189817
000200 8a 1d 03 be a6 c7 84 bd 69 b8 2c 3d 74 cf a5 38
       -0.12804237 -0.064833924 0.042168055 7.906454e-05
000210 d8 a2 d6 3d 33 73 91 3d f9 bf c9 3d de aa a9 3d
       0.10480279 0.07102051 0.09851069 0.082845435
000220 a7 81 07 be de 5f 6e 3d bc 3e 67 b9 9a d0 9a bd
       -0.13233052 0.058196895 -0.00022053247 -0.07559319
000230 72 62 21 bd 1d 35 fb bd 32 98 ab bd 7a 11 57 bc
       -0.039400525 -0.1226599 -0.08378638 -0.013126725
000240 98 0b 89 3d b5 ac 5c 3d 8d 69 6a 36 b5 f7 da 3c
       0.066916645 0.053875644 3.4930156e-06 0.026729444
000250 37 ba e5 bd 29 5e 4d 3d 3a bb 04 3a 25 b3 6b 3d
       -0.11217158 0.050138626 0.00050632993 0.057543892
000260 8a 5c db bd fa 31 e0 3d 1f 54 ae bd 15 65 f4 3d
       -0.1071101 0.10947032 -0.085121386 0.11933342
000270 2b 03 7b 3d 3d 02 95 bc a1 8c e5 3d 25 9f 00 80
       0.061282318 -0.018189544 0.112084635 -5.709e-41
000280 5e a9 e0 3d 99 bc e5 3d 2c 85 09 bd 26 ef b3 3d
       0.10969804 0.11217613 -0.03357427 0.08785848
000290 9b 5e d9 3d 72 50 c5 3d 64 28 a3 bd bd 8b b6 3d
       0.10613748 0.09634484 -0.07966688 0.08913372
0002a0 7f 61 66 bd 4c 2c bb bd 16 1f 7a 3c bc f9 52 bd
       -0.056245323 -0.09139308 0.0152662005 -0.051507697
0002b0 e9 0a 8e 3c 14 11 e9 39 29 48 f6 3d f0 82 91 3d
       0.017339187 0.00044453947 0.12025482 0.071050525
0002c0 7b 7c cd 3d 3a 80 40 3d 06 37 88 3d 4a 38 01 3e
       0.100335084 0.046997286 0.0665112 0.12619129
0002d0 1a 70 19 3d e6 a3 05 be b5 e6 e6 bd 76 ae 02 3e
       0.037460424 -0.13050804 -0.112744726 0.12761864
0002e0 20 0e 7b 3d 12 9f ba bd 02 a2 00 00 8f 1f 07 3e
       0.061292768 -0.091123715 5.8117e-41 0.13195632
0002f0 2b a9 91 bc e8 44 84 b9 9d 24 96 3d e4 a6 00 80
       -0.01778086 -0.0002522834 0.07331202 -5.9869e-41
000300 f7 ec 89 bd 9a ea 83 3d 37 c4 d7 3d 1d 8c 06 3e
       -0.067346506 0.06441231 0.10535472 0.13139386
000310 71 20 b2 3d 4b 07 06 3e 15 24 77 bd e5 9b e7 bd
       0.08697594 0.1308872 -0.060337145 -0.113090314
000320 dd 6d 08 3e 25 48 8c bd cb 54 8f bd 72 9c 00 00
       0.1332316 -0.06849698 -0.06998595 5.6122e-41
000330 93 d2 9b 3d a7 fd ec bd f4 9c 81 3d 00 fb df 3d
       0.07608523 -0.11571818 0.063287646 0.10936546
000340 45 70 81 bc 62 8e 26 03 bf ea cc 3d e4 73 d9 3d
       -0.015800605 4.8946463e-37 0.10005712 0.106178075
000350 13 73 0e 3d da 59 6f bd 41 5e ef bd f7 94 dc 3d
       0.034777712 -0.0584353 -0.116878994 0.107706
000360 7a f2 14 bc 48 bb 00 00 f9 53 52 bc 3d 26 bb bd
       -0.009091014 6.7184e-41 -0.012837403 -0.09138153
000370 75 c3 29 bb a1 af 29 3d 7f 51 b7 bd d2 3b e0 bb
       -0.0025903855 0.04142726 -0.08951091 -0.0068430686
000380 70 ab 00 00 72 41 10 be 28 fc c9 3d e1 8a 8a bc
       6.15e-41 -0.14087465 0.09862548 -0.016911926
000390 83 a0 02 be 69 3f c7 3d b4 94 7c 3d 47 b3 59 bd
       -0.12756543 0.097288914 0.06166525 -0.053149488
0003a0 ca e1 be 3b bf 5f dd 3d aa 92 62 3d 50 ac 00 00
       0.005825256 0.10809278 0.05531565 6.1814e-41
0003b0 05 4e 9d 3d 62 af c8 bd 36 b5 69 bc 05 a8 00 80
       0.07680897 -0.097990766 -0.014264395 -6.0274e-41
0003c0 7b 93 e9 3d 1e e2 e6 3d b9 b9 00 80 a5 32 b9 3d
       0.11405083 0.11273597 -6.6625e-41 0.09042863
0003d0 f4 5a cc 3d 33 b1 00 00 70 30 64 39 1f ab 00 00
       0.099782854 6.3567e-41 0.00021761819 6.1387e-41
0003e0 96 cc 21 3d 9b c2 0b 3e ee e6 87 3d c0 ec 1c 3d
       0.03950175 0.13648455 0.06635843 0.03831172
0003f0 21 ef c7 bc 84 96 fc 3d 34 eb 33 bd a3 3e 94 3d
       -0.024406018 0.12333396 -0.04392548 0.072385095

bias f4 [4]
000000 9a ec 06 ba 0d 3e 0d 3e 69 75 c5 bc 66 5a 77 3d
       -0.0005146951 0.13793202 -0.024103837 0.060388945
