c220g2_power.pt (torch, 85110 bytes, 7 tensors)

pkg_bias f4 [2]
000000 3e 97 c9 3d 72 6c 8b bd
       0.098433 -0.06807794

weight f4 [128, 7]
000000 54 c0 a6 3c 9e ee a3 3e 40 65 4d be 84 fe d2 3d
       0.020355381 0.32017988 -0.20058155 0.10302451
000010 e6 62 99 3e d2 d6 22 3e bc b1 65 be d3 0a 3c be
       0.29958266 0.1590226 -0.22431082 -0.18363504
000020 75 52 57 be dc 31 af be 9e 28 c5 3e 11 85 5e 3e
       -0.21027549 -0.34217727 0.3850755 0.21730448
000030 a6 e1 45 3e 88 64 80 3e e7 5a 30 3d 95 1e 9b 3e
       0.1932436 0.250767 0.04305544 0.3029677
000040 b7 4a bc 3e 87 b6 b2 3d 5b be 53 be f1 a5 54 3e
       0.36775753 0.087262206 -0.20678084 0.20766427
000050 9c ea 99 3e 40 7a 49 bb 58 95 9b 3e 14 3e 71 be
       0.30061805 -0.0030743033 0.30387378 -0.23558837
000060 15 5e 67 be 4f 15 93 3c 5a 03 70 be ba 1f 7e 3e
       -0.22594483 0.017954497 -0.23438779 0.2481679
000070 10 4c 78 be 15 f3 84 be c6 61 6a 3e b9 3f c3 3d
       -0.24247766 -0.25966707 0.2288886 0.095336385
000080 40 e2 68 be d3 58 5d 3e e4 a4 ce 3c de 85 ad be
       -0.22742558 0.21615915 0.02522511 -0.33891195
000090 65 03 8d 3d bb 9e 81 3e a3 a5 a4 be 1f a9 3f be
       0.06885413 0.25316414 -0.3215762 -0.18716858
0000a0 07 e9 58 3e ab a4 3a 3e 1d ed 90 be 2d ab 79 3e
       0.21182643 0.18226878 -0.28305903 0.24381705
0000b0 68 72 cd bc ee ef 4b 3e 6e e8 43 3e 5d 83 54 3e
       -0.025078967 0.19915745 0.19131634 0.20753236
0000c0 87 87 a0 bd 11 f7 5a bc 50 ae 58 bd c5 ed 9c 3e
       -0.0783835 -0.013364569 -0.052900612 0.30650154
0000d0 86 bb 7e be 1c ad c0 3e 68 b2 c6 3e a2 2c 84 be
       -0.24876222 0.37632072 0.38807988 -0.25815302
0000e0 2a 0d c5 3e b8 d8 f7 bd 0c 40 47 3e e3 a9 bd 3e
       0.38486606 -0.12101883 0.19458026 0.37043676
0000f0 6f f9 af bd e7 0d 63 be af 0c 32 be 5d 96 8d bd
       -0.085924976 -0.22173272 -0.17387651 -0.06913445
000100 18 1f 33 3d 9e d8 a6 3e 86 c2 67 be c4 0e c7 bd
       0.043730825 0.3258714 -0.22632799 -0.09719613
000110 86 0f a0 be eb 44 8a b8 fd 0d c2 3e 34 79 b0 be
       -0.31261843 -6.59319e-05 0.37901297 -0.3446747
000120 ea ea a8 3e d6 84 25 3e 2f a3 9d 3d fd ad 75 be
       0.32991725 0.16163954 0.076971404 -0.23992153
000130 1c a6 8b be 9f 42 02 3e 08 34 53 be 1f 88 0b bc
       -0.2727517 0.12720726 -0.20625317 -0.0085163405
000140 46 3b 69 3e 2b d4 23 3c 43 6e a0 3d ae 4f 0d 3e
       0.22776517 0.009999315 0.07833531 0.13799927
000150 75 77 6d 3e 38 3e 05 3e ae 0f 01 bd 34 16 a7 3d
       0.231901 0.13012016 -0.031509094 0.08158532
000160 ec 46 8b bd d9 7f bb bd 53 c2 0f 3d 08 41 99 be
       -0.06800637 -0.091552444 0.03509743 -0.29932427
000170 a5 ac 8e be ea b3 bc 3e 72 a8 16 bd 8e 32 3b 3d
       -0.27866092 0.36856014 -0.036781736 0.04570251
000180 26 b0 c6 3d 87 06 94 3d 4b 6a 2b 3e 4a 42 ab 3e
       0.097015664 0.072278075 0.16739766 0.33449012
000190 a7 05 06 3d 04 c2 a6 3e 72 28 5f be b7 6d 2f be
       0.032720234 0.32569897 -0.21792772 -0.17131697
0001a0 cc 8d 9f 3e ea 8f 93 3c 29 44 8c be a6 95 37 be
       0.3116287 0.01801296 -0.27395752 -0.1792818
0001b0 ef ca c2 3e 6b d9 c3 3d 3b 66 48 be 34 57 0e be
       0.3804545 0.095629536 -0.19570248 -0.13900453
0001c0 9d 88 68 be a0 56 3a bd 1a 5a e3 3b a8 84 12 80
       -0.22708364 -0.04549277 0.006938231 -1.700627e-39
0001d0 3c a6 cd b3 ca bf 48 3e ae bc 00 00 1e 7b 3e be
       -9.576294e-08 0.19604412 6.7686e-41 -0.18601653
0001e0 f9 bd 0a 3e 33 fe 4f 3e bd 0e 77 bc c0 f5 80 be
       0.13549031 0.20311813 -0.0150791975 -0.25187492
0001f0 3b 45 cb be 0f 15 60 be b5 48 68 3e 48 96 89 be
       -0.39701256 -0.21883033 0.22683986 -0.26872468
000200 f6 2e be 3e f4 23 59 be 7f 8e 64 3e 16 d8 9f 3e
       0.37145203 -0.21205121 0.22319983 0.31219548
000210 83 6f 24 be f4 ef 53 2d 6a 13 d8 bd 79 71 64 21
       -0.16058163 1.2047242e-11 -0.10550578 7.7399585e-19
000220 48 20 ab bd 0e 54 42 ba bd 3f 7e 3d a3 ae d5 19
       -0.083557665 -0.0007413038 0.062072504 2.2094219e-23
000230 7c ae c7 bd 0d 0f 91 be f7 20 bc 3c e0 07 66 3e
       -0.09750077 -0.28331795 0.022964938 0.22463942
000240 b7 ea af be ae 39 ae 3d 98 a8 69 3e d1 57 8c 3e
       -0.3435876 0.08507095 0.2281822 0.2741075
000250 db 3a b9 3c 38 b3 95 be 5c 8b 2c be 9f 21 ba 3e
       0.022611072 -0.29238296 -0.16850036 0.36353776
000260 d7 12 37 3d b3 ad a6 3e 53 3b 5a be 24 97 8e 3e
       0.0446957 0.32554397 -0.21311693 0.27849686
000270 b1 d7 b7 be 00 01 44 bd 89 6a d1 3d 59 20 f1 bc
       -0.35906747 -0.047852516 0.10225398 -0.02943437
000280 12 99 8e be 36 a8 54 be 88 d5 b3 3d 58 21 6e be
       -0.27851158 -0.20767292 0.08780962 -0.23254907
000290 2f b6 a6 3e ba 06 af 3e c0 f8 fd 3d e2 45 72 bd
       0.3256087 0.3418482 0.12400961 -0.059148677
0002a0 0d 33 88 be ee ba 83 be 22 f9 09 3e 10 3f be 3e
       -0.2660145 -0.25728554 0.13473943 0.37157488
0002b0 b6 4b 83 be 07 69 4f bd 35 26 c6 3d eb ad a1 bd
       -0.256437 -0.05063727 0.09675256 -0.078945
0002c0 a8 97 48 be c8 99 14 bd b4 40 ab 3b 90 a4 40 b8
       -0.19589102 -0.03627947 0.005226219 -4.5929628e-05
0002d0 7c cf c6 bd e7 aa 41 be 38 a7 81 be ee 59 a0 be
       -0.09707543 -0.1891285 -0.2532289 -0.3131861
0002e0 64 78 5b be 5f e5 3b 3e bf c0 2c 3e 79 42 b7 3d
       -0.21432644 0.18349217 0.16870402 0.089482255
0002f0 1a fd 72 3e 29 78 1a 3d 2b 43 a9 3e c5 56 56 bd
       0.23729363 0.03771225 0.33059058 -0.052328844
000300 14 09 fe 3d 1c b2 c4 bd 2c b2 3e 3e 1f 38 83 be
       0.12404075 -0.09604284 0.18622655 -0.25628754
000310 4e 2e 97 3e f9 ab dc 3b e8 de 94 3d 18 b6 09 bd
       0.29527515 0.006734368 0.072690785 -0.033620924
000320 98 82 1e be e8 08 41 be a0 8c 4d 3e 0d 7f 43 bb
       -0.15479505 -0.18851054 0.20073175 -0.0029830367
000330 78 e4 b6 bd 32 79 09 3d 3e bf 37 be 9f 87 e7 bd
       -0.08930296 0.033562846 -0.17944047 -0.113051645
000340 1f 81 8d be a1 44 9e 3d a3 f8 10 1d ed 13 8e bd
       -0.27637574 0.07727934 1.9186783e-21 -0.06937394
000350 09 39 87 b9 f6 ff f7 bd d4 59 e5 3c 95 16 5d 90
       -0.000257917 -0.121093675 0.027996935 -4.3601962e-29
000360 9f 8f d6 bd f1 8c e7 bd ea 8d 28 be bb b1 05 3e
       -0.10476612 -0.11306179 -0.16460386 0.1305608
000370 8c 2d 04 3e 7e 37 e6 3b e5 9e b1 be 67 ac 82 3e
       0.12908 0.007025658 -0.3469154 0.25522158
000380 3f d7 84 3e 00 42 78 3d c6 c5 af 3d 64 76 2f 3c
       0.2594547 0.060609818 0.08582644 0.010709379
000390 fa 52 b6 be e5 f1 40 3e 5f a1 77 3e fc 76 e9 3d
       -0.3561018 0.18842275 0.24182652 0.113996476
0003a0 d8 89 8d bd f4 d9 48 be 67 56 4d be 14 62 f0 bd
       -0.06911057 -0.19614393 -0.20052491 -0.11737457
0003b0 e4 fc a6 3e b4 d1 a5 3e bb b0 80 3e 08 22 a3 be
       0.32614815 0.32386553 0.25134835 -0.318619
0003c0 ef 55 e0 3d 55 24 2a be 55 24 29 be 61 a9 f4 bc
       0.109538905 -0.16615422 -0.16517766 -0.029865922
0003d0 61 b1 77 3e 41 c2 3a be 65 a2 ad 3e 00 8f f9 3c
       0.24188758 -0.18238164 0.3391296 0.030463696
0003e0 96 40 bf 3e c4 56 8d be b6 a1 b6 3d a7 f5 20 be
       0.37353963 -0.2760526 0.08917563 -0.15718709
0003f0 d4 47 5e 3e 31 7f 14 3b 8a 34 d8 bd 58 10 9a 3a
       0.21707088 0.002265882 -0.10556896 0.0011754138

bias f4 [128]
000000 11 32 f2 3d 99 41 3c bd 6d a8 3c 3e 55 bd a7 3d
       0.11825956 -0.045960996 0.18423624 0.08190409
000010 f4 cf 14 3e 06 d6 3c be 15 1e 7f 3e 5d 0f e9 bc
       0.14532453 -0.18441018 0.24913819 -0.028449709
000020 7b 22 2e 3c b5 a2 ad 3e b2 36 a3 bd e7 4a d4 3e
       0.010628338 0.33913198 -0.07969417 0.41463396
000030 59 4c 1b be 8a 86 a9 be f0 53 89 bd 7d f8 91 3e
       -0.15165843 -0.33110458 -0.06705463 0.28509894
000040 23 18 0d 9d a3 ae 8e bd 46 89 bb 3e ea ee 46 bc
       -1.8673673e-21 -0.06966903 0.3662817 -0.0121419225
000050 a6 ba fc 3d 8a 23 af 3e aa a5 d3 3c 8c e8 9b 3e
       0.12340288 0.34206802 0.02583583 0.30450857
000060 3d df 3e 3e 16 3d a7 bd 17 85 9d be 50 5f 1c be
       0.18639846 -0.08165948 -0.30765602 -0.15270734
000070 87 ab 78 3e ec ba 67 3e 34 af 53 99 c6 e0 d0 3d
       0.24284182 0.22629899 -1.0943826e-23 0.10199122
000080 ee 5a b1 be c6 07 b5 bd f3 72 1f bd 25 ac 31 be
       -0.34639686 -0.08839373 -0.038927983 -0.17350824
000090 90 40 a9 bd c4 ce 86 bd 1f f5 d7 3d 78 10 cf 3d
       -0.082642674 -0.06582406 0.105448 0.10110563
0000a0 cb 63 5f 3e aa 4c 4a 3e 10 8a 81 3e b3 ed b3 3e
       0.21815412 0.19755808 0.25300646 0.35142288
0000b0 cd e9 25 be 2e 61 aa 3e 50 bb c1 bb ac 13 96 be
       -0.16202469 0.33277267 -0.005912222 -0.29311883
0000c0 24 37 a4 3e 6a d1 c0 3c 66 b5 3f 3d 35 b7 96 bd
       0.3207332 0.023537356 0.046803854 -0.07359163
0000d0 7c 55 12 3e 6e 87 b5 3d 9c 72 a0 3e fb c4 74 3e
       0.14290422 0.08863722 0.3133744 0.23903267
0000e0 a3 18 93 3e cb d3 87 3e 60 69 7f 3e b7 4c 29 3e
       0.28729734 0.26528773 0.24942541 0.1653317
0000f0 40 19 b8 bb 66 86 2e 3e 96 8c 89 3e 0e b8 a2 3d
       -0.0056182444 0.17043456 0.2686507 0.07945262
000100 dc 32 7f bd 0e 7e 39 3e 3c 08 95 be 76 6e ab bd
       -0.062304363 0.18114492 -0.29107845 -0.08370678
000110 94 05 84 bd 71 76 07 be 77 3f d5 3e 97 d7 57 bc
       -0.064463764 -0.13228776 0.41649982 -0.013173959
000120 02 ba 80 3e 5a a8 62 3e bb f7 89 3e 6a 40 49 3e
       0.25141913 0.22134534 0.26946816 0.19653478
000130 2a e3 c4 3e 43 db 7a bd 9f 4d 80 3e b2 8c 58 3e
       0.38454562 -0.06124426 0.2505922 0.21147421
000140 a1 c2 4a be 21 28 c4 3e 79 85 80 3d 4f 74 4e bc
       -0.19800808 0.38311866 0.06275458 -0.012600972
000150 d5 6b b6 be 7d 57 0e 3e 6f 58 31 3e 79 8d b7 bd
       -0.35629144 0.13900562 0.17318891 -0.08962531
000160 1b 9b cf 3e cc 8e 09 be bc 60 90 3d c6 05 fe bd
       0.40548024 -0.13433379 0.070497006 -0.12403445
000170 ae 32 79 3e 5d 75 2d 3e 81 c7 94 3e 87 8e a4 3e
       0.24335739 0.16939302 0.2905846 0.3213999
000180 42 6c 3e 3e 1f 55 a0 3e d6 e0 1f be 91 23 ad 3e
       0.18595985 0.31314942 -0.15613112 0.33816198
000190 41 6e 98 3e 65 cb 9b 3d 32 4b af be 76 55 5a 3e
       0.29771617 0.07607154 -0.34237057 0.21321663
0001a0 e3 3b ec 3d 7e 1b a6 3e 37 f0 98 b8 50 17 93 be
       0.1153486 0.3244285 -7.292668e-05 -0.28728724
0001b0 80 c8 98 3e f2 49 90 3e 0f 58 ba 3d d4 8f a2 3e
       0.2984047 0.28181416 0.09098827 0.31750357
0001c0 09 43 13 be ef ba c4 bd a5 6c 21 bd 04 e6 7c be
       -0.1438104 -0.09605967 -0.039410252 -0.24697119
0001d0 ca 8b 23 bc 7b 76 8d 3c df c1 ac 3e 15 57 53 3e
       -0.009982059 0.01726841 0.33741662 0.20638688
0001e0 83 d4 19 3e a5 cc 73 3e 60 54 b9 3e 51 51 92 be
       0.15022473 0.23808534 0.36197186 -0.28577664
0001f0 17 9f d8 bc 6f c3 71 be 73 56 ab 3e 75 f8 8a be
       -0.026443047 -0.23609708 0.33464393 -0.27142683

weight f4 [128, 128]
000000 91 cc 5e bd 8c f4 0b 3d 46 bc 11 3d ab 12 4d bd
       -0.05439431 0.034168765 0.035579942 -0.05006663
000010 a3 3d 81 3d b7 2d bb bd b7 2e 81 bd 4a c5 e5 3b
       0.063105844 -0.09139579 -0.06307738 0.007012044
000020 a0 fe 8f 3d 38 84 a1 3d 61 93 64 3d fa 08 db bb
       0.07030988 0.07886547 0.055804614 -0.0066844197
000030 3c f0 21 3d f1 2d b2 3c 0e e9 49 3d e0 df 81 3d
       0.039535746 0.021750422 0.049294524 0.06341529
000040 3f fe ff a1 a6 6f 48 3d f6 8a c8 3c ae 22 19 00
       -1.734677e-18 0.0489346 0.024480324 2.308328e-39
000050 51 f1 75 3d 62 e1 d3 3c 61 75 71 3b 62 07 a1 3c
       0.06004459 0.025864307 0.0036843645 0.01965684
000060 4e ad d0 bc c1 c2 2a a8 22 b3 b3 bb f0 e6 75 bc
       -0.025473263 -9.479126e-15 -0.005484001 -0.015008673
000070 06 db 44 bc 36 cb 2a 3d ba b9 00 80 6a 2c 82 bc
       -0.01201511 0.041697703 -6.6626e-41 -0.015890319
000080 4f c9 d2 bd b3 2f 92 bc 72 50 98 3c b7 5b d2 bc
       -0.10292303 -0.01784501 0.018593047 -0.025678499
000090 af 1c 88 3a 4a 0a 04 be 9f 27 82 3d f1 1e 94 3d
       0.0010384525 -0.1289455 0.063552134 0.07232464
0000a0 67 d2 76 3d 6f 36 31 bd b3 f8 78 3d 2d 97 94 3d
       0.06025925 -0.043264803 0.060784053 0.07255397
0000b0 14 ad 00 80 5e 00 8a 3d 8c 90 9a bd f2 e3 4b bd
       -6.2089e-41 0.06738351 -0.075471014 -0.049777932
0000c0 ed cc 86 bc e6 47 68 3d 56 9b be 3d a3 4d b5 bc
       -0.016455138 0.056709193 0.09306972 -0.022131747
0000d0 03 67 aa 3d 13 d4 5d 3d 90 3f 3e bd 2c 13 07 3d
       0.08320429 0.054157328 -0.046447337 0.032977268
0000e0 70 cf 60 3c 6e 7a 2f 3d 09 30 12 bc 9b c7 8f 3d
       0.013721332 0.042841367 -0.008922585 0.070204936
0000f0 4e 26 99 38 4e 00 95 3b 88 62 87 3d c4 0c a0 3d
       7.302743e-05 0.0045471555 0.0661059 0.07814935
000100 60 d6 0e bd b3 85 e6 3c 9d 2a e7 bd 79 07 92 bd
       -0.034872413 0.028139925 -0.11287425 -0.071303315
000110 d7 a2 00 00 9a fe bd 3a 4f 7d 60 3d 6e 00 dd 3c
       5.8416e-41 0.0014495433 0.054807004 0.026977744
000120 13 00 b5 3c 29 6a bb 3d d6 a8 da 3c 27 95 15 bd
       0.022094762 0.09151108 0.026691835 -0.036519196
000130 29 e4 b3 3b 79 e0 a7 3c c9 8a f9 bc cf 71 7b 3d
       0.0054898453 0.02049278 -0.030461686 0.061387833
000140 29 08 5b a0 38 52 c7 bc 47 8c 2b bb 79 a3 ae bc
       -1.8552722e-19 -0.024331197 -0.002617614 -0.021318184
000150 74 92 c9 bb 92 87 83 bd dd 7f 39 bd b4 9b a1 3c
       -0.006151492 -0.06422342 -0.045287956 0.019727565
000160 ec dd cc 3d b9 e4 95 0f 1f e7 8f bd e4 bf d0 bd
       0.10003266 1.4780635e-29 -0.07026505 -0.1019285
000170 f9 01 14 3d 68 e5 af bc d8 8d 0f 3d 81 c4 79 bd
       0.036134694 -0.021471694 0.035047382 -0.060978416
000180 f2 62 c9 3c 28 4a 81 3d 78 64 3f aa 31 da b0 3d
       0.024583314 0.06312972 -1.6999065e-13 0.08635367
000190 ba 9d c5 3d 7b c1 88 3d 1b 4b 90 bd 44 02 bc bc
       0.096492246 0.066775285 -0.07045575 -0.0229503
0001a0 7e f2 f0 3c b7 37 de 3c 7c bb 1b 92 a3 55 94 bd
       0.029412504 0.027126176 -4.914047e-28 -0.072428964
0001b0 48 9e f0 bc 03 ed 81 bc 40 3f bc bd de 31 2a bd
       -0.02937235 -0.015860086 -0.091917515 -0.041551463
0001c0 e9 d4 b2 bc 6b 7f 7e bd d9 b7 7e 3d ae 9f 56 bd
       -0.02183004 -0.062133234 0.06218705 -0.052398376
0001d0 39 84 69 3d 9f e0 0a bd 5a 5b 30 3d 18 8d 44 3d
       0.057010863 -0.03390562 0.04305587 0.04798612
0001e0 e4 46 56 bc e2 bc d5 bc ad 38 98 3c e2 25 ba bd
       -0.013078425 -0.026091043 0.018581713 -0.09089257
0001f0 89 1c a9 3d 56 f5 0b 3c 0e eb 67 bd cb 39 0c bd
       0.08257396 0.008542379 -0.05662065 -0.034234803
000200 0c df 40 3b 0f 95 36 3c ae ff 90 3b 3c 7c 92 3b
       0.0029429821 0.011143937 0.0044250106 0.0044703763
000210 bf 89 ea 3c 0e 7f 13 3c c6 91 be 3b 6b ea 19 3c
       0.028630136 0.00900246 0.0058157174 0.0093942685
000220 0d fe e4 3a af fc e9 3a 63 fb c6 3b e4 62 0e bb
       0.0017470733 0.0017851795 0.006072448 -0.0021726424
000230 66 5e c4 3b 5c af 1b 3d 9e 63 e3 3b d2 9b 13 3c
       0.0059926985 0.038009033 0.0069393655 0.009009318
000240 1a 3c 90 ae 6e b8 0b 3c fc 6a c9 ba 46 b5 00 00
       -6.559038e-11 0.008527858 -0.0015366967 6.5029e-41
000250 ad 40 6c 3c 55 1c 94 39 c3 c8 e2 b9 6a f0 79 bb
       0.014419717 0.0002824987 -0.00043255658 -0.0038137683
000260 d5 42 99 3c 66 31 33 84 ee 51 9d 3b 95 d5 12 3c
       0.018708626 -2.1064032e-36 0.0048010265 0.008962055
000270 10 4d fe 3a e3 69 82 bb f2 95 d0 9e 99 5a ab 3b
       0.0019401629 -0.003979908 -2.2084873e-20 0.005229306
000280 81 09 e2 3b 67 87 a3 3b 69 71 06 39 3f f1 3e 3c
       0.0068981056 0.0049905065 0.00012821484 0.011654197
000290 86 32 e6 b9 80 5a 5b bb d3 8c 01 3c 3e a0 44 3c
       -0.0004390666 -0.003347069 0.00790711 0.012001095
0002a0 be 0b 4a 3b d2 0d 1e 3b 80 65 28 3b 3e 46 4c bb
       0.0030829753 0.0024117124 0.0025695264 -0.0031169797
0002b0 5e 39 e1 30 e7 28 9c bb 73 6c d0 3b 73 38 36 bb
       1.6387209e-09 -0.004765618 0.0063605844 -0.0027804642
0002c0 80 6f 1a 3c 78 8e 8f 3c 10 f5 60 3b 32 9a d6 3c
       0.009425998 0.01752399 0.0034325756 0.026196573
0002d0 0b 19 6f 3b 7e 6c 2a 3b d2 f4 30 bb 6c 35 ed 3a
       0.0036483433 0.0026004608 -0.0027001393 0.0018097586
0002e0 53 e6 8f 3b f2 dc b1 3b f6 3a 03 3b 62 b0 5d bb
       0.0043914705 0.00542795 0.0020024157 -0.0033827056
0002f0 91 77 30 ad 14 9b 4a 3c b6 6a 52 ba 4f 9c 7a 3c
       -1.0030991e-11 0.012366075 -0.00080267654 0.015296056
000300 31 eb eb 3b 10 a8 d6 39 09 21 eb 3b 18 ac ab 3b
       0.007199668 0.00040942477 0.007175569 0.005239021
000310 f5 b8 00 80 51 0f b1 3c 3a e8 2f bc b7 20 0f 3b
       -6.635e-41 0.021613749 -0.0107365195 0.0021839568
000320 4c 47 90 3b 16 6d 58 3b 8c 54 6b 3b 3d 57 8e 3b
       0.0044030305 0.0033024005 0.0035908548 0.0043438957
000330 30 9c cb bb 44 ea 24 3d 11 a5 c1 bb f2 0c 56 3c
       -0.0062136874 0.040262476 -0.00590957 0.01306461
000340 42 fe 4d b0 09 29 45 bc 57 19 3d 3d 5a 1d 06 3c
       -7.493989e-10 -0.012033709 0.046166744 0.008185709
000350 d6 20 98 3b 6d df b4 3a c9 4a 8a 3b c1 11 8a bc
       0.004642586 0.0013799496 0.004220341 -0.016854169
000360 fe 37 39 bc fe d0 b3 02 00 ee c0 3a 34 0e 96 3b
       -0.0113048535 2.6421642e-37 0.0014719367 0.00457933
000370 94 65 51 3b 59 04 9e 3b b9 23 30 bb a9 2a 87 b9
       0.0031951414 0.0048222956 -0.002687676 -0.0002578099
000380 e2 53 7e 3b 40 c5 a0 ba 49 08 09 80 ee 5e 93 3b
       0.0038807322 -0.0012265816 -8.29492e-40 0.0044974005
000390 d6 13 d4 3a 86 a4 bd 3c a8 94 91 3c a0 34 db ba
       0.0016180228 0.02314974 0.01777108 -0.0016724057
0003a0 47 16 47 3b 0b 8c 34 ba 53 9f ac 87 38 81 28 3c
       0.0030378269 -0.0006887323 -2.5973326e-34 0.010284714
0003b0 a5 af b1 bb 53 d6 9d 3b bc e5 c0 3a 03 95 d9 ba
       -0.00542255 0.004816809 0.0014716904 -0.0016600195
0003c0 4b b6 ee 3c 7c e8 03 3b b7 06 0e 3c 1a e6 16 3d
       0.029139658 0.0020127585 0.008668593 0.036840536
0003d0 cf 12 06 3c 29 52 f3 3b 1d a3 4e 3b 13 5b 14 bc
       0.008183195 0.0074255657 0.0031530329 -0.009054917
0003e0 6c 2b b6 3a 14 36 68 3b 83 41 cd ba 2b cf 81 3c
       0.0013898439 0.0035432624 -0.0015659783 0.015845856
0003f0 4c e6 82 3c 9f 7a 30 3c 2f 0a 84 3b 39 97 46 3c
       0.015978955 0.010771423 0.0040295343 0.012121015

bias f4 [128]
000000 03 48 0b 3d bb 32 07 bb 8d 96 7f 3d e1 e8 6b bd
       0.034004223 -0.0020629603 0.062399436 -0.057595138
000010 d8 f1 02 3d af 19 0d 3d f1 e6 ae bd 6e 5b 54 3c
       0.03196892 0.034448322 -0.08540142 0.012961252
000020 f5 42 4f 3d 2b af e4 3c 55 a6 88 bb bf 26 d4 3d
       0.050600965 0.027915558 -0.004170219 0.10358953
000030 60 09 81 bd 4f 24 0b bd 7e 58 03 29 61 64 89 3d
       -0.06300616 -0.033970173 2.9164598e-14 0.06708599
000040 4c 1c a2 3d 23 bf 8b 3d 4c 5f 04 ba 26 19 d0 3c
       0.079155535 0.06823566 -0.0005049601 0.025402617
000050 79 f9 e6 3d f8 64 c4 bc f0 a2 ee 3c 8e 8c 86 bc
       0.11278052 -0.023973927 0.029130429 -0.016424444
000060 08 5a 29 b9 e8 63 26 bd 47 73 9d ba 0f 7f 57 ba
       -0.00016150635 -0.04062262 -0.0012012505 -0.00082205323
000070 b3 ac e9 a2 13 c2 55 bb ee 2e 9b 3d 78 14 4f 3d
       -6.333763e-18 -0.0032616898 0.075773105 0.05055663
000080 a2 c3 21 3d f2 e5 83 3d bd 02 19 bd c0 b6 35 98
       0.03949321 0.06440343 -0.037356127 -2.3485967e-24
000090 99 63 80 bb c7 f1 8e 3d 41 73 b1 ba e3 fe d7 ba
       -0.003918123 0.06979709 -0.0013538377 -0.001647916
0000a0 1f 52 eb bc 4d ec 69 3d 54 34 95 3c 98 42 7a 3d
       -0.028725682 0.05711012 0.018213429 0.061098665
0000b0 37 02 95 1b 2c 6f 2d bd 3b fe 60 3d d2 82 d8 bc
       2.4651414e-22 -0.04234235 0.054929953 -0.026429567
0000c0 ed 9c a8 3d 9b 52 2a bc d8 3e 60 3d 7f 1e 08 a3
       0.08233056 -0.010395671 0.054747432 -7.3790326e-18
0000d0 c5 bd 26 bb ae 69 a0 bc a7 ee 56 3d f1 66 2d 3d
       -0.0025442701 -0.019581642 0.05247369 0.0423345
0000e0 5e b6 e2 bc 95 10 2c 8d da fa 69 bd 63 2f 82 3d
       -0.02767485 -5.302155e-31 -0.057123996 0.063566945
0000f0 67 65 91 bc d5 b0 de bc ee af e9 bc 54 0a c1 bd
       -0.017748548 -0.02718393 -0.028526273 -0.09425798
000100 8f c8 5e bd c2 d8 d6 3d eb c9 d2 3c 3b f8 85 b2
       -0.054390486 0.10490562 0.025731048 -1.559612e-08
000110 62 12 d9 3c 51 19 80 bc 5e d4 17 b1 c4 7f 3d b4
       0.026498023 -0.015637072 -2.2094109e-09 -1.7648478e-07
000120 f9 a3 52 b9 e9 b8 fe 3c 39 c4 87 3d 29 e8 38 3d
       -0.00020088245 0.031094031 0.066292234 0.04514328
000130 9c 87 bd 3d a6 c8 fe bc 6b 81 ac 3c e2 a2 ca bc
       0.09254381 -0.031101536 0.021057805 -0.024735872
000140 07 cf 90 bc 36 5c 8a bd 67 00 c0 3d a7 7d dd 3d
       -0.017676843 -0.06755869 0.09375077 0.10814982
000150 dd 68 65 3d f9 4c ac 3d b4 c1 6c b4 b3 6f 91 3d
       0.05600821 0.08413119 -2.2049682e-07 0.07101383
000160 d1 4d 71 3d 44 95 4e 3d 40 65 35 bb 86 28 3a 3d
       0.058912102 0.05043532 -0.0027678758 0.045448802
000170 0e 49 91 3b 25 da 9e 3d 6f c9 84 3d 91 2b 2e 3d
       0.0044337576 0.077564515 0.06483733 0.042522017
000180 00 c3 a9 3d d6 b7 3c bb dd f6 13 3d b6 cf 99 b5
       0.082891464 -0.0028796098 0.0361241 -1.145984e-06
000190 8b 55 dd bc e9 7a 9c 3d a0 db 26 ba b0 bf 52 bc
       -0.02701833 0.07640631 -0.0006365124 -0.012863085
0001a0 c5 38 9b bd fa fa 48 bb 5c ce 32 3d 97 a3 ac 3c
       -0.07579187 -0.0030667172 0.04365383 0.0210741
0001b0 2d ca 9e bb 89 fc 01 3a 53 a4 07 3d f4 33 9a 3d
       -0.0048458786 0.000495859 0.033115696 0.075294405
0001c0 98 49 44 bd dd 91 41 bb b6 32 e7 3c 20 7d d0 3a
       -0.047921747 -0.0029536404 0.028222423 0.0015906431
0001d0 3f cc 42 bd e7 b7 32 bc 59 16 4d 3d 01 8a 37 bb
       -0.047558066 -0.010908104 0.05007014 -0.002800584
0001e0 e1 21 94 bc 1a 22 7c 3a 6b ad d7 3d c4 e4 36 bd
       -0.018082561 0.00096181186 0.10531124 -0.04465176
0001f0 1c 72 d8 3c 53 a9 8e 3d 88 3d ec bc f7 91 80 ba
       0.0264216 0.0696589 -0.028837934 -0.0009809126

weight f4 [4, 128]
000000 7c 7c 63 3d cf 7a 72 bc 96 df e5 bc ea 9b 94 3d
       0.05553864 -0.014799788 -0.028060716 0.07256301
000010 fd c0 64 b9 d1 a2 c2 3d 10 5f ad bc 23 37 67 bd
       -0.00021815668 0.09503711 -0.021163493 -0.056449067
000020 18 27 66 bc f8 c0 b0 bd 05 13 ea 3b 88 57 6f 3d
       -0.014047407 -0.08630556 0.0071433806 0.058433086
000030 79 22 85 bd 56 5c d9 3d f4 ae 00 80 b3 47 11 bd
       -0.06500716 0.10613315 -6.2761e-41 -0.03546877
000040 61 b4 ea bc 8e 47 99 bd 02 72 81 bb 41 b3 84 bd
       -0.028650464 -0.07484351 -0.0039503584 -0.064795025
000050 37 da 0f bc 64 30 06 3c 71 b6 80 3d d2 55 5e bd
       -0.008780054 0.008190248 0.06284798 -0.054281063
000060 29 23 c1 39 50 11 bd bc a4 9b 82 ba 0c 04 c8 b8
       0.00036838025 -0.023079544 -0.0009964597 -9.537497e-05
000070 d1 c2 25 b2 ca e2 1d bb a8 a0 b8 3d 91 f1 68 bd
       -9.64856e-09 -0.0024091476 0.09015018 -0.056871
000080 cc 1d 6b 3d 19 d5 a7 bc de a6 c1 3d 51 09 78 34
       0.057401463 -0.020487355 0.094556555 2.3100189e-07
000090 4c 5c 44 bc 78 ff c3 3d aa 98 83 bb ec 0d 73 39
       -0.011984896 0.09570211 -0.0040160017 0.00023179472
0000a0 13 46 2d 3c 31 d5 93 bc 70 69 91 bd 88 8c a4 3d
       0.010575789 -0.018045994 -0.07100189 0.08034617
0000b0 e6 f8 51 b0 6f 2e a9 bd 79 a1 b5 3d 7e f5 2d bd
       -7.6387463e-10 -0.0826081 0.08868689 -0.042470448
0000c0 3a b9 27 bd 27 87 86 bd f4 52 a1 bd 89 b1 00 00
       -0.04094813 -0.06568747 -0.0787715 6.3688e-41
0000d0 7d 8d ba 34 17 d1 02 bc ba 61 6b bd c9 0f 10 bd
       3.4748146e-07 -0.007984421 -0.057466246 -0.035171304
0000e0 fe 09 aa bc f4 c8 b8 23 83 05 74 3d 40 e5 b3 3d
       -0.020756718 2.0034427e-17 0.05957557 0.0878396
0000f0 74 2b af 3d 0e 36 71 3d 6c 43 cb bc ca 4f 6a bd
       0.0855321 0.05888944 -0.024812423 -0.057205
000100 b2 5d 3f bd 29 5a 3c 3d e0 d8 dc bd 2f 21 37 a9
       -0.046720214 0.04598442 -0.10783553 -4.0662945e-14
000110 b7 3d 2c 3d c8 ec 9f bc 78 80 0b b3 7d 70 04 a7
       0.042051043 -0.019522086 -3.24803e-08 -1.837966e-15
000120 01 95 e2 39 68 1d ef bc e7 a4 3a 3d e8 a6 ec 3c
       0.00043217096 -0.029188827 0.04556742 0.02888818
000130 d6 6d 93 3d b7 4c 35 3d c2 c2 ab 3d 85 90 35 bd
       0.07198684 0.044262614 0.083867565 -0.044327278
000140 0e c2 4e bc 8d 74 b6 bd 56 c9 c3 3d ff 58 9a bb
       -0.012619508 -0.08908949 0.09559886 -0.004710316
000150 65 b6 74 bd e9 7c ac 3d 8f 26 b8 2b 76 ca df 3d
       -0.059744257 0.08422262 1.3084688e-12 0.10927288
000160 d0 33 80 bd 3c 40 bd bd 10 87 15 3c 5d 3b 02 be
       -0.062598825 -0.09240767 0.00912644 -0.12717958
000170 14 5e 8c bd f6 ed 8d 3c 96 39 cc 3d 1f 42 c5 3d
       -0.068538815 0.017325383 0.09971921 0.09631752
000180 dc eb c8 3c 99 90 8a bc b2 4b 55 bd 11 f7 6d b3
       0.024526529 -0.016914653 -0.05207414 -5.5405568e-08
000190 48 ef b7 3d 19 f3 52 3d ab 9a 72 3a fe 2b 3a bd
       0.08981186 0.051501367 0.00092546147 -0.04545211
0001a0 0d e4 bd bd da c3 a6 bc fe f2 49 bd dd 25 92 bc
       -0.09272013 -0.020357061 -0.049304 -0.01784032
0001b0 33 7e 88 bb 89 9b af 3d 02 2d b9 bd cb 74 27 3d
       -0.0041654347 0.08574588 -0.09041788 0.040882867
0001c0 9d aa 29 bd fa 46 59 bd 49 11 24 3d 89 e3 42 3d
       -0.041422475 -0.053046204 0.040055547 0.047580276
0001d0 71 1e ae bd dd f8 66 b5 dd af a1 bb c4 31 93 bc
       -0.085019 -8.604382e-07 -0.0049342946 -0.017968066
0001e0 3c 4c a0 ba 8c 7c c5 bd 7e 5e c4 3d b1 ef b5 bc
       -0.0012229751 -0.09642896 0.095883355 -0.02220902
0001f0 05 c4 fe 3c 38 e1 34 bd 5d e5 b2 3d 35 ea 82 3a
       0.031099329 -0.044160098 0.08735154 0.0009988012
000200 c9 94 2c bd ce e8 e4 b9 51 79 3e bd b4 d9 d7 3d
       -0.04213408 -0.00043661002 -0.046502415 0.105395705
000210 44 0d 22 bd ee 89 f8 3d 71 46 5d bd 42 63 0f bd
       -0.039563432 0.12135683 -0.054022256 -0.03500677
000220 41 ce c2 bd 5f 04 87 bd da 90 33 b9 70 93 1c bd
       -0.09511996 -0.065926306 -0.00017124732 -0.038226545
000230 b7 13 26 3d c3 44 8b 3d e2 af 00 00 ae 0b b1 3c
       0.040546145 0.06800225 6.3095e-41 0.021612015
000240 46 c6 b4 3d 43 93 02 3d 49 58 0f b8 ef 5b 4a 3d
       0.0882688 0.03187872 -3.417608e-05 0.04940408
000250 90 6a b8 3d 4b 3f 3e 3d 4d a6 27 3d 97 09 ca bd
       0.090047 0.04644708 0.04093008 -0.0986511
000260 a2 c9 32 3a 4f 4e 30 3c 39 92 82 ba 94 07 64 3b
       0.0006820207 0.010760858 -0.0009961791 0.0034794556
000270 9b 6c 25 97 a5 25 e1 b9 b8 cd ab 3d 76 cf e2 3b
       -5.3451455e-25 -0.00042943392 0.08388847 0.006921704
000280 14 eb ca 3d 96 f3 7c ba 38 09 b4 3d 23 31 42 31
       0.09908119 -0.0009649334 0.08790821 2.8258647e-09
000290 7a 36 17 bc 85 2a 30 3d 7c fd 5d 39 ea 93 82 3a
       -0.009229297 0.0430093 0.00021170633 0.0009962295
0002a0 f3 b4 28 b8 1e 5f 4d bd 3f 06 3e 3d 0a c8 10 3d
       -4.0222843e-05 -0.05013954 0.046392675 0.035347022
0002b0 52 1d 86 10 bc 02 88 bd 2d dc 31 bb f3 54 26 3d
       5.2898856e-29 -0.066411465 -0.0027139292 0.040608358
0002c0 cb 05 99 3c 56 32 a7 bd e4 36 40 bd 5d 3d 3f 00
       0.01867952 -0.08163898 -0.046927348 5.807649e-39
0002d0 5b 53 89 2f 92 52 7e bb 2a a9 c2 bd b1 3c 7c ba
       2.4979382e-10 -0.003880654 -0.09504922 -0.0009622081
0002e0 b0 12 84 bd 95 0b 10 21 98 87 03 bc b6 53 4b 3d
       -0.06448877 4.8804426e-19 -0.008027934 0.04964038
0002f0 0e 02 b2 bc cc 50 a8 3d 57 d0 37 bd cc fd 0b bd
       -0.021729495 0.08218536 -0.044876423 -0.034177586
000300 e8 f4 36 bb b1 49 28 3d a5 13 fc bd 22 9e c5 a2
       -0.0027916972 0.041085903 -0.123084344 -5.3564387e-18
000310 7f 42 14 3b fe e6 f5 3a c9 1e 28 89 d8 5f e7 26
       0.0022622643 0.0018760858 -2.023674e-33 1.6054823e-15
000320 90 70 0d 3a 5b 4f 3e bd 99 02 fb 3d 86 11 86 bd
       0.0005395496 -0.046462398 0.12256355 -0.06546311
000330 76 3f df 3c 30 05 b7 bc a4 78 d5 3d ef 80 89 3c
       0.02725194 -0.02234134 0.10423401 0.016785113
000340 81 5f 98 3d bf 37 4c 3d c1 60 18 3c 94 e1 db 3d
       0.07440091 0.04985785 0.009300412 0.10736385
000350 68 e0 52 3d 0c c3 4d bd 67 02 be 30 d9 f2 7b 3d
       0.05148354 -0.05023484 1.3825002e-09 0.061510894
000360 0b 5a 33 bd 38 b9 88 bd a3 47 cf 3d b9 29 ac bc
       -0.043787044 -0.06675953 0.101210855 -0.021015989
000370 d0 76 f8 bc de 02 d1 3d 34 d2 ca 3d 81 5e 1f 3d
       -0.030330092 0.10205625 0.09903374 0.038908485
000380 be ae bc 3d 41 b3 dd 3b 38 d7 83 bd 14 1f 08 b3
       0.09213017 0.0067657535 -0.06437534 -3.1693233e-08
000390 c3 19 17 3d fc 09 e7 3d b2 8f 80 3a 19 4b 29 bd
       0.036889803 0.11281201 0.000980845 -0.041331384
0003a0 a1 f6 65 3d fb 0c 95 ba 0d 47 62 bd 4e 79 ca 3a
       0.056143407 -0.0011371666 -0.05524354 0.0015447529
0003b0 03 85 57 bb cc 7b 4a 3d 5a e4 bc 3c 1b 86 68 3d
       -0.0032885678 0.04943447 0.023058105 0.056768518
0003c0 44 df a9 bd 94 67 cd bc 60 34 07 3e 2c 20 0e bd
       -0.08294538 -0.025073804 0.13203573 -0.03469865
0003d0 33 cb bb bd 30 90 ee 36 5e 54 f4 3c 67 31 2a bd
       -0.091696166 7.1097384e-06 0.029825386 -0.04155102
0003e0 1e 51 b8 bc 1e 25 8e bd 53 31 4c bd e6 0e 79 bd
       -0.022499617 -0.06940673 -0.049851727 -0.060805224
0003f0 fa 33 0c 3d 63 0d be bd e0 d5 4f bd 8c f1 82 3a
       0.034229256 -0.09279897 -0.050741076 0.00099902

bias f4 [4]
000000 60 2a 3b bd a3 46 d9 3d e1 0c 44 bc 83 1b 47 bc
       -0.04569471 0.10609176 -0.011965961 -0.012152555
