c220g2_power_wdram.pt (torch, 39979 bytes, 14 tensors)

WIdle0 f4 [4]
0	0x3f2c8ce7	0.674025
1	0x3cf2b3d6	0.029626768
2	0x3cc2f04d	0.023796225
3	0x3caf2370	0.021379203

WIdle1 f4 [4]
0	0x3fca5030	1.5805721
1	0x3f5c9fa6	0.86181104
2	0x3e8eb653	0.27873477
3	0x3e31adcc	0.17351454

weight f4 [32, 7]
0	0x3d116abc	0.03550218
1	0xbe97d4bb	-0.29654488
2	0xbe24ca1d	-0.16092725
3	0x3d99f3e8	0.075172246
4	0x3e393101	0.180851
5	0x3d46c405	0.048526783
6	0x3ebafed8	0.36522555
7	0x3e198e70	0.14995742
8	0x3e34658b	0.1761686
9	0x3e2e24c4	0.17006212
10	0x3e2679d4	0.16257411
11	0x3e824839	0.25445727
12	0xbf060cb3	-0.5236313
13	0x3ea70c0f	0.32626387
14	0x000019b0	9.215e-42
15	0xb87a9062	-5.973911e-05
16	0x8000176b	-8.401e-42
17	0x2981a8d6	5.758039e-14
18	0x000013de	7.127e-42
19	0xa7c745d3	-5.53093e-15
20	0xacd2aeb1	-5.9879536e-12
21	0xbd4c6024	-0.049896374
22	0x3cc43ebd	0.023955697
23	0xbb8ccab4	-0.004296625
24	0xbd17eb46	-0.03708961
25	0x3cc6537f	0.024209736
26	0x3de0859a	0.109629825
27	0x3c6d65db	0.014489616
28	0x9f4bf422	-4.3188864e-20
29	0xb39afff8	-7.217744e-08
30	0xb605aa63	-1.9917723e-06
31	0xa08d569d	-2.3943645e-19
32	0x00000ad5	3.886e-42
33	0x21071f46	4.578117e-19
34	0x00002021	1.1526e-41
35	0xbcac5ba1	-0.021039786
36	0x3e8931c5	0.26795784
37	0xbe71e647	-0.23623
38	0xbf0531a0	-0.52028847
39	0xbe8ee3f5	-0.27908292
40	0x3efa861e	0.48930448
41	0xbdca1249	-0.09866769
42	0x80001e62	-1.09e-41
43	0xb3ce00e8	-9.5927874e-08
44	0xb24b6253	-1.18385115e-08
45	0x330a4dd6	3.220142e-08
46	0x0000202a	1.1538e-41
47	0x80000a62	-3.725e-42
48	0xb27f0007	-1.484296e-08
49	0x3e7de605	0.24794777
50	0x3e299c0a	0.1656343
51	0x3e902814	0.28155577
52	0x3eef158a	0.4669612
53	0x3e3484cb	0.17628781
54	0x3e502ea7	0.20330296
55	0x3e7e522d	0.24836035
56	0x3e416f66	0.18890151
57	0xbe8e33c5	-0.27773872
58	0xbd52bdbd	-0.05145048
59	0x3e0fbe8c	0.14037532
60	0x3d0e27f7	0.034706082
61	0x3ecdf1a4	0.4022342
62	0xbe9456db	-0.28972515
63	0x3e41ccd9	0.189258
64	0xbd84b69c	-0.064801425
65	0x3ef85bc2	0.48507506
66	0x3e076199	0.13220824
67	0x3e6a5179	0.22882642
68	0xbf081631	-0.5315886
69	0xbdeb13b5	-0.11478368
70	0xbef0bb0f	-0.47017714
71	0xbd9aa95d	-0.07551835
72	0x3edbe08a	0.42944747
73	0x3e786d4f	0.24260448
74	0x3c90831e	0.017640647
75	0x3f3a95db	0.7288491
76	0xbd9088c0	-0.07057333
77	0xbc422817	-0.0118503785
78	0xbb413e26	-0.0029486506
79	0xbbd8c512	-0.0066152895
80	0x3c174157	0.009231887
81	0x3afde9d0	0.001937205
82	0xbaa5e470	-0.0012656581
83	0x3c59f028	0.013301887
84	0x3e7119a2	0.23544934
85	0x3e999094	0.29993117
86	0x3ea2e57a	0.31815702
87	0x3ee9c09d	0.45654765
88	0xbdc3945f	-0.09549784
89	0xbcabcbb1	-0.020971151
90	0x3e15733c	0.1459474
91	0xa585dce2	-2.3221498e-16
92	0x800019dd	-9.278e-42
93	0x00000ae7	3.911e-42
94	0xb09580f6	-1.087783e-09
95	0xa9d3b9b0	-9.402494e-14
96	0x00001bd3	9.981e-42
97	0x8000251b	-1.3311e-41
98	0x3d6ac9b1	0.057321254
99	0x3ecff001	0.40612796
100	0x3e8eb0cc	0.2786926
101	0x3e9ef421	0.3104563
102	0x3ea55cfe	0.3229751
103	0xbee80c2e	-0.45321792
104	0xbea63a6a	-0.3246644
105	0xbe9b72ca	-0.30361015
106	0xbe9acd52	-0.30234772
107	0x3e454833	0.19265823
108	0x3c4eca75	0.012621512
109	0x3e6eea32	0.23331526
110	0x3ef45801	0.47723392
111	0x3e821ab8	0.2541101
112	0x3e8e764d	0.2782463
113	0x3e9e13c9	0.3087447
114	0x3d953e74	0.072873026
115	0x3dce7a28	0.10081893
116	0x3de54854	0.11195436
117	0x3dca6096	0.098817036
118	0x3d12386e	0.035698347
119	0xbe8a08b7	-0.26959774
120	0xbdc6ac07	-0.0970078
121	0x3ec90c1e	0.39267057
122	0xbea46212	-0.32106072
123	0x3db99bbf	0.09062909
124	0x3ef2cf6c	0.47423875
125	0x3df29422	0.1184466
126	0xbe896e2c	-0.26841867
127	0x3ce5edec	0.028067552
128	0x3cd028f3	0.025410151
129	0x3e218c85	0.1577626
130	0x3e1504e6	0.1455265
131	0x3d8f6c15	0.07003037
132	0x3d489690	0.048971713
133	0x3c876f02	0.016532425
134	0xb8c28c60	-9.276788e-05
135	0xbc183698	-0.00929036
136	0xbbc4706e	-0.005994848
137	0xbae81e81	-0.0017709286
138	0xbb9cfdf3	-0.0047910153
139	0xbac35712	-0.0014903268
140	0xb18bb207	-4.065672e-09
141	0x8d2d0761	-5.3318623e-31
142	0xac8d02f5	-4.0077893e-12
143	0x23ec8968	2.5645365e-17
144	0x80001176	-6.264e-42
145	0x00002626	1.3685e-41
146	0x00002097	1.1691e-41
147	0x3e844f1c	0.25841606
148	0xbdc4238c	-0.095770925
149	0xbcd28ba3	-0.02570135
150	0x3ea73542	0.3265782
151	0xbe3eb459	-0.18623485
152	0xbe8fa539	-0.28055742
153	0x3e9965b7	0.29960415
154	0x3d33a58b	0.043859046
155	0x3e03bba8	0.12864554
156	0x3eab9c07	0.33517477
157	0x3eddf7d5	0.43353143
158	0xbd665c32	-0.056240268
159	0xbe64c116	-0.22339281
160	0x3e0d8c74	0.1382311
161	0xbd8745fa	-0.06605144
162	0xbe16d95e	-0.14731357
163	0xbd1a4e19	-0.037672136
164	0xbe161ed8	-0.14660203
165	0xbd8b8521	-0.06812502
166	0x3d09e2bd	0.0336635
167	0xbeea1759	-0.45720938
168	0x3edb1463	0.4278899
169	0x3d354363	0.044253718
170	0xbe08775d	-0.13326783
171	0x3e3cbeeb	0.18432204
172	0x3da07162	0.07834126
173	0x3eb348a5	0.3501636
174	0x3e910135	0.28321233
175	0x3dd123e2	0.10211922
176	0xbd829ee8	-0.06377965
177	0x3eabf15b	0.33582577
178	0xbdd9622e	-0.106144294
179	0x3e438507	0.19093715
180	0xbe9defa6	-0.308469
181	0x3ee9027a	0.45509702
182	0x3ecc4a00	0.39900208
183	0xbea0baf3	-0.3139263
184	0x3e1b1fed	0.15148897
185	0xbd26ad9c	-0.04069291
186	0xbe80db07	-0.25167105
187	0x3f118907	0.5684971
188	0xbe8a6af9	-0.2703474
189	0x3ecd392c	0.4008268
190	0xbe1149f8	-0.14188373
191	0xbead50a2	-0.3385058
192	0xbde93b0c	-0.113882154
193	0x3dfff894	0.124985844
194	0x3eaad619	0.3336647
195	0x3e1fb315	0.15595658
196	0x3ea162f0	0.31520796
197	0xbe9a33f1	-0.30117753
198	0x3ea57167	0.32313082
199	0x3c0905c5	0.008363192
200	0xbd0b6828	-0.034034878
201	0x3ee951b8	0.4557016
202	0xbe60de65	-0.21959837
203	0xbe2733be	-0.16328332
204	0x3e100e77	0.14068018
205	0xbea515fd	-0.32243338
206	0xbec6d2e0	-0.3883276
207	0xbdc97f74	-0.09838763
208	0x3eec3303	0.4613267
209	0xbd55fcad	-0.052242924
210	0x3e993cdb	0.29929242
211	0x3e9025b6	0.2815377
212	0xbeb3309c	-0.34998024
213	0xbdb5c3a2	-0.088752046
214	0xbe30f18a	-0.1727964
215	0xbc98ab4e	-0.018636372
216	0xbe00fb76	-0.12595925
217	0x3c847a2e	0.016171541
218	0x3e44cf1d	0.19219632
219	0x3e2cc771	0.16872956
220	0x3e87bbca	0.2651046
221	0x3eab1160	0.33411694
222	0x3e8a8ecf	0.2706208
223	0x3e0b9ab3	0.13633232

bias f4 [32]
0	0x3eff687c	0.49884403
1	0x3d0bea4b	0.034158986
2	0xb616ad0a	-2.2452464e-06
3	0xbd548b18	-0.051890463
4	0x000012b3	6.708e-42
5	0x3ec8677b	0.3914145
6	0xb0d3b234	-1.5402919e-09
7	0xbe374eae	-0.17901108
8	0x3f01b8a5	0.5067237
9	0x3df696a3	0.120404504
10	0xbecfec98	-0.40610194
11	0xbbe62060	-0.0070229024
12	0x3ec8f706	0.39250964
13	0x80002479	-1.3084e-41
14	0xbe2ab27a	-0.16669646
15	0xbe4be3e2	-0.19911149
16	0x3eec613b	0.4616793
17	0xbe919d21	-0.28440192
18	0xbe808165	-0.2509872
19	0xbbd60502	-0.0065313587
20	0x00000331	1.145e-42
21	0xbd3e2757	-0.046424236
22	0xbe21ea73	-0.15812092
23	0x3eacc0b6	0.33740777
24	0x3df17694	0.11790195
25	0xbd83ad5b	-0.06429549
26	0x3e42ba4e	0.19016382
27	0x3edb7906	0.4286577
28	0x3e0463f4	0.12928754
29	0x3ec2c15c	0.38038146
30	0x3cdda1b0	0.027054638
31	0xbe12f59c	-0.14351505

weight f4 [32, 32]
0	0x3daa4e46	0.08315711
1	0xbe1c95f6	-0.1529158
2	0x00001e1c	1.0801e-41
3	0x80002130	-1.1905e-41
4	0x00002520	1.3318e-41
5	0x3dcc58f0	0.09977901
6	0x0000144f	7.285e-42
7	0xbdc2f1e8	-0.09518796
8	0xbd86642b	-0.06562074
9	0xbd75cbc4	-0.06000878
10	0x3d048ca5	0.03236069
11	0x000021ad	1.208e-41
12	0x3da9d980	0.08293438
13	0x00001320	6.861e-42
14	0xbddae991	-0.106890805
15	0x32f252d7	2.8210179e-08
16	0x3c9c1a07	0.01905538
17	0x3d2801e4	0.041017428
18	0x00001430	7.242e-42
19	0x10a599f2	6.5318215e-29
20	0x80000dd9	-4.968e-42
21	0xbc502cc2	-0.012705984
22	0x3e01943a	0.126542
23	0xbc8dcb5d	-0.017308885
24	0xbdabf230	-0.08395803
25	0xbda9904e	-0.08279477
26	0x3e00694c	0.12540168
27	0x3d01a2f6	0.031649552
28	0x3dd2eec1	0.10299445
29	0xbda694dc	-0.081338614
30	0xbdb54a59	-0.08852071
31	0x3dd26052	0.10272278
32	0xbe27930a	-0.16364685
33	0x3de27971	0.11058319
34	0x80000d3c	-4.748e-42
35	0xbcd0edc7	-0.025504006
36	0x8000222d	-1.226e-41
37	0x3ddaf291	0.10690797
38	0x80002602	-1.3635e-41
39	0x3e179e13	0.14806394
40	0xbdac6936	-0.08418505
41	0x3e84ae4e	0.25914234
42	0xbec6da80	-0.38838577
43	0x3a9bef3a	0.0011896857
44	0x3e4eb689	0.20186819
45	0x800015c4	-7.808e-42
46	0xbd69c044	-0.057068124
47	0xbe9e8f49	-0.30968693
48	0xbbf07c78	-0.0073390566
49	0xbe4444c9	-0.19166864
50	0xbe9153c6	-0.28384227
51	0x3ba4bf3b	0.0050276793
52	0x00001887	8.799e-42
53	0x3e29603f	0.16540621
54	0xba4cdfdb	-0.00078153395
55	0x3d0183cc	0.031619832
56	0xbe252b27	-0.16129743
57	0x3cffbdfd	0.031218523
58	0xbc8f4416	-0.01748852
59	0x3d48d02b	0.04902665
60	0x3da3777a	0.07981773
61	0xbe77ad71	-0.24187256
62	0xbe87118f	-0.26380584
63	0xbd759080	-0.05995226
64	0x3de37902	0.11107065
65	0x3d355412	0.04426963
66	0x80002317	-1.2588e-41
67	0xbcddc438	-0.027071103
68	0x000012b1	6.705e-42
69	0xbd760f95	-0.060073454
70	0x00000614	2.18e-42
71	0x3c21a017	0.009864829
72	0xbdc41d60	-0.09575915
73	0x3e1ca792	0.15298298
74	0xbebd6306	-0.3698961
75	0x3aafdde3	0.0013417568
76	0xbbc3d132	-0.0059758658
77	0x80000ccb	-4.589e-42
78	0xbc99eb9d	-0.018789107
79	0xbe252519	-0.16127433
80	0x3df45704	0.119306594
81	0xbe53c484	-0.20680434
82	0xbe89f1bd	-0.26942244
83	0x3b34a450	0.0027563758
84	0x800014b2	-7.424e-42
85	0x3e13ca9c	0.14432758
86	0x3df4b28a	0.11948116
87	0x3dc43815	0.09581009
88	0xbe00422a	-0.1252524
89	0x3dfae515	0.12250725
90	0xbe3d8fbf	-0.18511866
91	0x3d15d55a	0.03658042
92	0xbcf1608a	-0.029464979
93	0x3d0955b2	0.03352899
94	0xbd493b1b	-0.049128633
95	0xbbb42f91	-0.0054988344
96	0x3deb26f5	0.1148204
97	0x3d643994	0.055718973
98	0x80002368	-1.2701e-41
99	0x80001665	-8.034e-42
100	0x00001936	9.044e-42
101	0xbd9efc4b	-0.07762965
102	0x00001599	7.748e-42
103	0xbd37324b	-0.044725697
104	0x3dd3ba95	0.10338322
105	0xbb09a7c5	-0.002100454
106	0x00000487	1.624e-42
107	0x00002511	1.3297e-41
108	0xbe0f5d31	-0.14000393
109	0x80001844	-8.705e-42
110	0x3c630ba9	0.0138577605
111	0x00000d53	4.78e-42
112	0xbd7f769f	-0.062368985
113	0x8000094e	-3.338e-42
114	0x80001703	-8.255e-42
115	0x8000172f	-8.317e-42
116	0x80001947	-9.068e-42
117	0xb7b010b3	-2.0988611e-05
118	0xa232b7fa	-2.4220895e-18
119	0x3d58bef1	0.05291647
120	0x3d8c6825	0.068558015
121	0x80000cd8	-4.607e-42
122	0x3cb1e9a7	0.02171786
123	0xbdb49ec3	-0.08819344
124	0x3c8db266	0.017296981
125	0xbda10f28	-0.07864219
126	0xbb5120e3	-0.003191047
127	0x800014a7	-7.409e-42
128	0x3e0827a2	0.13296369
129	0xbd2b8d5a	-0.04188285
130	0x00002418	1.2948e-41
131	0xbd313e56	-0.04327234
132	0x00000a28	3.643e-42
133	0xbe533f92	-0.20629719
134	0x80001b01	-9.687e-42
135	0x3da69e07	0.0813561
136	0xbd3284ef	-0.043583807
137	0x3e427018	0.18988073
138	0xbed3c942	-0.41364485
139	0xbc1afa2a	-0.009459058
140	0x3e3ad997	0.18247066
141	0x0000131b	6.854e-42
142	0x3e1ad5fd	0.15120693
143	0xbe17853d	-0.1479692
144	0x3cca42f9	0.024690138
145	0xbdc8f0d3	-0.098115586
146	0xbe9874f8	-0.2977674
147	0x3afbee2b	0.001922076
148	0x000019c3	9.242e-42
149	0x3e78e523	0.24306159
150	0x3e171347	0.14753447
151	0x3d9e1411	0.07718671
152	0x3c8986d8	0.016787931
153	0x3e527521	0.20552494
154	0xbe4af4af	-0.19819902
155	0xbded3dc2	-0.11584045
156	0xbe7cd2d0	-0.24689794
157	0xbe5a5da0	-0.21324778
158	0xbe50e3da	-0.20399418
159	0x3e5b6efd	0.21429057
160	0x3d8e245a	0.06940527
161	0xbdbef5bb	-0.09324213
162	0x80000ea7	-5.256e-42
163	0xbd062069	-0.032745752
164	0x000020ec	1.181e-41
165	0xbe159c0f	-0.14610313
166	0x80000371	-1.235e-42
167	0x3e483ea4	0.19555146
168	0xbb89fc61	-0.004210994
169	0x3e5c4777	0.21511637
170	0xbeecd988	-0.46259713
171	0x3a829bb7	0.000996462
172	0x3e07d946	0.13266477
173	0x0000196f	9.124e-42
174	0x3e483e26	0.19554958
175	0xbe9bac5a	-0.3040493
176	0x3e0da72e	0.13833305
177	0xbdf7e56e	-0.12104307
178	0xbe93de7c	-0.2888068
179	0x3b615189	0.0034380874
180	0x00001e4f	1.0873e-41
181	0x3d7adb88	0.061244518
182	0xbdde4b63	-0.108542226
183	0x3de3e5f0	0.111278415
184	0xbd338fad	-0.04383819
185	0x3dde9162	0.10867573
186	0xbd486ae7	-0.048930075
187	0xbd406d90	-0.046979487
188	0xbe91f7c6	-0.2850935
189	0xbd9e14c9	-0.07718808
190	0xbe80ff91	-0.25194982
191	0xbc5b8c30	-0.0134001225
192	0xbe13a0d2	-0.14416817
193	0x3d33b2bf	0.043871637
194	0x00001915	8.998e-42
195	0x3cfd28e8	0.030903295
196	0x00000b37	4.023e-42
197	0x3d85f8be	0.065415844
198	0x00000421	1.481e-42
199	0x3d41f2c7	0.04735067
200	0xbddfcf4d	-0.10928211
201	0x3d2ae794	0.041724756
202	0x3eb9274e	0.361628
203	0xb9e216b6	-0.00043123
204	0x3c09335f	0.008374064
205	0x00000337	1.153e-42
206	0x3e0d0398	0.13770902
207	0x3eae6c38	0.3406694
208	0xbd334e67	-0.043775942
209	0x3e901554	0.28141272
210	0x3e986d42	0.29770857
211	0xba902c64	-0.0010999558
212	0x800016b5	-8.146e-42
213	0xbd8e3034	-0.06942788
214	0x3e22c131	0.15894009
215	0xbc32031c	-0.010864999
216	0xbc428255	-0.011871894
217	0x3e578a55	0.21048863
218	0xbdf9926a	-0.121861294
219	0xbd504569	-0.050847445
220	0x3d46d86d	0.048546243
221	0x3e42ac0e	0.19010946
222	0x3dd41d67	0.103571706
223	0xbd8437fa	-0.06455989
224	0x3e9dd93c	0.308298
225	0xbe112a4f	-0.14176296
226	0x80000bcf	-4.236e-42
227	0xbd2dc8ae	-0.04242771
228	0x80001516	-7.564e-42
229	0x3e4deb0d	0.20109196
230	0x00000a61	3.723e-42
231	0xbe18ee58	-0.14934671
232	0x3ebc5e52	0.3679071
233	0x3d424a95	0.04743441
234	0x3e1cbcc7	0.15306388
235	0xbb7ce262	-0.0038587083
236	0x3dc56df5	0.09640113
237	0x8000224d	-1.2305e-41
238	0xbdde4732	-0.10853423
239	0xbe00b869	-0.12570347
240	0x3dbb4344	0.09143689
241	0x3e98edb1	0.29868844
242	0xbe314887	-0.17312823
243	0xbb352c9c	-0.0027644997
244	0x8000221e	-1.2239e-41
245	0xbdd22cc4	-0.102624446
246	0xbd7212da	-0.05910001
247	0x3eaf7750	0.34270716
248	0xbc913c28	-0.01772888
249	0xbd66cfd3	-0.05635054
250	0x3de0d76b	0.10978588
251	0x3e2bddf5	0.16783889
252	0x3de773fc	0.11301419
253	0x3e8e113a	0.27747518
254	0x3e038d05	0.12846763
255	0xbd173799	-0.036918256

bias f4 [32]
0	0xbdcc2027	-0.0996707
1	0x3ac6b61f	0.0015160477
2	0xbd2f61d1	-0.042817894
3	0x3d17419e	0.03692781
4	0x3df1a191	0.117983945
5	0xbcb6dad1	-0.022321137
6	0xbe81eda9	-0.25376633
7	0x3e8891ba	0.2667368
8	0xbdbef11b	-0.09323331
9	0x3ea4f340	0.32216835
10	0xbd7812f8	-0.060564965
11	0x3cf3f855	0.0297815
12	0x3e24c6fc	0.16091532
13	0x3dedbc6f	0.116082065
14	0xbb5c91a5	-0.0033656147
15	0x3d188e44	0.03724505
16	0x3e6cbaf0	0.23118186
17	0xbbdd9f47	-0.006763372
18	0x3d8368e1	0.064164884
19	0x3e318242	0.17334846
20	0xbea34020	-0.3188486
21	0x80002267	-1.2341e-41
22	0x800991b5	-8.7879e-40
23	0x3dec8a9b	0.115498744
24	0x3e11055c	0.141622
25	0x3e203795	0.15646203
26	0x3d3d1ca1	0.04616988
27	0x3e82d8bf	0.2555599
28	0x3e2ed768	0.17074358
29	0xbdf022ac	-0.11725363
30	0xbd5968d5	-0.05307849
31	0xa2890a6c	-3.714496e-18

weight f4 [4, 32]
0	0x3d8f5e70	0.070004344
1	0x3e2046a4	0.15651947
2	0x3dab47b4	0.08363286
3	0x3d6005e9	0.054693136
4	0x3b732733	0.0037102222
5	0x3e375019	0.17901649
6	0xbebf72c5	-0.3739225
7	0xbe8aade3	-0.2708579
8	0xbde46934	-0.111528784
9	0xbe9bf869	-0.3046296
10	0xbeb92d7a	-0.36167508
11	0x3dc2c73d	0.09510658
12	0xbea16883	-0.3152505
13	0xbdfd6f85	-0.12374786
14	0xbb5a3c0d	-0.0033299953
15	0x3d012598	0.031529993
16	0xbe09258a	-0.13393226
17	0x3b979ee1	0.004627094
18	0x3e3f2e39	0.18669976
19	0x3e082d40	0.13298512
20	0xbe9363b1	-0.28786996
21	0x00001f66	1.1264e-41
22	0x8000108f	-5.94e-42
23	0xbe9208de	-0.2852239
24	0xbe561d2a	-0.20909563
25	0x3d390c3d	0.045177687
26	0x3dd9810d	0.106203176
27	0xbe5e32d3	-0.21699075
28	0xbecd1c92	-0.4006086
29	0xbe77ede6	-0.24211845
30	0xbd10ae59	-0.03532252
31	0x8000028f	-9.18e-43
32	0x3da9ebd7	0.08296936
33	0x3d970f68	0.073759854
34	0x3e1d0f51	0.15337874
35	0x3d61709f	0.055039044
36	0x3d41faf5	0.047358472
37	0x3dd7ac8e	0.10530959
38	0xbe2383d5	-0.15968259
39	0xbe975148	-0.295542
40	0xbe2a7f6e	-0.16650173
41	0xbeaed935	-0.3415009
42	0xbe84b839	-0.259218
43	0x3de5460c	0.11195001
44	0xbeb54256	-0.35402173
45	0x3d5ad83c	0.053428873
46	0xbb94a0a5	-0.004535752
47	0xbe098a68	-0.13431704
48	0x3e278bd6	0.16361937
49	0x3a34d982	0.0006898866
50	0x3e6698e8	0.22519267
51	0x3e4c5722	0.19955114
52	0xbed38752	-0.4131418
53	0x0000171e	8.293e-42
54	0x80000c6f	-4.46e-42
55	0xbe1d8288	-0.15381825
56	0xbea6fa0f	-0.32612655
57	0xbc0454d5	-0.008076866
58	0xbe00f8d7	-0.12594925
59	0xbeb48936	-0.35260934
60	0xbe0be935	-0.1366318
61	0xbe3b5220	-0.18293047
62	0xbb0c6ad6	-0.0021425984
63	0x0000144e	7.284e-42
64	0xbd9d76a4	-0.076886445
65	0x3d65e4d8	0.056126446
66	0xbabdaf1b	-0.0014471741
67	0x3d37cf52	0.04487545
68	0x3e4c0c9d	0.19926687
69	0x3e576022	0.21032766
70	0xbeacd335	-0.33754888
71	0xbe5eb1c6	-0.21747503
72	0xbe4125da	-0.18862095
73	0xbe137577	-0.14400278
74	0xbe9cb4cb	-0.30606684
75	0x3e80831c	0.2510003
76	0xbdfb55a3	-0.12272193
77	0x3e82b84d	0.25531235
78	0xbb947143	-0.0045301034
79	0x3da8128a	0.08206661
80	0x3e5f97f5	0.21835311
81	0xba856951	-0.0010178481
82	0x3c29085b	0.0103169335
83	0xbbe6e143	-0.0070458963
84	0xbedc86bf	-0.43071553
85	0x000012d8	6.76e-42
86	0x80001e45	-1.0859e-41
87	0xbe5fd77e	-0.21859547
88	0xbec79c1c	-0.3898629
89	0x3d8f9c75	0.07012264
90	0x3dcfecfe	0.101526245
91	0xbe96b918	-0.2943809
92	0xbe8f20fd	-0.27954856
93	0xbe54afbb	-0.20770161
94	0x3a1acaab	0.00059048337
95	0x800022d3	-1.2493e-41
96	0x3d6903bb	0.056888323
97	0x3e040403	0.12892155
98	0x3d9df127	0.07712012
99	0x3d2d18df	0.042260047
100	0x3e6a0623	0.22853903
101	0x3e9a0896	0.30084676
102	0xbe2c7a2c	-0.1684348
103	0xbd884ea1	-0.06655622
104	0xbe262e09	-0.16228499
105	0xbe5f3bc9	-0.2180015
106	0xbe300fc4	-0.17193514
107	0x3da564a7	0.080758385
108	0xbeaebb0a	-0.34127074
109	0x3ea92962	0.33039385
110	0xbb8df911	-0.0043326695
111	0x3e90a6fe	0.28252405
112	0x3e849927	0.25898096
113	0x38dffdc9	0.0001068074
114	0x3e6a6bc5	0.22892673
115	0x3e635499	0.2220024
116	0xbec296f0	-0.3800578
117	0x80002259	-1.2322e-41
118	0x80000ab0	-3.834e-42
119	0xbee2a09c	-0.4426316
120	0xbe6361d3	-0.22205286
121	0x3e989a6a	0.2980531
122	0x3e7ff02e	0.24993965
123	0xbe2bb5a6	-0.16768512
124	0xbe8d51f5	-0.2760159
125	0xbd8b25b8	-0.06794304
126	0xbac596e7	-0.001507488
127	0x80002487	-1.3104e-41

bias f4 [4]
0	0xbe4480c2	-0.19189742
1	0xbdb465bb	-0.08808466
2	0x3b046374	0.002020088
3	0x3dda3641	0.10654879

weight f4 [32, 7]
0	0x3e43751e	0.19087645
1	0xbce099ff	-0.027417181
2	0x3eeb77e3	0.45989904
3	0xbe240d92	-0.16020802
4	0xbe29035a	-0.16505185
5	0x3ed54823	0.41656598
6	0xbdfe707e	-0.124238
7	0xafeac5ea	-4.2704978e-10
8	0x00000a14	3.615e-42
9	0x800008f5	-3.213e-42
10	0xad7b2599	-1.42760465e-11
11	0x87ecea8a	-3.5647183e-34
12	0x000006bc	2.416e-42
13	0xb869c588	-5.5735494e-05
14	0x3e6e361b	0.23262827
15	0xbe3b6045	-0.18298443
16	0x3ed4cc9b	0.41562352
17	0xbe5148e0	-0.20437956
18	0xbe8a8f65	-0.27062526
19	0x3e853eca	0.26024467
20	0x3e78a40d	0.2428133
21	0xbdf219c5	-0.118213214
22	0x3eac4383	0.33645257
23	0xbbc96041	-0.0061455076
24	0x3e58fa16	0.2118915
25	0x3e65db53	0.22446947
26	0xbec42f0d	-0.38317147
27	0xbcb225b4	-0.021746494
28	0xbec011a1	-0.3751345
29	0x3ebb4075	0.36572614
30	0xbe99048f	-0.2988629
31	0xbdcab359	-0.09897489
32	0xbe8cada8	-0.2747624
33	0x3ed35183	0.41273126
34	0xbd4aa47e	-0.04947328
35	0x3e6261a9	0.22107567
36	0xbd6d21ac	-0.05789344
37	0x3eb6f742	0.35735518
38	0x3f101625	0.5628379
39	0x3f24cf85	0.6437915
40	0xbddd62ea	-0.10809882
41	0x3da36a74	0.07979289
42	0xbdc2f531	-0.09519423
43	0xbe562d43	-0.20915703
44	0x3e28ae84	0.16472822
45	0x3e2b1df1	0.1671064
46	0xbd7d1895	-0.06179102
47	0xbd55e707	-0.052222278
48	0x3ea2a794	0.31768477
49	0x80001236	-6.533e-42
50	0xb13f6efe	-2.785725e-09
51	0x9c8673d9	-8.897322e-22
52	0x800022f9	-1.2546e-41
53	0x3344fe6b	4.5866198e-08
54	0x80000ce9	-4.631e-42
55	0x8000bf7b	-6.869e-41
56	0xbe29e37d	-0.16590686
57	0x3e1ecf6e	0.15508816
58	0xbd8c0ea2	-0.068387285
59	0x3f13b7ad	0.5770214
60	0x3e65f716	0.22457537
61	0xbf0b60be	-0.5444449
62	0x3db7ae93	0.08968844
63	0x3a807631	0.0009800849
64	0xbb153b8d	-0.002277109
65	0xbb525c1c	-0.0032098358
66	0xbc175a61	-0.009237857
67	0xbbbad2c2	-0.005701394
68	0x3ce91fd7	0.028457565
69	0x3a07ccfc	0.00051803864
70	0xbb7c51dd	-0.0038500943
71	0x3eb0bbe4	0.3451835
72	0x3e5ae08b	0.21374719
73	0x3ea8bd80	0.32957077
74	0x3ed94d62	0.4244185
75	0xbeea8afa	-0.45809156
76	0xbe871864	-0.26385796
77	0x3e412d9e	0.18865058
78	0xbe703dc9	-0.23461069
79	0x3eab0078	0.33398795
80	0xbeb833fa	-0.35977155
81	0xbf4d89a9	-0.8028818
82	0x3eadc424	0.33938706
83	0x3de13f70	0.10998428
84	0xbe310a93	-0.1728919
85	0x3e8f0a3d	0.279375
86	0x3ea61dde	0.32444662
87	0xbd6a79a4	-0.05724491
88	0xbf1e2967	-0.61781925
89	0x3ee51e15	0.44749513
90	0xbddd1e23	-0.10796764
91	0xbd0d83f7	-0.03454968
92	0xbce4263d	-0.027850265
93	0x3ce132b6	0.027490001
94	0x3e820c50	0.2540002
95	0x3dd3e84e	0.10347043
96	0xbdbd4b76	-0.09242909
97	0xbce7f2cb	-0.028314015
98	0x3ec08931	0.3760467
99	0x3e524266	0.20533141
100	0x3e993e5b	0.29930386
101	0x3ebd3857	0.36957046
102	0x3e26227e	0.16224095
103	0xbe9fe7f7	-0.31231663
104	0xbe80051b	-0.25003895
105	0x3eb5f433	0.35537872
106	0x3ebfd61a	0.37468034
107	0x3e54f6e2	0.20797303
108	0x3ee23e7f	0.44188306
109	0x3e9ed16e	0.31019157
110	0xbf3ac3b9	-0.729549
111	0x3dbbd641	0.09171725
112	0x3e6b00fd	0.22949596
113	0xbde559e2	-0.111987844
114	0xbdf5cf64	-0.12002447
115	0xbd924346	-0.07141738
116	0xbed055fd	-0.40690604
117	0x3ea65fd9	0.32495
118	0xbd843fda	-0.06457491
119	0x3ee03209	0.43788174
120	0xbd57920e	-0.052629523
121	0xbcbae9e5	-0.022816608
122	0xbee67c0d	-0.45016518
123	0xbf44d172	-0.7688209
124	0x3f44a31f	0.76811403
125	0xbd0f1c88	-0.03493932
126	0xbe4d3a3d	-0.20041747
127	0xbe60d3f1	-0.21955849
128	0x3ef83762	0.48479754
129	0x3e4714d3	0.19441538
130	0x3e07f6a6	0.13277683
131	0xbd9008b2	-0.070329085
132	0x3e2adcd9	0.16685809
133	0x3db91f3c	0.090391606
134	0x3ec6060b	0.38676485
135	0xbe571e30	-0.2100761
136	0xbe70968a	-0.23494926
137	0xbe8d37cd	-0.27581635
138	0x3e8a9ee5	0.27074352
139	0x3cdc915b	0.02692478
140	0x3d8daa58	0.06917256
141	0x3ce06eb8	0.027396545
142	0xbe3b18fb	-0.18271248
143	0xbeaa085a	-0.33209497
144	0xbf11298c	-0.5670402
145	0x3e1c838d	0.15284558
146	0xbe63aeb4	-0.22234613
147	0x3dee8dc6	0.11648135
148	0xbdca966b	-0.09891971
149	0xbe440310	-0.19141793
150	0xbd639096	-0.05555781
151	0x3e17a9b0	0.14810824
152	0x3d3ae46f	0.045628008
153	0x3e72fe14	0.23729736
154	0xb8506bc2	-4.969142e-05
155	0x00000ebc	5.286e-42
156	0x000019e6	9.29e-42
157	0xb834d1da	-4.3110784e-05
158	0x000228c4	1.98295e-40
159	0x00002523	1.3322e-41
160	0xa9277970	-3.718678e-14
161	0x3ef7fcda	0.48435098
162	0x3e8dda7e	0.2770576
163	0xbe0258b1	-0.12729146
164	0x3d0383b4	0.032108024
165	0x3ef7c39b	0.48391423
166	0x3d1ab93e	0.037774317
167	0x3e4199c5	0.18906315
168	0x3d9d09b6	0.07667868
169	0xbd654883	-0.055977356
170	0xbe6e51d1	-0.23273398
171	0xbd19c5c9	-0.03754214
172	0xbd5a4b36	-0.053294383
173	0x3f363193	0.71169394
174	0xbe27a146	-0.16370115
175	0x3e522e8f	0.20525573
176	0x3e93c0b1	0.2885795
177	0x3e20c74f	0.1570103
178	0x3e18dab0	0.14927173
179	0x3ec616c8	0.38689256
180	0xbcf55d08	-0.029951587
181	0x3ea3b3ec	0.31973207
182	0xbc302e0f	-0.010753169
183	0x3e8bae5f	0.27281472
184	0x3d29651b	0.041356187
185	0x3e297a05	0.16550453
186	0x3e5bc2a4	0.21460968
187	0xbf217cad	-0.63080865
188	0xbe7b62a1	-0.24549343
189	0x3d47ed8d	0.04881053
190	0x3e9b80a1	0.30371574
191	0xbdf02cdb	-0.117273055
192	0x3ea808f8	0.32819343
193	0x3f2b1e11	0.6684275
194	0xbd8d91bd	-0.06912563
195	0x3ea6c60c	0.32572973
196	0x3e5faa70	0.2184236
197	0x3e9332fc	0.28749835
198	0xbde8a6e8	-0.1135996
199	0x3f2d4055	0.6767629
200	0x3f465c3b	0.7748448
201	0xbe79d414	-0.24397308
202	0xbec6367f	-0.38713452
203	0xbe2b8a0e	-0.16751882
204	0xbe0ee291	-0.13953616
205	0xbe90e8e8	-0.28302693
206	0x3ee44784	0.44585812
207	0x3ebcef0c	0.36901128
208	0xbc71adec	-0.014750939
209	0x3e932eac	0.28746545
210	0xbea105f9	-0.3144987
211	0x3da4dcb2	0.08049907
212	0x3e6ace74	0.22930318
213	0x3e298d12	0.1655772
214	0x3eb4fc27	0.35348627
215	0xbefd4d86	-0.49473208
216	0x3e480b83	0.19535641
217	0x3e8c8146	0.27442378
218	0x3e50a610	0.20375848
219	0x3ec864f0	0.3913951
220	0x3eb3c641	0.35112193
221	0x3ed0ff2b	0.40819678
222	0xbd91573e	-0.07096718
223	0xbe2613f1	-0.16218545

bias f4 [32]
0	0xbece24d6	-0.4026248
1	0x8000241c	-1.2954e-41
2	0x3dc155c2	0.09440185
3	0x3eb08356	0.344752
4	0x3cb02a73	0.021504616
5	0xbe1f2b16	-0.1554378
6	0xbe527278	-0.20551479
7	0x000012ad	6.7e-42
8	0xbd267b15	-0.040644724
9	0x3a926dfb	0.0011171693
10	0x3e56c09d	0.20971914
11	0xbdd0c217	-0.1019327
12	0xbe1f945f	-0.15583943
13	0x3d4b156e	0.049580984
14	0xbe88bd51	-0.26706937
15	0x3cb5d37d	0.022195572
16	0x3ebb9013	0.36633357
17	0x3ea532e3	0.32265386
18	0xbcd70953	-0.026249563
19	0xbed65efb	-0.4186934
20	0x3ef0d972	0.47040898
21	0xbcf04f14	-0.029334582
22	0x80001fcc	-1.1407e-41
23	0x3e142525	0.14467295
24	0x3eeda2bd	0.46413222
25	0x3ec15000	0.37756348
26	0x3cc3c38f	0.02389696
27	0x3ed94793	0.4243742
28	0x3d2755f5	0.04085346
29	0x3e28f5c6	0.16500005
30	0x3eb2a081	0.3488808
31	0x3d841f1e	0.06451248

weight f4 [32, 32]
0	0x3e825cbc	0.25461376
1	0x000021bf	1.2106e-41
2	0x3cbafab4	0.022824623
3	0xbe481f4e	-0.19543192
4	0x3c33e932	0.010980891
5	0x3d0f4fb5	0.034988124
6	0x3e0da3f9	0.13832082
7	0xa4b23016	-7.7276655e-17
8	0xbdb6ba8e	-0.08922301
9	0xb81fa0e1	-3.8058384e-05
10	0xbd9d7d92	-0.07689966
11	0x3ee140b8	0.4399469
12	0x3e4943a9	0.19654717
13	0xbdd5efa4	-0.104460984
14	0x3d45e51b	0.048314195
15	0x3da4d55e	0.08048509
16	0x3e5c0f94	0.21490318
17	0x3d4197d3	0.04726393
18	0x3e380760	0.17971563
19	0x3c668270	0.014069185
20	0x3e4d7648	0.20064652
21	0xbe26f6b0	-0.16305041
22	0x00001e1b	1.08e-41
23	0x3db0cbb1	0.08632601
24	0x3dfffc21	0.12499262
25	0x3e04998f	0.12949203
26	0xbc7cffb8	-0.0154418275
27	0xbe506357	-0.20350395
28	0xbe04c015	-0.12963898
29	0xbdd403f3	-0.10352316
30	0xbd082c41	-0.03324533
31	0x3cf96217	0.03044228
32	0x3b409c91	0.0029390196
33	0x80001562	-7.671e-42
34	0x3dce94fa	0.10087009
35	0xbdfaece9	-0.12252218
36	0x3c6b3f71	0.014358387
37	0xbdc54beb	-0.09633621
38	0xbe02eccd	-0.12785645
39	0x22007bf3	1.7412853e-18
40	0xbca14dcc	-0.019690417
41	0xbb03aba4	-0.002009132
42	0xbdd8251b	-0.10553952
43	0x3ee191c9	0.44056538
44	0xbceec000	-0.029144287
45	0xbdb9d27d	-0.090733506
46	0xbd916d5d	-0.071009375
47	0x3e0676ea	0.131313
48	0x3e4b3dc7	0.19847785
49	0x3c3738e8	0.011183001
50	0x3b5a023d	0.0033265494
51	0xbbe5490b	-0.006997233
52	0x3e31bddb	0.1735758
53	0x3d83c200	0.06433487
54	0x00000e62	5.16e-42
55	0x3dad75a1	0.084697016
56	0xbd823769	-0.06358225
57	0x3df94f45	0.121733226
58	0xbe1b367d	-0.15157504
59	0xbdc9ebd4	-0.09859434
60	0xbd667e56	-0.056272827
61	0xbe0c6866	-0.137117
62	0x3d3d5004	0.046218887
63	0xbc142e54	-0.009044249
64	0xaa803a00	-2.2777613e-13
65	0x80001835	-8.684e-42
66	0xbb9dfd3a	-0.0048214467
67	0xbb9ff0ab	-0.004880985
68	0x20d49b7f	3.6017096e-19
69	0xafaef128	-3.1821767e-10
70	0x9f07961a	-2.8711523e-20
71	0x00001ca5	1.0276e-41
72	0xa8a21576	-1.799492e-14
73	0xb8dc758e	-0.00010512314
74	0xbb9e91cd	-0.004839158
75	0xab9b1f1f	-1.102205e-12
76	0xace47dd9	-6.4941216e-12
77	0xbb87fa3a	-0.0041497024
78	0xa26c4584	-3.2020765e-18
79	0xbb9ccb94	-0.0047850106
80	0xbba1264a	-0.0049178945
81	0xbba16d90	-0.004926391
82	0xaaadcf81	-3.0874958e-13
83	0xa0539870	-1.7922833e-19
84	0xbba169be	-0.0049259355
85	0xba4eebf3	-0.00078934355
86	0x80000711	-2.535e-42
87	0xbba0345d	-0.0048890547
88	0xbba128fd	-0.0049182163
89	0xbba16dc5	-0.0049264156
90	0xbb72fbb8	-0.0037076306
91	0xbba131e3	-0.004919277
92	0xbb9a7bdc	-0.004714472
93	0xbb96a39d	-0.004597141
94	0xbb9ed3fc	-0.004847048
95	0xbb9d976c	-0.0048093107
96	0x3e9b39f9	0.30317667
97	0x00000958	3.352e-42
98	0x3d935a8d	0.071950056
99	0xbdce953a	-0.100870565
100	0x3e1de1b5	0.15418132
101	0xbe2db96d	-0.16965266
102	0xbcf3bc0a	-0.02975275
103	0x304295cd	7.078967e-10
104	0x3dbae34f	0.09125387
105	0xba3a3ade	-0.0007104109
106	0x3cd7a41f	0.026323376
107	0x3eac41d6	0.3364398
108	0x3cf0bada	0.029385973
109	0xbd9f627a	-0.07782455
110	0x3db685c9	0.08912236
111	0xbd84688c	-0.06465253
112	0x3e8681e1	0.26270965
113	0x3e844fcf	0.2584214
114	0x3dd6f7d8	0.10496491
115	0x3d655131	0.055985633
116	0x3e9e3233	0.30897674
117	0x3e65dc2b	0.22447269
118	0x80002594	-1.348e-41
119	0x3d8703cd	0.06592522
120	0xbc9f430f	-0.019441156
121	0xbd7017e6	-0.05861654
122	0xbe2729c7	-0.1632453
123	0x3e1a8a96	0.15091929
124	0xbeacee80	-0.3377571
125	0xbe83157a	-0.25602323
126	0xbe0be369	-0.13660969
127	0x3e1b53ca	0.15168682
128	0x3e7ba938	0.2457627
129	0x00000320	1.121e-42
130	0x3c6c4729	0.014421263
131	0x3a87ef84	0.0010371064
132	0x3dc5eca8	0.09664279
133	0xbcac5258	-0.021035358
134	0x3d03bfb9	0.032165263
135	0x80000df7	-5.01e-42
136	0xbb5831a6	-0.0032988577
137	0x3905f9b3	0.00012776889
138	0xbc458efd	-0.012058017
139	0x3e730379	0.23731793
140	0x3d0288e2	0.031868823
141	0xbd898215	-0.06714264
142	0x3a9b0392	0.0011826626
143	0x3b060c0b	0.0020453956
144	0x3cfcfb7a	0.030881632
145	0x3dfcbf3b	0.12341162
146	0x3cfb24d7	0.030657215
147	0x3e29eed8	0.16595018
148	0x3cd6c0bb	0.026214948
149	0xbcd23e55	-0.025664488
150	0x00001799	8.465e-42
151	0x3c8b7045	0.017021308
152	0xbb4018e1	-0.0029311704
153	0x3c59330d	0.0132568
154	0xbb801472	-0.0039086873
155	0x3bce421a	0.006294501
156	0xbe3ab973	-0.18234806
157	0xbe284865	-0.16433866
158	0x3c0ae360	0.008477062
159	0x3a69c8d3	0.000891817
160	0x3e694790	0.22781205
161	0xb8509931	-4.9733735e-05
162	0x3d97c807	0.07411199
163	0x3dffd91c	0.12492582
164	0xbdbdb743	-0.0926347
165	0xbc9ecc7a	-0.019384611
166	0x3e5c3f92	0.21508625
167	0x2c43807f	2.7782496e-12
168	0xbb60916b	-0.0034266363
169	0xbb5a2237	-0.0033284554
170	0x3d6f8468	0.05847588
171	0x3e8d5f74	0.27611887
172	0x3d941700	0.072309494
173	0xbde18c95	-0.11013142
174	0x3dab9b3c	0.08379218
175	0xbdee3b5a	-0.11632414
176	0x3e690e09	0.2275926
177	0x3e1952c0	0.14972973
178	0x3e05c9e7	0.13065301
179	0x3e89f7a1	0.26946738
180	0x3e9a6dcc	0.30161893
181	0x3d8e7283	0.06955435
182	0x00001fc7	1.14e-41
183	0x3d0892c2	0.033343084
184	0x3e593e47	0.21215163
185	0x3d3214ec	0.043476984
186	0xbd9fbcce	-0.077996835
187	0xbe1d8244	-0.15381724
188	0xbd7e5556	-0.0620931
189	0xbda61fcf	-0.08111536
190	0xbde86d33	-0.11348953
191	0x3bc8f4bc	0.0061326902
192	0xbd77c8a0	-0.060494065
193	0x80001183	-6.282e-42
194	0x3e0ec304	0.1394158
195	0xbd37b9ad	-0.04485481
196	0xbe230d02	-0.15922931
197	0x3e4fd2f5	0.20295317
198	0x3d68a1fc	0.056795105
199	0xaf9380bc	-2.6830616e-10
200	0x3dd771c6	0.105197474
201	0xba810c7d	-0.0009845641
202	0x3e5f7635	0.21822436
203	0xbe9484c0	-0.2900753
204	0x3e070c6a	0.1318833
205	0x3def47fb	0.11683651
206	0x3e43f045	0.19134624
207	0x3bc8937c	0.006121097
208	0xbe123762	-0.1427894
209	0xbc8d30d8	-0.017235205
210	0x3c694e8f	0.014239921
211	0xbe93f6b4	-0.28899157
212	0xbe519472	-0.20466784
213	0x3b8fc518	0.004387509
214	0x80000021	-4.6e-44
215	0xbd8deb48	-0.06929642
216	0x3d1e22a4	0.038607255
217	0x3e149b99	0.14512481
218	0x3c1e42c5	0.009659474
219	0x3d91e3d4	0.07123533
220	0x3e4945a0	0.19655466
221	0x3d84697f	0.06465434
222	0x3d991cfa	0.0747623
223	0x3dff9e8b	0.124814115
224	0xbdf9dae3	-0.121999525
225	0x800018d9	-8.914e-42
226	0xbd8ca265	-0.06866912
227	0x3e560201	0.20899202
228	0xbe71a7bc	-0.23599142
229	0x3e3fa1bf	0.18714045
230	0x3da1c3cc	0.078986734
231	0xb005b7f0	-4.864651e-10
232	0xbca42347	-0.020036353
233	0xb9a65d9e	-0.00031731738
234	0xbdc5cc7f	-0.09658145
235	0xbebba4ee	-0.3664927
236	0xbdc86fec	-0.097869724
237	0x3dff4836	0.12464945
238	0x3cbe2adc	0.023213796
239	0x3e2ee871	0.17080857
240	0xbd98e49f	-0.07465481
241	0xbe946d3e	-0.28989595
242	0xbd85295c	-0.06502029
243	0xbe8b7759	-0.27239493
244	0xbe6a4833	-0.22879104
245	0x3d11ad17	0.035565462
246	0x80001f4f	-1.1231e-41
247	0x3dff6d46	0.12472014
248	0xbd541e94	-0.051786974
249	0xbb45cea6	-0.0030182987
250	0x3de76d2b	0.11300119
251	0x3de7efa6	0.11325006
252	0x3ecc7962	0.39936358
253	0xbb916948	-0.0044375993
254	0x3e2322e4	0.15931278
255	0x3e42d45a	0.19026318

bias f4 [32]
0	0xbe0de103	-0.13855366
1	0x3dbef1dd	0.093234755
2	0xbba2a8de	-0.004963978
3	0x3c24ad09	0.01005102
4	0xbd44cc70	-0.04804653
5	0xbd69b177	-0.05705401
6	0xbdab527e	-0.083653435
7	0x3daa9ac9	0.08330304
8	0x3d86ba6c	0.06578526
9	0xbda413d0	-0.080115914
10	0xbd413285	-0.04716732
11	0x3e4d30cd	0.20038147
12	0xbc712322	-0.014717849
13	0x3e4a84bb	0.19777195
14	0x3d45f768	0.048331648
15	0x3d852d8c	0.06502828
16	0xbe7bb62f	-0.24581216
17	0xbc73437a	-0.014847631
18	0x3e777e43	0.24169259
19	0x3e60f0e7	0.21966897
20	0x3e4420b6	0.19153103
21	0xbd27af30	-0.040938556
22	0xb9c5d4bf	-0.00037733276
23	0x3df6be81	0.120480545
24	0xbba26dc2	-0.004956932
25	0xbb1c77f7	-0.0023875216
26	0x3e04a2c6	0.12952718
27	0xbde976aa	-0.113995865
28	0xbd3b36b8	-0.04570648
29	0x3ba44284	0.005012812
30	0x3e929fb0	0.28637457
31	0x3daa11ba	0.08304162

weight f4 [2, 32]
0	0xbed10058	-0.40820575
1	0xbccc556f	-0.024943082
2	0xbb9ecab1	-0.00484594
3	0xbeadf9f2	-0.33979756
4	0xbe26f2cc	-0.16303557
5	0xbebbbac0	-0.36665916
6	0x3dbc51c6	0.091952845
7	0x3e52e0cc	0.20593566
8	0x3e590891	0.21194674
9	0x3e05962a	0.13045564
10	0x3e46325c	0.19355148
11	0x3dd16ce6	0.10225849
12	0x3b05a529	0.0020392633
13	0xbebf2101	-0.37329867
14	0x3e5aa898	0.21353376
15	0x3e09e555	0.1346639
16	0xbe6efd99	-0.23338927
17	0x3c5deb49	0.013544866
18	0x3e99514e	0.29944843
19	0xbec61854	-0.38690436
20	0x3e877b0e	0.2646107
21	0xbd939eb0	-0.072080016
22	0x266a8114	8.135999e-16
23	0xbec39ef5	-0.38207212
24	0xa72620a0	-2.3054814e-15
25	0x3a2d0173	0.0006599642
26	0xbe450d2f	-0.1924331
27	0xbe4941f4	-0.19654065
28	0xbeb63b87	-0.3559229
29	0x3e1a533a	0.15070811
30	0xbe8bd052	-0.27307373
31	0x3d1eea62	0.038797744
32	0xbe85786f	-0.26068446
33	0xbc135aa6	-0.00899378
34	0xbb9c0ac8	-0.0047620274
35	0xbe08f86b	-0.13376014
36	0xbe17c5fb	-0.14821617
37	0xbecd3a82	-0.400837
38	0x3e0e6386	0.13905153
39	0x3e4d6e82	0.20061687
40	0x3e021cbf	0.12706278
41	0x3d3517c1	0.044212107
42	0x3e1ae84c	0.15127677
43	0x3e43829b	0.19092791
44	0x3ad31890	0.0016105343
45	0xbee2f71f	-0.44329163
46	0xbc159c8f	-0.009131565
47	0x3e8387c5	0.2568952
48	0xbe818c53	-0.2530237
49	0x3e37dfd2	0.17956474
50	0x3de68893	0.11256518
51	0xbe17c5f5	-0.14821608
52	0xbd711013	-0.05885322
53	0x3e66194d	0.22470589
54	0x1769aba3	7.5502996e-25
55	0xbe73cdec	-0.23809022
56	0xab2b0673	-6.0760354e-13
57	0x3a48ed5b	0.0007664763
58	0xbe96669e	-0.29375166
59	0xbe643f95	-0.2228988
60	0xbea4e378	-0.32204795
61	0x3e2ed219	0.17072333
62	0xbe3edb78	-0.18638408
63	0xba146824	-0.000566127

bias f4 [2]
0	0xbd96fae1	-0.0737207
1	0x3deed81c	0.11662313
