c220g2_bips.pt (torch, 87900 bytes, 6 tensors)

weight f4 [128, 5]
0.22445746 -0.12637438 -0.42269495 -0.2897837 0.12616794 -0.21240018 -0.14085639 0.13806137
0.31240922 -0.043412898 -0.11322125 0.30190673 0.42831156 -0.31051508 -0.16628535 0.20424816
0.20838585 -0.05215776 0.2489667 -0.20981549 -0.26633856 0.17678195 -0.40916505 -0.32145435
0.19976403 0.12416166 -0.25614798 -0.24958372 0.20823349 0.13264313 0.19304897 -0.30540454
-0.2186676 0.17235635 0.24500096 -0.026215995 0.28210098 -1.4686863e-25 -0.05603199 -0.0848907
-0.15134695 0.382067 -0.053133942 -0.2374099 0.26949027 0.33408165 0.18069243 0.2931604
-0.19795775 -0.23285073 -0.24804394 -0.21617359 -0.041985743 0.26119992 0.28908983 0.21122135
0.4607972 -0.14984347 -0.063531674 -0.15189758 -0.21188225 0.34022993 -0.23055668 0.23851024
-0.20155853 -0.32637218 0.44053856 0.37518278 -0.1485051 0.0770261 0.17730258 0.0045329356
0.0119352 -0.12955715 0.059357047 0.259058 0.22237866 -0.17874335 0.20967835 -0.14212722
0.08648582 0.049484886 0.092545055 -0.2181435 0.26549605 0.0010513089 -0.47880372 -0.2527032
-0.4532718 0.31645468 0.35667568 0.30359474 -0.26223534 0.32329613 0.31247285 -0.043443516
0.23715271 -0.10376143 -0.050573766 0.33263496 0.26996422 0.10711874 0.22971727 -0.45316207
0.010431696 0.32658753 0.086000964 -0.4033749 -0.19634151 -0.04534891 -0.21343581 -0.39482087
0.1328731 0.12856719 0.10867676 0.21360765 -0.006345795 -0.328257 -0.073169895 0.42662364
0.10683795 -0.057075527 0.34034368 -0.25844228 0.25146005 -3.2267235e-21 -0.08901895 -0.13305677
-0.31305116 -0.011414992 0.1612771 0.046894606 -0.19881025 0.006131254 -0.03379536 0.40236458
0.36096078 0.23865296 0.1479723 0.24052282 -0.3659761 0.05712789 0.2383405 0.10796446
0.22256407 0.20564155 0.18515745 -0.106871605 0.40825397 -0.12452308 -0.20235206 0.31335363
0.07272174 -0.4023004 0.367948 -0.001733201 0.29148287 -0.25599915 0.2024559 -0.21922891
0.07358996 -0.1567253 -0.42654642 0.31929946 0.24531974 0.07685944 -0.008389188 -0.1506274
0.3194259 -0.10947103 -0.101838976 -0.10812644 0.19871673 -0.19794615 0.20599292 -0.20132919
-0.4147302 0.009492222 -0.1795143 0.42613542 -0.31790057 -0.26192132 0.18204567 -0.28780082
0.37493062 0.40360883 -0.275208 0.16381873 0.06048425 -0.31954798 0.2599141 -0.22949086
-0.3709399 -0.2760411 -0.27213675 0.010306754 -0.019149797 -0.09121909 0.04738546 -1.4878877e-10
-0.32642016 -0.23587401 -0.21643393 0.13062622 -0.20088917 0.42589626 0.31815225 -0.13603602
-0.2725202 0.30233863 -0.10251988 0.26003656 0.26680034 -0.029006014 0.2867765 -0.3756807
0.23069084 -0.15820396 -0.016829904 -0.14441821 -0.28856325 0.42216024 -0.33416572 -0.16049579
0.027126124 0.14368309 -0.2079027 -0.1751472 0.048750132 -0.16739844 0.17806974 -0.24413475
-0.19009183 -0.16138916 0.12940304 0.35647848 -0.05397303 0.3183489 -0.12230454 -0.14020814
0.065287374 0.39908105 0.13867761 0.09576482 -0.14552121 0.2094048 0.3407163 0.3209113
0.22984017 0.069677226 -0.14336474 -0.30408722 0.26842645 0.090398155 0.38590252 0.37888274
00000000: 2dd8 653e 4968 01be 796b d8be 875e 94be
00000010: 2b32 013e 6f7f 59be a83c 10be f65f 0d3e
00000020: 1af4 9f3e b9d1 31bd 8be0 e7bd 8593 9a3e
00000030: a74b db3e d5fb 9ebe b546 2abe 6e26 513e
00000040: 1a63 553e 60a3 55bd 20f1 7e3e dfd9 56be
00000050: 875d 88be 5406 353e 157e d1be aa95 a4be
00000060: f18e 4c3e 7848 fe3d d425 83be e092 7fbe
00000070: 293b 553e 9ad3 073e a1ae 453e fc5d 9cbe
00000080: 66ea 5fbe 2f7e 303e 88e1 7a3e edc2 d6bc
00000090: 8a6f 903e 87d0 3596 cd81 65bd 2ddb adbd
000000a0: b2fa 1abe 499e c33e faa2 59bd 951b 73be
000000b0: a1fa 893e c00c ab3e 7007 393e 1f19 963e
000000c0: 70b5 4abe 6c70 6ebe 3bff 7dbe 9c5c 5dbe
000000d0: 3ef9 2bbd ffbb 853e 9503 943e 694a 583e
000000e0: 9ced eb3e 9170 19be e51c 82bd 0a8b 1bbe
000000f0: a9f7 58be 9e32 ae3e 0d17 6cbe 073c 743e
00000100: 5c65 4ebe 411a a7be 458e e13e f517 c03e
00000110: b911 18be dcbf 9d3d cf8e 353e 0589 943b
00000120: db8b 433c a1aa 04be 6020 733d 40a3 843e
00000130: 3bb7 633e 7f08 37be ecb5 563e cc89 11be
00000140: 7a1f b13d aab0 4a3d 4388 bd3d 0261 5fbe
00000150: 19ef 873e 13cc 893a c325 f5be 5062 81be
00000160: 3e13 e8be 5906 a23e 329e b63e c570 9b3e
00000170: b643 86be 1287 a53e 71fc 9f3e d4f1 31bd
00000180: 29d8 723e df80 d4bd 7026 4fbd 214f aa3e
00000190: c038 8a3e 1261 db3d 013b 6b3e dc04 e8be
000001a0: b4e9 2a3c 7b36 a73e 4621 b03d 2887 cebe
000001b0: c00d 49be c7bf 39bd eb8e 5abe f625 cabe
000001c0: e30f 083e 1ea7 033e ec91 de3d f7bb 5a3e
000001d0: 63f0 cfbb 4d11 a8be 19da 95bd 6a6e da3e
000001e0: dbcd da3d 07c8 69bd 8741 ae3e 8c52 84be
000001f0: 5fbf 803e e9cd 739d 914f b6bd 0940 08be
00000200: 3e48 a0be f205 3bbc d325 253e 8f14 403d
00000210: ea94 4bbe b0e8 c83b 016d 0abd bb02 ce3e
00000220: dacf b83e 7161 743e 0d86 173e 9d4b 763e
00000230: 3861 bbbe effe 693d 880f 743e 791c dd3d
00000240: d6e7 633e b393 523e ea99 3d3e 80df dabd
00000250: aa06 d13e f505 ffbd 6135 4fbe e36f a03e
00000260: 23ef 943d 51fa cdbe ae63 bc3e 932c e3ba
00000270: 3e3d 953e 5212 83be 9950 4f3e 8b7d 60be
00000280: 55b6 963d 997c 20be 4b64 dabe 387b a33e
00000290: 1935 7b3e 7b68 9d3d ce72 09bc 123e 1abe
000002a0: cb8b a33e 5932 e0bd f490 d0bd 6571 ddbd
000002b0: 667c 4b3e 65b2 4abe cfef 523e 3d29 4ebe
000002c0: 8457 d4be 4485 1b3c 99d2 37be 6c2e da3e
000002d0: ddc3 a2be 8d1a 86be 2e6a 3a3e a15a 93be
000002e0: e8f6 bf3e d1a5 ce3e 10e8 8cbe 19c0 273e
000002f0: 55be 773d cb9b a3be 7613 853e a7ff 6abe
00000300: d6eb bdbe 4255 8dbe 8255 8bbe a9dd 283c
00000310: 09e0 9cbc 13d1 babd 4217 423d 5198 23af
00000320: 8b20 a7be f588 71be dba0 5dbe e1c2 053e
00000330: e4b5 4dbe 130f da3e dae4 a23e 074d 0bbe
00000340: c587 8bbe 21cc 9a3e f1f5 d1bd 8323 853e
00000350: 0e9a 883e 059e edbc 5fd4 923e 3959 c0be
00000360: 383a 6c3e 3800 22be dede 89bc 5ee2 13be
00000370: 90be 93be 6325 d83e c517 abbe 0259 24be
00000380: 9b37 de3c a921 133e 72e4 54be ca59 33be
00000390: 38ae 473d 7f6a 2bbe ea57 363e 76fe 79be
000003a0: 6fa7 42be 3343 25be 3b82 043e 5984 b63e
000003b0: d312 5dbd a1fe a23e cd7a fabd b992 0fbe
000003c0: 63b5 853d 5a54 cc3e 8101 0e3e 5920 c43d
000003d0: 8303 15be 366e 563e 5e72 ae3e 7c4e a43e
000003e0: 395b 6b3e efb2 8e3d 35ce 12be 52b1 9bbe
000003f0: 316f 893e ab22 b93d 0495 c53e ebfc c13e

bias f4 [128]
0.0713329 -0.018642249 0.32895407 -0.2472737 -0.075797014 0.07221488 0.17064115 -0.34685
0.44506705 -0.39925763 0.0454685 0.39707989 -1.9127491e-11 0.19404094 -0.051336534 -0.29459834
-0.29493633 0.31829196 -0.048534777 0.41694912 -0.12595935 0.26576674 0.37097767 0.3579102
0.32735324 -0.11845512 0.31368122 -0.27604213 -0.05773565 -0.22151461 -0.29242373 0.14832899
0.09863828 -0.18160708 -0.043227404 0.29730618 0.3430504 0.27713075 -0.10698718 -0.2375732
0.38617846 0.26839545 -0.38220304 -0.20817079 0.3152985 -0.13240947 0.033549003 -0.4007786
0.044932555 -0.44179815 -0.29909787 -0.18564747 0.0772753 0.16058284 0.3331413 -0.043700345
0.22312693 0.33333737 0.4896244 0.2749791 -0.06731891 -0.23832078 0.24910949 -0.00069091714
-4.9034313e-08 0.27845928 -0.12507235 -0.1153791 -0.14960667 -0.12482851 0.18202357 0.1679628
0.09640075 0.15152073 0.134816 -0.26011863 -0.286823 -0.15019411 0.2063752 0.28963935
0.48758778 0.45745662 -0.36073968 -0.11808036 0.25321072 -0.40614462 0.26938373 0.09813138
-0.31682783 -0.3240229 0.20167252 0.35912323 -0.084702395 0.08885772 0.36695525 -0.17949897
0.11115368 3.9721937e-05 0.39498878 -0.09539898 -0.07480086 -0.25856647 -0.27839565 0.41500166
0.0013582574 0.3294571 0.33660492 -0.3037031 -0.30541372 0.13642429 -0.27833056 -0.20238721
-0.20376961 0.3775043 -0.17064042 -0.0014082579 0.47005993 -0.3558528 -0.17762777 0.09484181
0.3710545 0.3901638 0.33277303 0.16737734 0.3506024 -0.21353619 -0.3192119 0.2297026
00000000: fc16 923d a1b7 98bc ab6c a83e 5135 7dbe
00000010: 773b 9bbd 65e5 933d 8ebc 2e3e 5396 b1be
00000020: d4df e33e 7f6b ccbe 2e3d 3a3d 0e4e cb3e
00000030: 483f a8ad abb2 463e 4246 52bd 98d5 96be
00000040: e501 97be 2af7 a23e 67cc 46bd 5b7a d53e
00000050: 7dfb 00be 9412 883e c9f0 bd3e 0140 b73e
00000060: d89a a73e 9998 f2bd d39a a03e 6555 8dbe
00000070: 387c 6cbd bad4 62be 90b8 95be 8ee3 173e
00000080: de02 ca3d 35f7 39be 380f 31bd 8438 983e
00000090: 4da4 af3e 15e4 8d3e 181c dbbd 6446 73be
000000a0: 2fb9 c53e 216b 893e 1eb0 c3be b92a 55be
000000b0: ce6e a13e 5996 07be ae6a 093d da32 cdbe
000000c0: 330b 383d 5e33 e2be 5b23 99be 5f1a 3ebe
000000d0: 8342 9e3d d46f 243e 7f91 aa3e 22ff 32bd
000000e0: 637b 643e 32ab aa3e 0db0 fa3e 10ca 8c3e
000000f0: 7fde 89bd 5d0a 74be 8f16 7f3e aa1e 35ba
00000100: cc99 52b3 3792 8e3e f712 00be e14b ecbd
00000110: 7e32 19be 17a6 ffbd 6364 3a3e 71fe 2b3e
00000120: c26d c53d 4028 1b3e 350d 0a3e 452e 85be
00000130: 77da 92be 7ccc 19be 0554 533e 9c4b 943e
00000140: 1ba5 f93e c137 ea3e dfb2 b8be 1ed4 f1bd
00000150: d6a4 813e 30f2 cfbe aaec 893e 1bf9 c83d
00000160: 4237 a2be 54e6 a5be 3e83 4e3e 00df b73e
00000170: 7378 adbd 09fb b53d 8fe1 bb3e 94ce 37be
00000180: 8aa4 e33d 1b9b 2638 f83b ca3e 8a60 c3bd
00000190: 3131 99bd d362 84be e089 8ebe 197b d43e
000001a0: 8e07 b23a 9aae a83e 7b57 ac3e f97e 9bbe
000001b0: 305f 9cbe cfb2 0b3e 5881 8ebe 983e 4fbe
000001c0: fba8 50be 3e48 c13e 5dbc 2ebe 4b95 b8ba
000001d0: b2ab f03e 5732 b6be 0ee4 35be 6c3c c23d
000001e0: dbfa bd3e 8dc3 c73e 3a61 aa3e f764 2b3e
000001f0: 2882 b33e 3ba9 5abe be6f a3be 2937 6b3e

weight f4 [128, 128]
-0.05958189 0.008446583 0.029427977 -0.0042754444 0.055200405 -0.05254259 0.07443387 0.029025884
-0.015179944 0.081534676 -0.07375973 0.08572867 -8.596477e-25 0.10173103 -0.07291809 -0.0120534
-0.028676635 0.07546695 -0.009112291 -0.07586978 -0.048103556 0.08716126 -0.059005763 0.030364135
-0.0701977 6.349313e-13 0.04973136 -0.06539894 -0.009056443 -0.011148314 0.035522442 0.073734485
0.020743178 -0.008334289 -0.030022046 0.07388647 0.079875015 0.048766043 0.005531635 0.021437975
-0.015828893 0.02132395 0.0007148963 -3.5839482e-14 0.06245779 0.026321676 -0.07814544 0.01608107
-0.01873429 -0.030944914 -0.007522591 -0.087937795 -0.014264755 0.081730574 0.02981396 0.025056854
0.05265817 0.08843727 0.11409894 0.09102569 0.023632651 0.00024272565 0.06486488 0.009819134
-0.026551532 0.03953968 0.01733017 0.039815035 -0.03633364 -0.0066689234 -0.07199259 -0.06250111
0.043346867 0.07972752 0.033697672 0.006073923 0.045233887 0.006817945 0.044989064 0.041585438
0.053557955 0.03574937 0.094591886 0.05686825 -0.022688612 -0.05250492 0.014616032 -0.06668894
-1.4146357e-07 0.0028501926 0.101001516 0.07487127 -0.076272555 0.03759462 0.09708384 -0.108982265
0.053607184 -0.017559834 0.03425695 -1.6502215e-15 0.043788284 -2.0064885e-09 -0.015694434 0.11879938
-0.1088429 -0.013306029 0.04771201 0.00034061426 0.030868648 0.04506147 -0.013083479 0.029619917
-0.06625317 0.02301127 0.0029536355 0.051744062 0.11589654 0.083336614 -0.08786301 0.04963723
-0.009904162 -0.012492877 -0.054307945 0.09718415 0.070179924 -0.083331674 -2.4076147e-10 0.05279583
-0.06306579 -0.00031536998 -0.056458365 -0.016935425 0.046485282 -0.036785252 -0.05369168 0.00090287667
0.004559082 -0.11498012 0.022103556 -0.00023343498 1.41702385e-05 -0.12246139 -0.0034147033 -0.059245456
-0.026874881 0.004074657 0.05339965 -0.034906056 -0.05081642 0.050220065 -0.08176605 0.052676745
0.034103666 4.9948494e-06 0.03217343 -0.03784291 0.06595099 -0.069760025 -0.08470089 0.03490219
0.042924084 -0.015967093 0.02141082 0.021655867 0.06936309 0.053563267 -0.0030931584 7.676837e-20
-0.07708262 -0.032028448 -0.07813331 -4.2250478e-10 -0.12378539 0.017463244 -0.035294488 -0.06418324
-0.11403794 0.03114188 0.024450896 0.04285879 -0.05040206 0.03947244 -0.046426192 1.5799865e-13
0.041160356 0.063517675 -0.091593415 -0.044222694 0.07650875 -0.0014694496 0.04843737 -0.0013412235
-0.00029225135 -0.006581623 0.028853543 0.0742716 0.07958049 3.1738093e-17 0.07751917 0.042761646
-0.01544242 0.026727667 -0.10076081 -0.020465633 0.08038425 -0.050172873 0.08767849 -0.06326653
-0.095483266 -0.09081341 0.015993116 0.008092857 0.0009508229 -0.0029545957 0.0154274525 0.029923074
-0.0069679962 -0.06044034 0.019551894 0.017529337 0.078797765 0.09004605 -0.07125383 -0.058502212
-0.036107324 3.521152e-18 0.09033941 -0.03276474 0.0002912442 9.024722e-18 0.011877597 -0.03965266
-0.025918618 0.026307322 -0.061612006 7.291942e-06 -0.07974216 0.068123184 -0.010142981 0.078486525
-0.04935352 -0.087940484 0.06816084 -0.002490813 -0.11290824 -0.040322445 0.04205197 0.07352091
0.085817754 0.06644448 0.0058406857 -0.12221174 0.05916408 0.058952153 -0.01797475 -0.0055559203
00000000: 240c 74bd 8963 0a3c f112 f13c 0719 8cbb
00000010: d219 623d e636 57bd c970 983d b1c7 ed3c
00000020: 4db5 78bc a7fb a63d 570f 97bd 8392 af3d
00000030: 2706 8597 5c58 d03d 1456 95bd a07b 45bc
00000040: 43eb eabc 6b8e 9a3d b84b 15bc 9d61 9bbd
00000050: 3c08 45bd 9a81 b23d 07b0 71bd 35be f83c
00000060: d0c3 8fbd 9fb7 322b 1cb3 4b3d e1ef 85bd
00000070: 7a61 14bc 6ba7 36bc fb7f 113d 1b02 973d
00000080: 99ed a93c 8b8c 08bc cbf0 f5bc ca51 973d
00000090: 8395 a33d e7be 473d b842 b53b b19e af3c
000000a0: 98ab 81bc 90af ae3c e167 3b3a 1c68 21a9
000000b0: bdd3 7f3d 8ea0 d73c b70a a0bd 73bc 833c
000000c0: a778 99bc 3080 fdbc 1180 f6bb bb18 b4bd
000000d0: b8b6 69bc 5c62 a73d 683c f43c 0844 cd3c
000000e0: 18b0 573d 991e b53d b4ac e93d ad6b ba3d
000000f0: 4399 c13c 2c84 7e39 e1d7 843d 6fe0 203c
00000100: 9982 d9bc 5cf4 213d 00f8 8d3c 1715 233d
00000110: 95d2 14bd fc86 dabb da70 93bd 9500 80bd
00000120: 7c8c 313d 2f48 a33d 9206 0a3d c207 c73b
00000130: 2b47 393d 1169 df3b 7446 383d 7e55 2a3d
00000140: 965f 5b3d ee6d 123d 64b9 c13d afee 683d
00000150: 78dd b9bc 660f 57bd 1578 6f3c 3694 88bd
00000160: 36e5 17b4 4cca 3a3b e2d9 ce3d 1c56 993d
00000170: c934 9cbd d1fc 193d e4d3 c63d 1832 dfbd
00000180: 3593 5b3d a4d9 8fbc 0451 0c3d 6dd2 eda6
00000190: 585b 333d 85e2 09b1 9d91 80bc 174d f33d
000001a0: 07e9 debd 8801 5abc ab6d 433d 7994 b239
000001b0: 3fe0 fc3c 6092 383d 175c 56bc 78a5 f23c
000001c0: beaf 87bd 2282 bc3c c891 413b 95f1 533d
000001d0: 2a5b ed3d 63ac aa3d 86f1 b3bd 6850 4b3d
000001e0: 1145 22bc edae 4cbc 0272 5ebd 7c08 c73d
000001f0: 7eba 8f3d cca9 aabd 2a5c 84af 7140 583d
00000200: a328 81bd 3e58 a5b9 e340 67bd 29bc 8abc
00000210: 5a67 3e3d 22ac 16bd cfeb 5bbd 07af 6c3a
00000220: 5a64 953b b27a ebbd 8412 b53c 3ac6 74b9
00000230: b6bc 6d37 0acd fabd 37c9 5fbb 5dab 72bd
00000240: b628 dcbc b384 853b 97b9 5a3d a7f9 0ebd
00000250: e124 50bd 8eb3 4d3d f574 a7bd 92c3 573d
00000260: 49b0 0b3d 6e99 a736 49c8 033d 2b01 1bbd
00000270: 5011 873d 58de 8ebd a977 adbd 99f5 0e3d
00000280: 2ad1 2f3d 6ccd 82bc be65 af3c a567 b13c
00000290: 3c0e 8e3d 2865 5b3d 96b6 4abb a243 b51f
000002a0: 7edd 9dbd 4330 03bd 5b04 a0bd 4346 e8af
000002b0: 3283 fdbd 140f 8f3c f490 10bd 8172 83bd
000002c0: b98c e9bd 421d ff3c 3f4d c83c b38c 2f3d
000002d0: 6472 4ebd daad 213d 6429 3ebd 03e4 312a
000002e0: c397 283d 8e15 823d 5495 bbbd db22 35bd
000002f0: 9fb0 9c3d 8c9a c0ba 4466 463d fecb afba
00000300: 5039 99b9 a8aa d7bb 445e ec3c b51b 983d
00000310: 19fb a23d ba5d 1224 5fc2 9e3d d626 2f3d
00000320: 3402 7dbc fbf3 da3c af5b cebd 8ba7 a7bc
00000330: 7fa0 a43d 1282 4dbd c890 b33d e291 81bd
00000340: bb8c c3bd 62fc b9bd ff03 833c e797 043c
00000350: a540 793a e4a1 41bb 6dc3 7c3c 3c21 f53c
00000360: ca53 e4bb 4a90 77bd 4b2b a03c af99 8f3c
00000370: b960 a13d 106a b83d 87ed 91bd 04a0 6fbd
00000380: 46e5 13bd 57e8 8122 de03 b93d 5234 06bd
00000390: 23b2 9839 0b7a 2623 419a 423c d46a 22bd
000003a0: 4853 d4bc 7482 d73c df5c 7cbd 4ead f436
000003b0: dc4f a3bd 2b84 8b3d bf2e 26bc 8bbd a03d
000003c0: eb26 4abd 241a b4bd e997 8b3d e83c 23bb
000003d0: 6f3c e7bd 2629 25bd b03e 2c3d 2292 963d
000003e0: 38c1 af3d 0b14 883d 3963 bf3b 264a fabd
000003f0: 0956 723d d077 713d c83f 93bc 700e b6bb

bias f4 [128]
-0.057398383 0.056429215 0.05085615 -0.005353343 0.010409167 0.0686083 -0.021315938 0.10960958
0.021074533 0.09030145 -0.061010852 -0.038673673 -0.009071634 0.11338692 -0.004177726 -0.013743145
-0.041107796 -0.030999865 -0.068763584 0.06539744 0.04618099 0.022652088 -0.06494604 0.0183825
-0.030934371 0.05627688 0.036282387 -0.06898191 -0.079169184 0.020687046 0.08969148 -0.004761421
-0.029459456 0.091238596 0.0010027824 0.10665175 -0.0069780345 0.0672454 0.072967276 0.02032878
0.04084344 0.025675591 -0.052656606 0.08468628 -0.04030297 0.04672978 -0.05089246 -0.049098387
0.07410178 0.03619257 0.06700161 -0.009963058 0.004725464 -0.014985242 0.08702573 -0.0033835783
-0.02982456 0.056432545 0.057443086 0.013684057 0.06050905 -0.08232874 0.045687053 0.038100656
-0.00015038217 -0.03801123 -0.043398548 0.012957639 0.08762936 0.08017733 0.027755756 0.049386546
0.027986825 0.10412203 -0.055922125 -0.043917626 0.01607859 0.03256594 0.030670574 -0.054544706
-0.009518382 -0.0676786 0.054182954 0.017432468 0.0047123777 -0.050714914 -0.027846605 0.073775955
-0.06460588 0.08066103 -0.023420656 0.047293626 -0.04101435 -0.04293071 -0.0034252722 -0.020221237
0.1109122 -0.019955723 0.090105034 0.0011370343 0.023388742 -0.005697316 -0.07174239 0.08231381
0.07292827 0.04793331 0.048423715 0.06335144 -0.012000116 0.0122885145 0.03858135 -0.073467106
0.037158668 -0.0032662374 -0.017676685 -0.019432219 -0.027976079 0.078307725 -0.026816307 0.024148805
0.05971748 0.04129426 0.02058861 -0.07437669 0.03996464 0.102326915 0.09143377 0.010415134
00000000: 911a 6bbd 5222 673d 8a4e 503d 196b afbb
00000010: 368b 2a3c 8282 8c3d c39e aebc fd7a e03d
00000020: 80a4 ac3c f7ef b83d 84e6 79bd 4968 1ebd
00000030: 31a1 14bc 6737 e83d 4ee5 88bb ee2a 61bc
00000040: a660 28bd 6ef3 fdbc ecd3 8cbd 18ef 853d
00000050: 4728 3d3d df90 b93c 6e02 85bd e696 963c
00000060: 146a fdbc 9682 663d d79c 143d 6346 8dbd
00000070: 7423 a2bd e177 a93c 2bb0 b73d b205 9cbb
00000080: f554 f1bc 4ddb ba3d cb6f 833a 3c6c da3d
00000090: ffa7 e4bb f5b7 893d de6f 953d 8b88 a63c
000000a0: 734b 273d 9e55 d23c 74ae 57bd 0070 ad3d
000000b0: ba14 25bd ba67 3f3d 9d74 50bd 641b 49bd
000000c0: adc2 973d a93e 143d 2438 893d 183c 23bc
000000d0: 11d8 9a3b a984 75bc 8c3a b23d 06bf 5dbb
000000e0: a352 f4bc d025 673d 7149 6b3d 1833 603c
000000f0: 56d8 773d f89b a8bd 5922 3b3d 6f0f 1c3d
00000100: e8af 1db9 aab1 1bbd adc2 31bd 474c 543c
00000110: 0677 b33d 0334 a43d 0a60 e33c 8c49 4a3d
00000120: a044 e53c ee3d d53d 990e 65bd f8e2 33bd
00000130: 3fb7 833c dd63 053d db40 fb3c 456a 5fbd
00000140: fdf2 1bbc 149b 8abd f2ee 5d3d 89ce 8e3c
00000150: 4a6a 9a3b 71ba 4fbd 901e e4bc d917 973d
00000160: 1650 84bd 9c31 a53d addc bfbc f6b6 413d
00000170: aafe 27bd 1dd8 2fbd 887a 60bb 02a7 a5bc
00000180: ef25 e33d 2f7a a3bc fd88 b83d 8a08 953a
00000190: bf99 bf3c 8db0 babb aded 92bd 2594 a83d
000001a0: 6b5b 953d b855 443d f257 463d 66be 813d
000001b0: 229c 44bc c455 493c 7a07 1e3d ec75 96bd
000001c0: b033 183d 5f0e 56bb b2ce 90bc 5130 9fbc
000001d0: 172e e5bc cd5f a03d dfad dbbc b7d3 c53c
000001e0: 519a 743d 2c24 293d 72a9 a83c ce52 98bd
000001f0: f6b1 233d c690 d13d a141 bb3d 3da4 2a3c

weight f4 [2, 128]
-0.007894784 0.09783877 0.008217991 0.079193346 0.07462794 0.108709835 0.07011837 -0.05409771
0.04888467 0.09306158 -0.086766995 0.018027628 -0.012746156 -0.10766965 0.06093609 0.056256805
-0.032062802 0.10810321 -0.049444027 -0.0782659 0.003022574 -0.08188509 -0.058322255 -0.10930966
-0.019991223 0.04098854 -0.101778254 0.06648871 0.082699545 0.057927195 -0.0902235 0.09005046
0.0004352044 -0.09136819 -0.036714494 -0.08388398 -0.10169568 -0.11059424 -0.119489856 0.006622353
-0.10767687 -0.032500528 0.08250244 -0.099389225 0.04150809 0.008793974 -0.054505344 0.05120132
0.063652046 0.0317507 0.049228065 0.07717861 -0.019397534 0.08757989 -0.06679026 0.10666092
0.046578515 -0.08834654 0.02729502 0.0575986 -0.01915164 -0.080040656 0.03390449 0.010645451
-0.00044638207 0.062803425 0.018368894 0.06924518 -0.069251314 0.02451082 -0.037597865 -0.027141336
-0.06668674 -0.104435824 0.051331267 -0.022975607 0.002401635 0.054958127 -0.059103508 -0.046029054
-0.059618235 0.046436403 0.09754383 -0.039402492 -0.042352542 0.034760203 -0.046918843 0.06755587
0.040279258 0.09730077 0.07796371 -0.10710197 -0.031920332 0.023838017 0.05790279 0.04500469
-0.04211771 0.009790201 0.07474324 0.020504449 0.06948961 0.10262098 0.058404163 0.018791499
-0.051821973 0.04542912 0.08561564 -0.09997408 0.106731884 0.025755338 0.09588504 0.039606582
0.015970133 -0.048899345 0.006294802 0.04424367 -0.13712813 0.040021285 0.08589469 -0.104460336
-0.09675808 0.0360374 0.06730022 -0.03130678 0.02692102 -0.13653383 0.028494103 0.007990168
-0.07727345 0.09314665 0.07253747 -0.007992956 -0.073252685 0.024689034 0.03941748 -0.10764644
-0.022395922 0.07252932 0.03509131 0.06795632 0.039794814 0.0038626469 -0.01285846 -0.03767504
-0.11343317 -0.062335126 -0.051141113 -0.00052933645 0.1077407 -0.08664266 -0.036296796 -0.08275378
0.03051422 -0.01940815 -0.026103923 0.055594265 0.021997998 0.02988146 -0.0452493 0.092216164
-0.10605589 -0.00406791 0.011487983 -0.11319164 0.0335054 -0.053421114 -0.08514071 0.036760498
-0.10592125 -0.045524836 -0.042374987 0.0031770144 -0.042145986 0.059020035 -0.041771613 0.0928417
0.09464553 0.07075832 -0.03362348 0.05377958 -0.017189315 0.079053424 -0.063670434 0.03884022
-0.06733893 -0.081183195 0.0561229 -0.04001491 0.012081062 0.028601611 0.018503597 -0.074845195
-0.00062931364 0.052594673 0.0920364 -0.070787825 -0.06896715 0.046954565 -0.105623744 -0.01676822
-0.13513182 -0.055011462 0.07444049 -0.027701963 0.048269782 -0.07458342 -0.06097304 0.01870108
-0.07091173 -0.050571658 -0.008775836 -0.1297669 0.069147594 -0.031829685 -0.07100648 -0.051967572
0.10594626 -0.048505224 -0.058312334 0.034326766 -0.070581205 -0.06636927 -0.027897626 0.041816
-0.05552777 0.026961163 -0.07323471 0.055405173 0.042908974 -0.00086526375 0.005421669 0.0012717654
-0.043671567 0.022528859 0.06783196 -0.09174099 0.054871798 9.4158495e-05 -0.026603047 -0.003057111
0.06350108 -0.005647169 0.020932246 0.0010119225 -0.012796036 0.07682322 0.050302375 -0.08413292
-0.0825154 0.053061433 0.08066667 0.031995837 0.071782485 -0.09373133 -0.049603198 -0.038191907
00000000: 2059 01bc b15f c83d c1a4 063c 1f30 a23d
00000010: 89d6 983d 43a3 de3d 389a 8f3d 8f95 5dbd
00000020: 4b3b 483d 1297 be3d e5b2 b1bd adae 933c
00000030: 41d5 50bc e881 dcbd 1f98 793d 896d 663d
00000040: 4954 03bd 3765 dd3d d285 4abd df49 a0bd
00000050: 6016 463b 5fb3 a7bd 51e3 6ebd bedd dfbd
00000060: a2c4 a3bc 99e3 273d 1e71 d0bd 3c2b 883d
00000070: 615e a93d 1145 6d3d 19c7 b8bd 606c b83d
00000080: 252c e439 3f1f bbbd f061 16bd 5dcb abbd
00000090: d345 d0bd 3c7f e2bd 19b7 f4bd 5300 d93b
000000a0: b185 dcbd 461f 05bd 0af7 a83d 948c cbbd
000000b0: 6304 2a3d 9a14 103c ff40 5fbd 7ab8 513d
000000c0: 015c 823d 060d 023d 5ea3 493d d20f 9e3d
000000d0: 94e7 9ebc 165d b33d 55c9 88bd 0a71 da3d
000000e0: 1dc9 3e3d 08ef b4bd ce99 df3c 82ec 6b3d
000000f0: e6e3 9cbc 5bec a3bd 6fdf 0a3d 426a 2e3c
00000100: 6308 eab9 159f 803d 5d7a 963c 6bd0 8d3d
00000110: a2d3 8dbd eaca c83c 3800 1abd 8257 debc
00000120: 0f93 88bd 73e2 d5bd bc40 523d 5737 bcbc
00000130: c064 1d3b c61b 613d 8516 72bd f688 3cbd
00000140: 4032 74bd 1934 3e3d 0fc5 c73d 8264 21bd
00000150: dc79 2dbd b760 0e3d f92d 40bd bb5a 8a3d
00000160: ddfb 243d a045 c73d 70ab 9f3d 4758 dbbd
00000170: e5be 02bd f247 c33c 7a2b 6d3d d656 383d
00000180: 9f83 2cbd 1467 203c fc12 993d f2f8 a73c
00000190: 9250 8e3d f32a d23d 3439 6f3d a1f0 993c
000001a0: 4743 54bd e313 3a3d 4157 af3d 36bf ccbd
000001b0: 3f96 da3d dcfc d23c 605f c43d 833a 223d
000001c0: ccd3 823c ae4a 48bd a044 ce3b da38 353d
000001d0: 516b 0cbe 5ced 233d 8ee9 af3d 4def d5bd
000001e0: 1a29 c6bd f49b 133d b3d4 893d 8a3b 00bd
000001f0: 7989 dc3c 86cf 0bbe 776c e93c 32e9 023c
00000200: 8b41 9ebd acc3 be3d 868e 943d e3f4 02bc
00000210: 8105 96bd a840 ca3c 3974 213d bd75 dcbd
00000220: a777 b7bc 418a 943d e8bb 0f3d af2c 8b3d
00000230: e3ff 223d 7624 7d3b 4aac 52bc 2551 1abd
00000240: a64f e8bd 1e53 7fbd 5879 51bd 2bc3 0aba
00000250: 28a7 dc3d b571 b1bd f3ab 14bd d07a a9bd
00000260: f5f8 f93c d7fd 9ebc e5d7 d5bc d0b6 633d
00000270: 2535 b43c f7c9 f43c 5457 39bd d4db bc3d
00000280: d533 d9bd 1a4c 85bb 1838 3c3c 05d1 e7bd
00000290: f53c 093d 19d0 5abd 415e aebd 2d92 163d
000002a0: 3eed d8bd 4078 3abd 6591 2dbd 7535 503b
000002b0: 45a1 2cbd febe 713d b618 2bbd ca23 be3d
000002c0: 84d5 c13d bde9 903d c6b8 09bd fa47 5c3d
000002d0: 9bd0 8cbc c3e6 a13d a565 82bd ec16 1f3d
000002e0: fee8 89bd 6043 a6bd 20e1 653d ade6 23bd
000002f0: a6ef 453c ed4d ea3c db94 973c 7048 99bd
00000300: 86f8 24ba 836d 573d 957d bc3d 35f9 90bd
00000310: a63e 8dbd 6e53 403d 4351 d8bd 825d 89bc
00000320: ff5f 0abe b353 61bd 4174 983d 3aef e2bc
00000330: 89b6 453d 31bf 98bd debe 79bd 0233 993c
00000340: 2b3a 91bd 3a24 4fbd 86c8 0fbc 9de1 04be
00000350: 419d 8d3d d85f 02bd d86b 91bd f3db 54bd
00000360: 5afa d83d 6aad 46bd ead8 6ebd 399a 0c3d
00000370: e18c 90bd 9dec 87bd 9089 e4bc 4147 2b3d
00000380: 1671 63bd a8dd dc3c 14fc 95bd 89f0 623d
00000390: 52c1 2f3d ded2 62ba 42a8 b13b 5eb1 a63a
000003a0: f5e0 32bd 718e b83c 7ceb 8a3d b3e2 bbbd
000003b0: 40c1 603d f576 c538 a2ee d9bc d059 48bb
000003c0: db0c 823d e30b b9bb 1a7a ab3c 7ca2 843a
000003d0: 77a6 51bc 7e55 9d3d dd09 4e3d e14d acbd
000003e0: d6fd a8bd f256 593d 9134 a53d 110e 033d
000003f0: b202 933d 36f6 bfbd b92c 4bbd 1e6f 1cbd

bias f4 [2]
0.0015828056 0.023842625
00000000: 2576 cf3a 9c51 c33c
