c220g2_bips_wdram.pt (torch, 88266 bytes, 6 tensors)

weight f4 [128, 5]
000000 27 42 87 bd 52 48 98 be 44 4c 53 3e 69 88 ca 3c
       -0.066044144 -0.29742676 0.20634562 0.024723249
000010 8e 25 88 bd 50 3e c7 bd e9 49 de 3c 20 6c 66 3e
       -0.06647788 -0.09728682 0.027134852 0.22502184
000020 83 c2 00 00 e3 41 8a af 19 bd 9a 3e 9e e8 54 bd
       6.9778e-41 -2.514887e-10 0.30222395 -0.051979654
000030 73 f8 09 be 4b 82 d4 3e c8 e2 c1 be 21 1c 91 be
       -0.13473682 0.41505656 -0.37868333 -0.28341773
000040 84 92 51 3b 30 9d b9 bb 20 59 64 be bb e4 1d be
       0.00319782 -0.00566449 -0.22299623 -0.15419285
000050 3a ad c1 be 0a c5 67 be 34 62 fd be ba 73 ff be
       -0.37827474 -0.22633758 -0.49488986 -0.4989298
000060 3b 11 b2 3e e6 f8 a2 3e df 63 73 be ef 78 bd 3e
       0.3477877 0.3183052 -0.23768567 0.37006328
000070 a3 26 a2 be b0 f3 81 3e d0 96 4d be 3b 68 c9 3d
       -0.31670102 0.2538123 -0.20077062 0.098343335
000080 dd dd b8 be c3 b1 62 bd 4b 6b 39 bd 1f d1 b8 be
       -0.36106768 -0.055345308 -0.04526834 -0.36097047
000090 7e de 75 3b d6 da a4 3d 19 32 59 3e 0f 54 de 3e
       0.003751665 0.08049552 0.21210517 0.43423507
0000a0 36 4b 30 3e ef 46 ef be 64 41 a1 be d2 b8 f9 be
       0.1721619 -0.46733806 -0.31495202 -0.4877382
0000b0 33 f1 cf 3e 3e d5 06 3e 44 e7 80 3e 81 0b b1 bd
       0.40613708 0.13167283 0.25176442 -0.08644772
0000c0 5b 39 da 3e 3e da ee be 49 74 9c be 14 36 ad 3e
       0.42621884 -0.4665088 -0.3055747 0.3383032
0000d0 c9 6e 78 3e 8a db 41 be b9 c0 ef 3d 6f e7 39 3e
       0.24261011 -0.18931404 0.11706681 0.18154691
0000e0 25 9e ef be 0d 9b bc 3e 89 ed 84 be 42 ec 82 bd
       -0.46800342 0.36837044 -0.25962475 -0.06392719
0000f0 0e 6f 0b 3e 76 e2 ec 3d 18 80 94 3e 7a 38 a0 3d
       0.13616583 0.115666315 0.29003978 0.07823272
000100 ed f7 bf 3e 84 f7 95 3e cd ab ae 3d 0d 4a c5 3e
       0.3749384 0.29290402 0.08528862 0.3853306
000110 68 6e 5a be 0a 91 9f bd b9 99 88 be 7c 11 ab bd
       -0.21331179 -0.07791336 -0.2667978 -0.08352944
000120 ee 5e b4 3e 88 e8 90 be 4a b3 5d 3e 79 d6 cb bd
       0.35228676 -0.28302407 0.21650425 -0.09953017
000130 0e 28 ee 3d bb 43 39 3e 89 8f af be 3e 09 a4 3e
       0.116287336 0.18092243 -0.34289196 0.320383
000140 09 69 e6 bd 48 4b 59 be dd f1 b2 37 5c 0f 92 3d
       -0.112505026 -0.21220124 2.133188e-05 0.07131836
000150 08 87 03 be a1 f7 ed bd 16 d4 72 be 96 2f 31 3e
       -0.12844479 -0.11619497 -0.23713717 0.17303309
000160 0d 19 35 be cf 03 85 3e 3c c9 e9 3e f7 bd c5 3e
       -0.17685337 0.25979468 0.45661342 0.38621494
000170 f3 55 34 3e b8 86 8b bd 82 5c 6e 3e f0 64 4b 3e
       0.17610912 -0.06812805 0.23277476 0.19862723
000180 00 1f 75 3e 04 e1 81 3d 80 b0 45 3e f1 78 81 be
       0.23937607 0.063417464 0.1930561 -0.25287583
000190 67 9c 43 3d 68 37 2c be dd 86 0f 3d a1 05 02 3e
       0.04775658 -0.16818011 0.035040725 0.1269746
0001a0 95 d4 8f be 4a 5a 78 3e d4 dd 9d be b5 0b 73 bd
       -0.28091875 0.24253193 -0.30833304 -0.059337337
0001b0 62 97 f0 be 61 fa 7b 3e a4 05 a9 3d f4 54 f8 3c
       -0.46990496 0.2460723 0.08253029 0.030313946
0001c0 76 f5 09 3e 84 95 fc bd 52 e1 3a be 64 61 7e 3e
       0.13472542 -0.12333205 -0.18250015 0.24841839
0001d0 3a 91 c5 bd 4c 7b 79 be 2a c7 b1 be 01 97 b0 be
       -0.096468404 -0.2436344 -0.34722263 -0.34490207
0001e0 ac 7e a3 be 0e 6f 2b bb d4 16 58 3d a2 75 94 3e
       -0.3193258 -0.0026158723 0.052756146 0.28995997
0001f0 e0 d0 75 be 8d 9d a1 3e 2b c0 e3 be be af 86 3e
       -0.2400546 0.31565514 -0.4448255 0.26305956
000200 72 e2 8d be 5f 48 af 3e b2 40 96 be d4 38 b2 bd
       -0.27711827 0.34234902 -0.29346234 -0.08702245
000210 3f 10 a0 3d 0e 8e 81 3b 84 06 53 3e 42 24 02 be
       0.07815599 0.003953702 0.20607954 -0.12709144
000220 3d 53 3f bd e4 62 49 3e d8 04 68 be c0 1f d6 3e
       -0.04671024 0.1966663 -0.22658098 0.41821098
000230 3c de 79 3e cb 0f f0 3e 93 a7 96 be de b8 58 3e
       0.24401182 0.4688705 -0.29424724 0.21164271
000240 49 15 6c 3e b5 91 cf be 23 5e 7a 3e a3 59 b9 be
       0.23054995 -0.40540853 0.24449973 -0.362012
000250 8f a1 d9 be dc 75 88 3e 41 2f 7b bd 82 3b 49 be
       -0.42506072 0.2665242 -0.06132436 -0.19651607
000260 74 65 1a 3e 86 02 17 be be 36 38 be c9 91 b7 3e
       0.15077764 -0.14747056 -0.17989632 0.35853413
000270 4e b2 f9 be a0 3b 87 be ba ce c9 be 08 c3 d7 bd
       -0.48768848 -0.26412678 -0.39415532 -0.10535246
000280 91 5b be 3e 60 96 05 3e 6a 20 5a be f4 25 b9 3c
       0.37179235 0.13045645 -0.21301427 0.022601105
000290 f8 99 4b bb ae 38 f4 3a 0d 71 ce 3e b6 dc cd 3e
       -0.0031067114 0.0018632615 0.40320626 0.40207452
0002a0 65 d3 28 be c6 a8 5a 3d 5d af d9 3d 3b c8 f4 be
       -0.1648689 0.05338361 0.10629151 -0.47809014
0002b0 f7 c3 df be e3 69 1e be b1 6d 51 3e 5a 77 81 20
       -0.43704197 -0.1547008 0.20452 2.193243e-19
0002c0 86 a6 82 3e ec f1 b3 3c a5 68 31 bc 99 cd 9e be
       0.25517672 0.021965943 -0.010828172 -0.31016234
0002d0 24 e0 1a 3d d9 c3 91 3e c0 38 04 3d ed 0f 48 3c
       0.037811413 0.28469732 0.032280684 0.012210828
0002e0 84 ba b6 be ae 23 e1 3e 72 69 12 be f5 27 9e 3d
       -0.35689175 0.43972534 -0.14298037 0.07722465
0002f0 ce 15 ca be f9 02 66 be 9b d7 96 be dd cd ab be
       -0.3946976 -0.22462071 -0.2946137 -0.335555
000300 28 38 0a bd 7d 74 94 3e ff 55 c2 be 81 e8 d3 3d
       -0.03374496 0.28995124 -0.37956235 0.10347081
000310 89 87 36 be ec 79 ab be 7a c3 64 be ac 41 51 bd
       -0.1782514 -0.33491457 -0.22340193 -0.05108802
000320 62 6a 91 3e da 51 c5 be f5 20 05 be c3 a1 ea bd
       0.28401476 -0.3853901 -0.13000853 -0.11456635
000330 a8 80 95 3e 6e 0a 53 3e 3f 19 af 3e c7 b2 8b bd
       0.2919972 0.20609447 0.3419895 -0.068212084
000340 3d 11 2f be 8f 74 ca 3c 6d 23 90 3e 94 fa 6e 3d
       -0.1709642 0.024713783 0.28152028 0.05834444
000350 23 37 24 be 4d af 51 3e da c9 b7 3e 6c 62 05 be
       -0.16036658 0.20477028 0.35896188 -0.13025826
000360 34 b8 91 be a4 fb 6d 3e 92 74 9f be ee 2b db bd
       -0.28460848 0.23240525 -0.31143624 -0.10701738
000370 f7 68 48 3e d8 03 b1 be 94 dd 9b be db 7d e7 3d
       0.19571291 -0.34573245 -0.30442488 0.11303302
000380 bd 2a 73 3e c8 29 5a be 53 3d bc 3e ce b4 83 3e
       0.23746772 -0.21305001 0.36765537 0.2572388
000390 73 0c e6 bd 12 7d d3 3d 33 8e 93 be 3a 0a 18 be
       -0.11232843 0.1032659 -0.28819427 -0.14847651
0003a0 74 6b 24 3e e2 53 5d 3c a1 f0 2c be 34 79 8f 3e
       0.16056615 0.013508769 -0.16888668 0.28022158
0003b0 3b 5b 45 be 65 9b 8f bd 36 8a 8c 3e 4a f9 a6 3e
       -0.19273083 -0.07012061 0.27449197 0.32612067
0003c0 c5 ed 3f 3e 78 97 24 be ad 5b 41 3e 85 d5 b5 be
       0.18743046 -0.16073406 0.18882628 -0.35514465
0003d0 f3 23 9f 3e 8e 38 02 3e 6f b2 bb 3e e1 dc 8d be
       0.31082115 0.12716886 0.36659572 -0.2770758
0003e0 ad c1 5d 3c 81 28 7e 3e 78 b7 af be 24 27 72 3d
       0.013534945 0.24820139 -0.34319663 0.05911936
0003f0 63 de 36 bd 2d 61 94 3e 59 9d 98 be 42 22 b6 3e
       -0.04464568 0.2898039 -0.29807547 0.35573012

bias f4 [128]
000000 1d 24 1c 3e 8e c6 0c be 27 33 ed 3e fc 3f 0f be
       0.15248151 -0.13747618 0.4632809 -0.13989252
000010 eb 5d 0c be d7 80 b9 3e 06 c6 c9 3e d7 ce c2 be
       -0.13707702 0.3623111 0.39408892 -0.3804843
000020 42 ce cf bc e7 66 7c 3e 5f 76 18 bd 6f 49 5a 3e
       -0.025366906 0.24648629 -0.037222262 0.21317075
000030 2a 48 68 3e 83 b5 00 be 33 ac e9 be bc e5 6f 3d
       0.22683778 -0.12569241 -0.4563919 0.0585687
000040 ed 73 36 a6 0e 13 59 bd 4d 1e 42 be f1 be 3a be
       -6.3301043e-16 -0.052996688 -0.18956871 -0.18236901
000050 be a0 0c 3e fc 20 a6 3e fd 29 64 bc 53 fc d2 3e
       0.13733193 0.3244704 -0.013926026 0.41208133
000060 b0 22 14 3e f2 3a 1b be 88 2c 83 bd bd dd 54 be
       0.14466357 -0.15159205 -0.06404978 -0.20787711
000070 bb 1d e6 be 8d 1e c2 3e fb 73 a1 be e6 e4 88 3d
       -0.44944558 0.37913933 -0.315338 0.06684284
000080 2d d0 7c 3e 40 12 32 bd ba 59 68 bc d8 96 9b be
       0.24688788 -0.043474436 -0.014181549 -0.30388522
000090 5f 6c 34 3e fc 15 6b 3d 0b c6 e3 3e f8 2a 65 3e
       0.17619465 0.057394013 0.44487032 0.22379673
0000a0 b6 e1 89 be af 33 d4 be da b2 f6 3d 57 6f c8 3e
       -0.26930016 -0.4144568 0.12045832 0.39147446
0000b0 c3 5d ab 3e c2 23 b2 3e be 67 5a 3e 08 60 9c be
       0.33469972 0.34792906 0.21328637 -0.30542016
0000c0 76 77 aa be 3d 08 91 3e 64 c7 df 3e db c8 d5 3d
       -0.33294266 0.28326598 0.4370681 0.10438701
0000d0 a4 d1 dd b2 58 f6 be be c2 8c 61 3e 52 f4 90 3e
       -2.582312e-08 -0.3729732 0.22026351 0.28311402
0000e0 6d d9 57 3e 02 2d eb 3e 39 29 aa be 53 7b 36 be
       0.21079035 0.45932776 -0.33234575 -0.17820482
0000f0 37 7e e9 3e dc 25 d3 be 9c 36 44 be 8d 07 c9 3e
       0.45604107 -0.41239822 -0.19161457 0.39263573
000100 dd 9d bf 3e 65 b7 84 3c ea be 86 3e b4 c6 e9 38
       0.37425128 0.01620073 0.2631753 0.00011147317
000110 73 ac 6c 3e 2a a2 cb be b5 9d f5 3b 20 f0 01 be
       0.23112659 -0.3977216 0.007495607 -0.12689257
000120 d5 ae 76 bd 21 28 fe be fe 89 d2 3e 38 52 15 3e
       -0.060225327 -0.4963999 0.41120905 0.14582145
000130 1e 62 77 3e 77 8b d1 3e e9 f5 5a 3e 94 0a 00 3c
       0.24158522 0.40926716 0.2138287 0.007815022
000140 29 1f 74 bd db d8 99 3e 84 ca ac 3d df 86 0b 3e
       -0.05960003 0.3004826 0.08437064 0.13625668
000150 69 1e ae 3e 35 f4 36 be 0c 18 8f 3d 76 d0 3b bd
       0.34007576 -0.17866595 0.069870085 -0.0458531
000160 fa 19 71 3e b4 9f a7 be c1 c4 c5 be cf 9f dd 3e
       0.23545066 -0.3273903 -0.38626674 0.43285987
000170 6e 39 00 be 1c 0d 2b 3e 11 f7 cf be 07 62 e7 3e
       -0.12521908 0.1670422 -0.40618184 0.45191976
000180 ab 14 24 be da 4d a3 3e 8b 63 d5 3e 06 0e e3 bd
       -0.16023509 0.31895334 0.41677508 -0.11086659
000190 1a a7 fb 3e 67 93 c9 3e e8 45 6c be ff 29 3d 3e
       0.49150926 0.39370272 -0.23073542 0.18473051
0001a0 6e 8d a5 3e ea 18 d3 bd aa ee b2 be 6b 0c 13 3e
       0.32334465 -0.10307486 -0.3494771 0.14360206
0001b0 64 1d 1a be 5c 53 37 3e 7b ca af bd ed a8 c1 bd
       -0.15050274 0.17902893 -0.08583542 -0.09456048
0001c0 25 40 00 3f ce c0 1f 3e 9a b6 4c 3e 02 26 9b be
       0.50097877 0.15600893 0.19991532 -0.30302435
0001d0 c8 f9 6c bb 04 d6 69 be 06 57 ca 3e 4a d3 0a b3
       -0.0036159623 -0.22835547 0.3951952 -3.2322795e-08
0001e0 78 78 80 3e 91 bd 11 be 54 c8 8d 3e 32 62 c5 3e
       0.2509191 -0.1423247 0.276919 0.3855148
0001f0 0b 33 01 3f 7c c5 e4 3e 7a a8 db 3d bf f0 93 be
       0.5046851 0.4468192 0.10725494 -0.28894612

weight f4 [128, 128]
000000 47 9c 01 3d ed b5 00 00 60 eb 25 bd 61 1f 67 b2
       0.03164318 6.5263e-41 -0.040507674 -1.3453104e-08
000010 81 45 3a bd ec 5e ac 3d 93 9f 9d bd 9b 81 38 3d
       -0.04547644 0.084165424 -0.07696452 0.045045476
000020 5e e5 62 3d 8b 75 52 bb cb 58 fb 3c 13 6a 06 bc
       0.055394523 -0.0032113518 0.030681988 -0.008204001
000030 96 bd 92 3d d3 b4 ac 3c a8 5e 1e bd 5a 14 ce 3c
       0.07165067 0.021082317 -0.03866449 0.025156189
000040 8d ca 1c 32 2c 1a 80 3d 51 3c 57 3d ce ca d8 bd
       9.12645e-09 0.06254992 0.052547757 -0.10585557
000050 9c df 1b be 18 c9 c1 3d 35 95 16 bc 8d fb 69 3d
       -0.15222019 0.09462184 -0.009190847 0.057124663
000060 d2 38 4b bb c7 ee be 3d f0 c6 19 3a 48 d6 86 bd
       -0.003100921 0.09322887 0.0005866131 -0.0658384
000070 31 41 b0 bc fc ed 6c 3c 69 15 60 a8 a2 18 c3 3c
       -0.02151546 0.014461037 -1.24391405e-14 0.023815457
000080 56 5b cd ba 69 e6 38 3d 30 11 48 bd 19 cf 8f b8
       -0.0015667479 0.04514161 -0.048844516 -6.857346e-05
000090 e8 39 cb bd b2 82 76 bd 0f 86 6c 3a ed 33 e6 3c
       -0.09923154 -0.060183235 0.0009022662 0.028100932
0000a0 fe 8a 8d bd 0a 2f 4b bc 9e 72 69 3a 68 99 36 bc
       -0.06911276 -0.012401352 0.0008905324 -0.011144973
0000b0 43 44 b6 3d 46 11 f7 3a 64 5a 96 bd 0d 63 6b 3c
       0.08899739 0.0018849752 -0.073414594 0.014366877
0000c0 f3 7d a1 3d 9c 1a 70 bd f7 ac a4 bc ab f1 bb bc
       0.07885351 -0.058619127 -0.020102007 -0.022942385
0000d0 22 2b 12 29 43 f2 2d be 68 ec 64 3d a1 a2 08 be
       3.2455924e-14 -0.16986947 0.055889517 -0.13343288
0000e0 33 1c 42 3d cc f1 40 bd eb 55 cf bd 37 f4 fa 34
       0.047390174 -0.047105595 -0.101238094 4.6743818e-07
0000f0 e2 6c fa bc bd 7c 20 3d 92 85 0c 22 6d 0f 15 3c
       -0.030569497 0.03918146 1.904425e-18 0.009097916
000100 90 82 13 3d 92 ac 6e 3c ae f5 2b bc 5e 34 1f b0
       0.036013186 0.014567511 -0.010495586 -5.791828e-10
000110 94 52 2c 3d 64 af 01 be f7 bc a2 3d f5 1a 8a 3c
       0.04207094 -0.12664562 0.079461984 0.016858557
000120 90 e6 45 3d bd 27 3f bd 2f 60 c8 3d cc fe 4c bd
       0.048315585 -0.046668757 0.097839706 -0.05004768
000130 e4 b1 5a 3d 99 a2 fb bd eb d3 53 bd 60 e6 0b bc
       0.053392306 -0.122868724 -0.051715773 -0.008538812
000140 c6 4c 04 bc 7b 24 4f 3c 86 a6 c7 3d 7f 2f 09 ba
       -0.008074945 0.012642975 0.09748559 -0.0005233213
000150 71 49 ff bd 39 89 49 18 94 83 2f bc 38 d4 9f 3d
       -0.1246518 2.604792e-24 -0.010712523 0.078041494
000160 05 0d 82 3d 2e 63 29 3d e8 e3 25 3b 78 8b 45 3d
       0.063501395 0.04135435 0.0025312845 0.04822871
000170 e0 6d 8c bc 5b bb 3c bc 3b 4a 2a bd f9 c2 41 bb
       -0.017142236 -0.011519278 -0.041574698 -0.0029565676
000180 6f 10 fb 3c 84 f8 6f bd c2 4d 1e 3d 69 fd 1f bd
       0.030647485 -0.058586612 0.038648374 -0.03906003
000190 c5 93 55 3c 75 1f 91 bd 21 3c 57 23 ab 11 86 3c
       0.013035719 -0.07086078 1.1667906e-17 0.016365847
0001a0 be bc 8d 3d fd 91 1a 3d a2 9f a2 bd 63 fd 55 bd
       0.06920765 0.03773688 -0.07940604 -0.0522436
0001b0 a1 2e 8e bd ad 6b 71 bc ce 00 aa 3d 90 b9 32 31
       -0.069424875 -0.014735145 0.08300935 2.600789e-09
0001c0 09 d0 18 bd 37 69 94 3c 0f ce a2 bc 1d af 11 3c
       -0.037307773 0.018116577 -0.019873647 0.008891848
0001d0 25 07 ab 36 b3 fd 78 bd 3c 98 b6 3d 03 b9 00 00
       5.097029e-06 -0.06078882 0.08915755 6.637e-41
0001e0 7a a1 6a bd 81 a9 00 00 28 5e 50 bc a9 d7 af bd
       -0.057282902 6.0807e-41 -0.012717761 -0.08586056
0001f0 98 0b f9 3c d9 e1 4f bc 63 7e 6d bd 73 c5 8b bd
       0.030401036 -0.012688124 -0.05798186 -0.0682477
000200 36 46 80 3d 88 f3 46 35 67 2c fe bc 3b 97 d2 36
       0.06263392 7.411513e-07 -0.031027032 6.2760932e-06
000210 92 ce 9c bd 29 34 49 3d df 59 9c 3b dd d1 24 bc
       -0.07656588 0.04912201 0.0047714557 -0.010059801
000220 95 c0 8c bc 04 93 04 bd 00 95 ea 3c c5 57 ba bd
       -0.017181674 -0.032366768 0.028635502 -0.09098772
000230 8e 1c 68 bd 17 75 aa 3c b5 5f 13 3d 1a 52 7f 3d
       -0.056667857 0.020807786 0.035979945 0.062334158
000240 ba e4 21 31 44 e9 91 bd 99 8f e6 bb 0a c4 7a ba
       2.35586e-09 -0.0712457 -0.007036161 -0.0009565955
000250 41 24 29 3e 51 53 6a 3d 42 3c 50 3c 52 41 45 3d
       0.16517736 0.057208363 0.012709679 0.048157997
000260 e0 36 f6 3d 09 02 21 bc 40 2f f5 bd 1a 75 4e 3d
       0.12022185 -0.009827145 -0.11971903 0.050404646
000270 72 ad de 3d c9 d8 58 bd 4b 49 18 9b 54 d6 4d bd
       0.10872926 -0.052941117 -1.2596828e-22 -0.050253227
000280 c2 ad 14 3b 5e 4c fa 3c 24 4c e1 bc b9 bc 12 1d
       0.0022686576 0.030553993 -0.027502127 1.9420506e-21
000290 9b 80 a0 3c 2f b9 91 3d 7e a6 c3 3d 48 31 12 3c
       0.019592574 0.07115399 0.0955324 0.008922882
0002a0 7e 12 9b bd 7c 05 1a 3d 06 9f 4d bc 2a ab 75 bc
       -0.075718865 0.037602887 -0.012550121 -0.014994422
0002b0 78 a4 51 bb 30 72 45 bc a5 ad 05 bc 6c 8a 37 3d
       -0.00319889 -0.01205115 -0.008159076 0.044809744
0002c0 34 83 e8 3c f5 a4 69 3d 52 8d 62 3d fc c4 ab bc
       0.028382875 0.05704208 0.055310555 -0.020967953
0002d0 c9 4c 6a 39 70 a8 0c 3e fe d0 34 bd 20 b7 d3 3d
       0.00022344584 0.13736129 -0.044144623 0.10337663
0002e0 b2 fb 99 3d 4a bd 80 3c a2 e2 ae 3d cc 9a a2 90
       0.0751871 0.01571526 0.085393205 -6.4136236e-29
0002f0 0b 5e 22 bd 43 8f 80 3d d2 f8 6d a9 9f 64 e1 ba
       -0.039640468 0.06277325 -5.284039e-14 -0.0017196125
000300 5f b6 8e 3d cd 1a b2 bd fa 47 53 bc e0 62 12 10
       0.06968378 -0.08696518 -0.0128955785 2.8869594e-29
000310 45 d0 1e 3b 76 9b 2d 3d fe 6c 39 bd ce da d4 bc
       0.0024233025 0.042384587 -0.04526996 -0.02598324
000320 fe e8 23 bd 49 d7 af bc 0c ee 8c bd 3a ab 8a 3d
       -0.04001712 -0.02146496 -0.06881341 0.0677094
000330 c7 5d 6d bd be c6 a5 3d c0 85 d9 3c 27 20 95 3d
       -0.05795076 0.08094548 0.026553035 0.07281523
000340 f0 bb e3 bb ce a5 34 3d 8a 04 8a bd 4f 7f 66 bb
       -0.006949894 0.044103436 -0.06739147 -0.0035171097
000350 20 7a ab 3d 10 5f d4 38 03 fc f9 3c 9c fe 40 bd
       0.08372903 0.000101266545 0.030515676 -0.047117814
000360 9c 36 bb 3d be 8a 92 bc 65 c7 80 3d a8 d4 94 3d
       0.09141275 -0.017888423 0.062880315 0.072671235
000370 aa 76 10 bd c7 2a 71 bc d1 b2 9a 3d 24 1a 35 3d
       -0.035269417 -0.014719672 0.07553638 0.044214383
000380 ab b4 8d bc 01 59 7e 3d a9 af 13 3c 53 2f 6d bd
       -0.017298063 0.0620966 0.009014049 -0.05790646
000390 6c 0b 3a bd ec 64 6b 3d a6 43 0e a0 2f 59 87 bb
       -0.04542105 0.057469293 -1.2050251e-19 -0.0041305046
0003a0 d4 5a 93 bd a3 1f 41 bb 59 fd fd 3d 11 53 6b bd
       -0.071950585 -0.002946832 0.12401838 -0.057452265
0003b0 94 ab bd bc 4d df 88 3d f9 53 30 bd ae 1d 78 3a
       -0.023153104 0.06683216 -0.043048833 0.0009464872
0003c0 20 a8 a5 3d 22 d5 a5 3d 7d 87 09 bb f4 d5 6a 3d
       0.08088708 0.080972925 -0.0020985298 0.057332948
0003d0 34 f8 ab 23 9f 37 41 3d 1c e7 5f 3c b4 ba 00 00
       1.8644975e-17 0.047172185 0.013665941 6.6976e-41
0003e0 38 4a b1 b8 aa 54 3d 84 22 b8 ad 3c 5a 61 8d 3d
       -8.453842e-05 -2.2255719e-36 0.021205965 0.06903334
0003f0 f7 e7 95 3d e7 c7 c7 3d b9 4e 97 3d 29 4f 8e bb
       0.073196344 0.09754925 0.07388062 -0.0043429327

bias f4 [128]
000000 97 3b ba 3c b1 b4 63 3d 10 99 50 bd 86 86 ab 3d
       0.022733493 0.055592243 -0.05092722 0.08375268
000010 89 25 20 3c e8 a2 7c bc a1 2e 35 bc 64 3d 8a 3d
       0.009774574 -0.015419699 -0.0110584805 0.067499906
000020 eb 4b 37 bd 84 61 cc 3d 3d b2 41 3d 53 ea 5e 3d
       -0.044750135 0.09979537 0.047289122 0.054422688
000030 d6 14 f7 3c 64 bd 7a 3d 5f ef ec 3c e1 7c 27 bd
       0.030161303 0.061215773 0.028922735 -0.04089058
000040 85 cf 8b 3a 37 07 ba 3d 61 03 9d 3d c6 d0 0e bb
       0.0010666704 0.09083407 0.0766666 -0.002179192
000050 d9 67 91 bc 6c 13 4c bc 07 4b a7 bd d1 f3 71 3d
       -0.017749714 -0.012455802 -0.08168607 0.059070412
000060 f9 86 28 bd f7 1f b4 bc cd fd 6e 3b 07 98 a3 3d
       -0.041144345 -0.021987898 0.0036467195 0.07987981
000070 a3 2d a4 3d 3f 8c ba 3d 15 60 92 3b 77 0f 76 ba
       0.08016517 0.09108781 0.0044670203 -0.000938646
000080 35 bf c4 bc 21 26 d4 3d 31 c7 a4 3d 7f 3a de bd
       -0.024016956 0.10358835 0.08045805 -0.10851001
000090 48 7e d3 3d 5d 52 9d bd dd a6 10 3d d9 02 f2 b9
       0.103268206 -0.07681725 0.035315383 -0.0004615996
0000a0 31 cb ec 3d 2d 60 0d 3d 66 2b 2d bd 2f 02 ae 3d
       0.11562193 0.03451555 -0.042277716 0.0849651
0000b0 4b e3 e2 3d e6 10 9b bd a8 bc 2a bd 21 f0 50 39
       0.11078509 -0.075715825 -0.041683823 0.00019925881
0000c0 67 f5 20 bd aa 50 bf bd d4 c8 3c bc 56 36 16 bd
       -0.039296534 -0.09341557 -0.0115224905 -0.036672913
0000d0 8a e3 ab 3d 4b 61 52 3d 18 aa 30 3d 5e ca 85 bc
       0.08393009 0.051362317 0.043130964 -0.016331848
0000e0 6a 11 70 bd 2a d8 4e 3d 5d e2 de 3d bc 60 d8 3c
       -0.058610357 0.05049912 0.10883019 0.026413314
0000f0 d3 b0 7d 3d 00 2a 94 bd 22 10 85 3b 6f 8a 9c 3b
       0.06193621 -0.07234573 0.004060761 0.0047772448
000100 7c 0d f8 3c 28 6b 1a bd 46 5b a6 bd 84 3c 78 3d
       0.030279867 -0.03769985 -0.08122878 0.060604587
000110 a6 25 a2 ba 4c 5c f4 3d 3a 7c 42 3a 79 52 97 bb
       -0.0012370839 0.11931667 0.0007419024 -0.004617986
000120 a7 37 e6 3c a7 2d a6 3d 7d 92 94 3d 80 7b ad bd
       0.028102709 0.08114176 0.07254503 -0.084708214
000130 a8 95 a0 3b 61 c5 c4 bc 48 d0 fe bc 64 38 59 bd
       0.004900653 -0.024019899 -0.031105176 -0.053032294
000140 5b 44 e9 3c a4 94 5e 3c d3 9e 89 3d 13 0c cf 3c
       0.028474977 0.013585243 0.067197464 0.025274312
000150 03 4d eb bb 54 6d 0e 3d f7 e0 b9 bc e5 40 40 bd
       -0.0071808114 0.034772232 -0.02269028 -0.04693689
000160 a7 b7 89 3b 23 95 e2 bd 45 c4 4e 3d 37 7b 0d 3c
       0.0042028013 -0.11063602 0.050480146 0.008635334
000170 ef b1 df 3d 60 ad 59 3d 05 40 9e bc 0a bf f1 3d
       0.1092261 0.05314386 -0.019317636 0.11804016
000180 49 a6 38 3d 83 17 fc 3c 3a a1 0a 3c 7f ad 15 3d
       0.045080457 0.03077293 0.008461291 0.036542412
000190 f9 38 ad 3d 1c 49 05 3d c3 9b 31 3d 7e 19 70 3d
       0.08458132 0.032540426 0.043361437 0.05861806
0001a0 32 52 43 bd 94 07 b9 bd 2c 06 86 bc db 4e 10 bd
       -0.04768581 -0.090346485 -0.016360365 -0.035231452
0001b0 59 5e 7b 3c dd 10 36 bd f8 49 4f 3c 07 f8 23 bd
       0.015342318 -0.044449676 0.012651913 -0.04003146
0001c0 e3 ed 91 3d d3 0e 53 bd c1 77 bc 3c 94 01 96 bc
       0.071254514 -0.05152781 0.023006322 -0.0183113
0001d0 51 5c f7 3c 42 de 49 bd 1d 7c d5 3d b5 2d f2 3c
       0.030195387 -0.049284227 0.10424063 0.02956281
0001e0 9d 8a 05 bb b0 32 82 3d 2b 48 10 bd b4 57 f5 bd
       -0.002037681 0.06357324 -0.035225075 -0.11979619
0001f0 36 d6 db bc 12 92 20 bc af e6 c5 bd cd e1 7b 3d
       -0.026835542 -0.009800451 -0.0966314 0.061494637

weight f4 [2, 128]
000000 a6 6c c3 3d 54 5b 24 bd 04 c9 b0 3d b8 a0 d1 3d
       0.095422074 -0.04012616 0.08632091 0.10235733
000010 17 c8 9f bb 9b e9 e6 3c c7 8a bb 3d a7 3f c9 bd
       -0.0048761475 0.028187564 0.09157329 -0.09826594
000020 77 fc 9e 3d 9a 44 b3 3d b0 64 1a bd ee 61 e7 3d
       0.077629976 0.08753319 -0.03769368 0.112979755
000030 4f 79 28 3c 5a 5c a2 bc 60 0f 81 bd 45 47 55 3c
       0.0102828285 -0.019819427 -0.06301761 0.01301748
000040 d2 6d a6 bd 24 7f 86 3d 0f 93 bb 3d 2f 36 76 3d
       -0.08126415 0.06567219 0.091589086 0.060110267
000050 39 57 8c bd 69 2f 00 bd ca b8 07 bd d6 aa ae 3d
       -0.06852574 -0.031295214 -0.033135213 0.08528678
000060 50 66 8c bd 6b 51 01 3d 91 b1 83 bc 85 3c ac bd
       -0.06855452 0.031571787 -0.016075881 -0.08409981
000070 ac 35 56 bd 3f 8d 16 3d 82 ed 9f bd d4 84 51 3c
       -0.05229728 0.036755797 -0.07808973 0.012788016
000080 c7 55 b8 bd 4c 03 a2 3d 90 5f c0 3d d7 0e 76 bd
       -0.09000736 0.07910785 0.09393227 -0.060072746
000090 9b bc ac 3d 21 74 84 bd d2 69 f8 bd e3 86 84 bd
       0.08434411 -0.06467462 -0.121295586 -0.0647104
0000a0 0b f8 76 bd 26 3d 2f bd e9 5e f1 bd d2 5c ab 3d
       -0.060295146 -0.042782925 -0.11785681 0.083673134
0000b0 d2 6b 91 3d 12 7f 96 3c 82 ef ae 3d 2d 71 8f 3a
       0.07100643 0.018371139 0.08541776 0.0010943763
0000c0 61 b6 aa 3d 19 63 ee bd 62 0b f4 bc 3f 57 49 3d
       0.08335567 -0.11639995 -0.029790584 0.04915547
0000d0 8f 53 b0 3d 2c 42 72 3d a6 81 92 bd 75 a1 8c bd
       0.086096875 0.059145138 -0.07153635 -0.06866733
0000e0 c0 82 d5 bd 07 91 0f 3b 90 0b c0 bd 61 4f 54 3c
       -0.10425329 0.0021906511 -0.09377205 0.0129583785
0000f0 5c 33 db bc bb 6e a4 bd 28 ab fe 3c 58 4f 14 bc
       -0.026757888 -0.08028933 0.031087473 -0.00905212
000100 5f 85 a3 3d 39 31 03 3d bf f6 17 bd b0 5d fc bd
       0.07984423 0.032029364 -0.03710055 -0.12322557
000110 55 15 bc bb b3 a8 83 bd f6 17 ee 39 da e3 fb 3c
       -0.0057398477 -0.06428661 0.0004541275 0.030748297
000120 55 8a 5c 3d 60 b3 f8 bd a2 39 bb 3d cc ca be bc
       0.05384286 -0.12143588 0.09141852 -0.02329006
000130 dd e8 97 3d 7f f6 5a 3d fd 9a 9e bd 4f e8 76 3c
       0.07417462 0.053457733 -0.077444054 0.015070035
000140 dd 63 9b bd 3e cf ee bd 53 ac bf 3d ad bf 0b 3d
       -0.07587407 -0.11660622 0.0935904 0.034118343
000150 14 7b 82 bd b3 05 54 3d bb 2d bb 3d f3 31 f2 3c
       -0.063711315 0.051763248 0.09139582 0.029564833
000160 e7 70 ce 3d 64 e1 9b bd 38 46 cc 3d d8 78 4c 3c
       0.10080128 -0.07611349 0.09974331 0.012479983
000170 16 03 b5 bd e5 d3 c7 3d 2c 26 7a 3d cc 14 85 bd
       -0.08838479 0.097572125 0.06107156 -0.06498107
000180 7f c1 c4 bd 4f 56 ad 3d 13 95 34 3c 8a ae bd bd
       -0.09607219 0.08463728 0.01102187 -0.09261806
000190 65 7c ad 3c d8 18 b1 3d ac 3d c8 bd 01 c6 44 bd
       0.02117748 0.08647317 -0.09777388 -0.048040394
0001a0 0f 4e b5 3d c0 80 7f bd 2a 04 a0 3d 3f 70 8b bb
       0.08852779 -0.062378645 0.07813294 -0.004255324
0001b0 5d ec d1 3d 79 89 fb ba 54 12 cc 3d c6 09 fc 3d
       0.10250161 -0.001919075 0.09964433 0.12306552
0001c0 c2 2d 98 bd 6b 85 a8 bd 12 e4 c6 bd 78 1a ad bc
       -0.074306026 -0.082285725 -0.0971147 -0.021130785
0001d0 f4 e5 50 bd ff b4 10 3d 70 2b f3 bd 78 f2 93 bd
       -0.05100055 0.03532886 -0.118735194 -0.072239816
0001e0 54 7f 18 3d f2 17 e4 3d c6 34 7c 3c e3 09 a2 bd
       0.037230805 0.1113738 0.015393442 -0.07912042
0001f0 f2 b7 44 bd 2e 57 1e 3d 11 4e f2 bd 1f 36 fc 3c
       -0.048026986 0.03865736 -0.11831296 0.030787526
000200 55 6b 93 3d 72 a0 40 bd 65 ba 5b 3d 07 e8 7c 3d
       0.07198206 -0.047028013 0.053644557 0.061744716
000210 60 46 9b 3d db 83 70 3d 7f ca 8e 3d a8 7d c3 bd
       0.07581782 0.058719497 0.06972217 -0.095454514
000220 34 4c b2 3d 2e bd a1 bc 65 c6 a4 bb 74 ad bd 3a
       0.08705941 -0.019743528 -0.0050285333 0.0014471249
000230 99 d2 64 3d 71 51 96 bd 30 96 5a bc 9b cc b6 3c
       0.055864904 -0.073397525 -0.013341472 0.02231436
000240 03 17 9c bd 10 5c e7 3c 6c b8 bd 3d 21 f8 2e 3d
       -0.07621577 0.028242141 0.09263691 0.042717103
000250 67 12 88 bd 1f 52 3a bd 67 07 00 be 8f 9b 61 bd
       -0.06644135 -0.045488473 -0.12502824 -0.055079993
000260 73 20 85 bb 9b 71 91 3d 73 84 c7 3d 34 58 85 bd
       -0.004062706 0.07101747 0.097420596 -0.06510964
000270 01 2b cd bd 2e 61 a1 3c 9b a8 07 be ca 04 6c bc
       -0.10017968 0.01969966 -0.13247912 -0.014405439
000280 d3 a2 e8 bd e6 b4 28 3b fa 69 9a 3d ea e1 7c 3d
       -0.11359181 0.002574259 0.07539745 0.061738886
000290 b3 d1 61 bd 74 28 03 be 30 36 e9 bd c8 e9 db bc
       -0.055131625 -0.128084 -0.113872886 -0.026844874
0002a0 c8 3f 9c bd 2c b3 2e bd a4 b9 59 bd 8e c9 41 3d
       -0.07629353 -0.04265134 -0.053155556 0.04731136
0002b0 3c ec 86 3d 2a 33 4a 3d d5 9b 8c 3d dc 16 c5 3d
       0.06588027 0.0493652 0.0686566 0.09623501
0002c0 0f 31 65 3d 79 19 c2 3c 49 c8 32 bd 27 4d a5 3d
       0.05595499 0.023693787 -0.043648038 0.08071356
0002d0 7c 1b 6b 3d 24 95 6f 3d bd 77 d2 bd fa 97 db bd
       0.057399258 0.05849184 -0.102767445 -0.107223466
0002e0 4b a1 98 3c ad d1 d7 3d 29 04 70 bb f7 68 60 3d
       0.018631598 0.10538039 -0.0036623573 0.054787602
0002f0 28 25 f7 bd cb 03 62 bd 1e f5 3c 3d 59 c8 a9 3d
       -0.12067634 -0.0551794 0.0461322 0.082901664
000300 e4 82 94 3d e7 bc 87 3d 70 42 83 bd 04 ea a4 bd
       0.07251528 0.06627827 -0.06409156 -0.080524474
000310 5a d1 13 3c 5b 92 0b be a9 7c 15 3a fe 56 32 3d
       0.009022081 -0.13630049 0.0005702475 0.043539993
000320 d2 9c 3b bc 5b 03 10 bc 5d bb 88 bb 9e ce 15 bd
       -0.011450963 -0.0087898625 -0.004172726 -0.036574
000330 9e 94 92 3d 25 fc a0 3d 84 5e d8 bc 79 18 31 3d
       0.07157253 0.07860593 -0.026412256 0.04323623
000340 c3 64 b8 bd 9b 47 e0 bd aa ac 7f 3d 09 0e b3 3c
       -0.09003594 -0.10951158 0.062420525 0.021857278
000350 d3 1c 83 bb eb 84 85 3c d7 02 37 3d 6a d7 a5 bc
       -0.004001239 0.016298732 0.044680443 -0.020244319
000360 a9 fd ab bc 90 c2 09 3d 5d 87 04 bd 53 03 08 3c
       -0.020994978 0.033632815 -0.032355655 0.008301574
000370 90 4e 11 3c d1 63 48 3c ff 6c c7 3c 19 bf 16 be
       0.008868828 0.012230829 0.024343966 -0.14721335
000380 17 19 b4 bd 9c b4 25 bd 02 0d 43 3c 3a da 2b 3c
       -0.08793848 -0.040455446 0.011904957 0.010489041
000390 ca 19 75 3d aa d0 ca 3d c6 c2 b3 3b cd 70 08 be
       0.059839047 0.09903081 0.0054858653 -0.1332428
0003a0 b1 0d 18 3d 77 65 b8 bc e8 e9 12 bd 3d 77 a9 bd
       0.037122432 -0.02250932 -0.0358676 -0.08274696
0003b0 42 64 8b bc 2c 2b c8 3d 96 b5 51 3d 48 29 ca 3c
       -0.01701558 0.097738594 0.051198564 0.024677888
0003c0 a3 47 e4 bd 2d 3c 6f 3d 66 fe 03 be fd 1d e5 bd
       -0.11146476 0.058406997 -0.12890014 -0.111873604
0003d0 f6 3d 91 bd 1f 05 30 3d f7 3b 21 bd 2f 2b 87 bd
       -0.07091896 0.042973634 -0.039363828 -0.066000335
0003e0 db a2 b7 3d de c6 d0 3d 43 87 c2 3d 43 01 94 bd
       0.08966609 0.10194181 0.094984554 -0.07226803
0003f0 3a 5c cc bc 98 93 c5 3c 2a 9d 99 bd aa db 32 3d
       -0.02494632 0.02411823 -0.0750068 0.04366652

bias f4 [2]
000000 7b 11 d7 3d e3 10 e3 bc
       0.10501381 -0.027718013
