c220g2_power.pt (torch, 86063 bytes, 7 tensors)

WIdle0 f4 [4]
0	0x3f624eeb	0.8840167
1	0x3e682488	0.22670186
2	0x3bfb9368	0.0076774843
3	0x3c019f5a	0.0079115275

WIdle1 f4 [4]
0	0x3f978715	1.1838099
1	0x3e7ed984	0.24887663
2	0x3c270790	0.010194674
3	0x3c0b0831	0.00848584

weight f4 [128, 7]
0	0xbdb0f02a	-0.08639558
1	0xbe07f325	-0.13276346
2	0x3ebe0046	0.37109584
3	0xbcb4148b	-0.021982452
4	0x3ea6a082	0.32544333
5	0xbe9d0ccc	-0.30673826
6	0xbc19b4c9	-0.009381481
7	0xbe193407	-0.14961253
8	0xbe3c5939	-0.1839341
9	0xbe89ac65	-0.2688934
10	0xbdd748b0	-0.10511911
11	0x3dc102dd	0.09424374
12	0xb912caf3	-0.0001399925
13	0xbe94501f	-0.28967378
14	0x3dbf5883	0.09343054
15	0x3e2ee275	0.17078574
16	0x3da6959e	0.08134006
17	0xbe2d288e	-0.16910002
18	0x3da65cb4	0.081231505
19	0x3e95c48e	0.29251522
20	0xbd8d7d73	-0.06908693
21	0xbe187d2a	-0.14891496
22	0x3d31e75a	0.043433525
23	0x3dbe50ea	0.09292777
24	0xbeb2716d	-0.34852162
25	0x3db54807	0.08851629
26	0x3e0beae3	0.13663821
27	0xbd2afa76	-0.041742764
28	0x3c561870	0.01306735
29	0x3e57ec62	0.21086267
30	0xbe1ab46d	-0.1510789
31	0x3e9a55db	0.30143628
32	0xbe381129	-0.17975296
33	0xbea4478e	-0.32085842
34	0x3e768697	0.2407478
35	0x3e26f71b	0.16305201
36	0xbe67a751	-0.2262242
37	0xbeb8e31f	-0.3611078
38	0x3e9b5520	0.30338383
39	0x3e6265fd	0.22109218
40	0xbeace3f8	-0.33767676
41	0x3e9c003d	0.30468932
42	0x3d2558e1	0.040367965
43	0x3e5cda1f	0.21567582
44	0xbe8cf38c	-0.27529562
45	0xbe234c24	-0.15947014
46	0x3e61d2e5	0.22053106
47	0xbe58dace	-0.21177217
48	0xbe5866c6	-0.21132955
49	0xbdfc148c	-0.123086065
50	0x3dfad59a	0.122477725
51	0x3dfb4029	0.12268097
52	0x3e135450	0.14387631
53	0xbddcf954	-0.10789743
54	0x3e8fb3d8	0.28066897
55	0xbe142ba0	-0.14469767
56	0x3e2f63e4	0.17127949
57	0x3c6456de	0.013936726
58	0xbe5e8562	-0.21730569
59	0xbe60f8e2	-0.21969941
60	0xbd72afd7	-0.059249725
61	0x3e69c519	0.22829093
62	0xbd874e55	-0.066067375
63	0x3cf47eca	0.029845614
64	0xbe88a961	-0.26691726
65	0xbea373f1	-0.31924394
66	0x3becc43b	0.007225541
67	0x3e8af6bf	0.27141377
68	0x3ea3c12b	0.31983313
69	0x3e66b29b	0.2252907
70	0xbe721677	-0.23641382
71	0xbe1caa04	-0.15299231
72	0xbddede1b	-0.10882207
73	0xa8c50762	-2.1874595e-14
74	0xbd90883f	-0.07057237
75	0x3e92385f	0.28558633
76	0xbe6fdfcb	-0.23425214
77	0xbe29828a	-0.16553703
78	0x3e6b67e6	0.22988853
79	0xbe8b09fc	-0.27156055
80	0xbe5a4d26	-0.21318492
81	0x3e0ac387	0.1355115
82	0x3e7421e3	0.23841052
83	0x3e6341f4	0.22193128
84	0xbe98cab1	-0.2984214
85	0xbb2baaac	-0.0026194258
86	0x3c89dd05	0.016829023
87	0xbe62974b	-0.22128026
88	0xbc80ecf9	-0.015737997
89	0x376c2034	1.4074194e-05
90	0xbd697704	-0.056998268
91	0x3e0a8f76	0.13531289
92	0xbdbdd6c9	-0.09269483
93	0x3da8c549	0.08240754
94	0xbeb066d4	-0.34453452
95	0xbd4ee461	-0.050510768
96	0xbd602876	-0.054726087
97	0x3dc5a857	0.09651249
98	0x9f3abfe7	-3.954577e-20
99	0xbaa2c9c4	-0.001241975
100	0xbdd2b884	-0.102891
101	0xbd8e7b4f	-0.06957113
102	0x3c0c261f	0.008554011
103	0x3e83e290	0.2575879
104	0xbe9b33c5	-0.30312935
105	0xbb56b1f2	-0.0032759872
106	0x3e31029c	0.17286152
107	0x3d36163e	0.044454806
108	0xbe0cd82b	-0.13754337
109	0xbe070b03	-0.13187794
110	0x3e2132f6	0.15742096
111	0xbe95c40b	-0.2925113
112	0x3dee7625	0.11643628
113	0x3ea9d005	0.3316652
114	0x3a0b9555	0.00053246814
115	0xbe28a06b	-0.16467445
116	0xbe923e49	-0.28563145
117	0x3eb6fc93	0.35739574
118	0xbeb33b1c	-0.35006034
119	0x3e762fbb	0.24041645
120	0xbe84db5a	-0.25948602
121	0xbe958975	-0.29206434
122	0xbea8f65d	-0.3300046
123	0xbbf1221e	-0.0073588034
124	0x3e8106fa	0.25200635
125	0x3eb17f3f	0.34667394
126	0x3e69d341	0.22834493
127	0x3e9a37ae	0.30120605
128	0x3e5bd680	0.21468544
129	0xbe30529a	-0.1721901
130	0x3e4c946b	0.19978492
131	0x3e079173	0.13239078
132	0xbe1d0ead	-0.1533763
133	0x3dac3445	0.08408407
134	0x3e77a0e8	0.24182475
135	0xbe965d39	-0.29367998
136	0x3eaeadbe	0.3411693
137	0xbe9a0a02	-0.3008576
138	0xbdbdc63f	-0.09266328
139	0x3e99b6b0	0.30022192
140	0x3ebda96d	0.37043324
141	0x3e278765	0.16360243
142	0xbc089b75	-0.008337845
143	0x3ea8be7e	0.32957834
144	0x3dc21dbc	0.09478328
145	0xbe4b15d5	-0.19832547
146	0xbe9fb879	-0.3119543
147	0xbd454587	-0.04816201
148	0x3eb5046d	0.3535494
149	0x3ea3a973	0.31965217
150	0xbe6e0f26	-0.23247966
151	0xbe0144a8	-0.12623847
152	0xbe83e8c8	-0.25763535
153	0xbeb4a78e	-0.35284084
154	0x3e9ca67a	0.30595762
155	0x3eb5c6e5	0.35503307
156	0x3e9b7821	0.3036509
157	0xbe7fcbda	-0.24980107
158	0xbe4ee8cb	-0.20205991
159	0x3d7ec14f	0.062196072
160	0x3ec1752c	0.37784708
161	0xbe2e58da	-0.17026082
162	0x3e238ce3	0.15971713
163	0xbe2124aa	-0.15736642
164	0x3d0e91c6	0.03480699
165	0x3e920245	0.28517357
166	0x3df5a294	0.119939
167	0x3e229201	0.15876009
168	0x3e135c7c	0.14390749
169	0xbc0f63e0	-0.008751839
170	0x3ec984ba	0.39359075
171	0xbe998e50	-0.29991388
172	0xbd8037d6	-0.0626065
173	0xbde649c8	-0.112445414
174	0x3e1efdbc	0.1552648
175	0x3da08e6c	0.07839665
176	0x3e92cc1e	0.28671354
177	0x3e85bd2b	0.26120886
178	0xbe99ebd1	-0.30062726
179	0xbe556549	-0.20839418
180	0xbe0888dc	-0.13333458
181	0xbe2df95b	-0.16989653
182	0xbca7f1fb	-0.020501127
183	0xbe1697bf	-0.14706324
184	0x3e8ebc6f	0.27878138
185	0x3d247931	0.04015464
186	0x3e2924aa	0.16517892
187	0x3e8fb4e3	0.28067693
188	0x3cbb78d2	0.02288476
189	0x3b6d3129	0.0036192632
190	0x3ea4cf3a	0.3218935
191	0x3bb3f2cd	0.0054915906
192	0x3d8dc171	0.06921662
193	0xbe911d96	-0.28342885
194	0x3e3da1c1	0.18518735
195	0xbe4f1a29	-0.20224823
196	0x3ec9e94b	0.394358
197	0x3dc2b171	0.095065005
198	0xbdd50991	-0.10402215
199	0x3c812c0b	0.015768072
200	0x3e6fcf5f	0.2341895
201	0x3eb5c4ad	0.35501614
202	0x3e697691	0.22799136
203	0x3d8ef149	0.06979615
204	0xbe95f9a9	-0.29292038
205	0xbe9c98c1	-0.30585292
206	0x3e8070f1	0.25086167
207	0x3e9b3849	0.3031638
208	0x3e8723d9	0.26394537
209	0x3d7c1875	0.06154676
210	0xbe7b002c	-0.24511784
211	0x3e4fade6	0.2028118
212	0xbe74ec8f	-0.23918365
213	0xbbcf6124	-0.0063287187
214	0x3ec970be	0.39343828
215	0xbe0831d4	-0.13300258
216	0x3d52fdba	0.051511504
217	0xbd559541	-0.052144293
218	0xbe17c33f	-0.14820574
219	0xbea4a081	-0.32153705
220	0x3d649c83	0.055813324
221	0xbe169049	-0.14703478
222	0x3dd539cf	0.10411417
223	0xbdec09f8	-0.11525339
224	0x3e82c961	0.25544265
225	0x3ebd1d73	0.3693653
226	0xbe7006ff	-0.23440169
227	0xbea73c49	-0.3266318
228	0xbebc46bb	-0.36772713
229	0x3d6dbbaf	0.058040317
230	0xbe979b00	-0.29610443
231	0xbe6fd14b	-0.23419683
232	0xbe614a51	-0.22001006
233	0xbdc8df1f	-0.09808182
234	0xbe941c25	-0.28927723
235	0xbeaa20fd	-0.33228293
236	0xbd8d8c2c	-0.06911501
237	0x3eb81cc4	0.35959446
238	0x3e0fe834	0.14053422
239	0x3e30754a	0.17232242
240	0x38d45220	0.00010124245
241	0x3b5e9825	0.0033965197
242	0xbdc07ed6	-0.09399192
243	0x3de4ceef	0.11172282
244	0xbd969496	-0.07352559
245	0x3e557c46	0.20848188
246	0x3e97fb3a	0.29683858
247	0x3e4793d0	0.1948998
248	0x3e78ea24	0.24308068
249	0x3e8db772	0.2767902
250	0xbd7c3d8a	-0.061582126
251	0xbdf16e1d	-0.117885806
252	0x3ec62ee4	0.3870765
253	0xbd44258f	-0.04788738
254	0xbea55519	-0.32291487
255	0xbea95bb7	-0.33077785

bias f4 [128]
0	0xbe594e76	-0.21221337
1	0xbe816ee6	-0.2527992
2	0x3df55d21	0.119806536
3	0x3e2e87fa	0.17044058
4	0xbe71fc46	-0.23631391
5	0x3dcb4a78	0.09926313
6	0xbd7d1107	-0.061783817
7	0xbe22990c	-0.15878695
8	0xbe0bea2f	-0.13663553
9	0x3e70ed8d	0.23528118
10	0xbe53e35b	-0.20692198
11	0x3e7be68a	0.24599662
12	0x37dd1ddd	2.635916e-05
13	0xbdd6b2bd	-0.1048331
14	0xbd6bf7d4	-0.057609394
15	0x3e43e04a	0.19128528
16	0x3e54c684	0.20778853
17	0x3e236070	0.15954757
18	0xbe6a04d7	-0.22853409
19	0xbe7615d8	-0.2403177
20	0x3e0c8b53	0.13725023
21	0xbe04d4c0	-0.12971783
22	0x3e0da5bd	0.13832755
23	0x3df331cc	0.118747324
24	0xbde8232c	-0.113348335
25	0x3e89bc4b	0.2690147
26	0x3eaefc23	0.3417674
27	0x3ea4c81b	0.32183918
28	0x3e1044fb	0.14088814
29	0xbde3f480	-0.11130619
30	0xbe8a3f72	-0.2700153
31	0x3eb7bdd2	0.3588701
32	0x3e5fabee	0.2184293
33	0xbe37fd01	-0.17967607
34	0x3e874499	0.26419523
35	0xbe853646	-0.2601797
36	0xbda75375	-0.08170215
37	0x3d5b5e9f	0.053557035
38	0x3e2403dd	0.16017099
39	0xbe6bbee2	-0.23022035
40	0x3e8a9934	0.2707001
41	0xbb86d819	-0.0041151163
42	0xbc7669e3	-0.015039894
43	0xbbe0f9ac	-0.0068657007
44	0x3af24eea	0.0018486653
45	0xbd5bc6f2	-0.053656526
46	0xbe92c668	-0.28666997
47	0x3ec24f64	0.37951195
48	0xbe49b919	-0.19699515
49	0x3e239914	0.15976363
50	0xbe9a614d	-0.3015236
51	0xbe643327	-0.22285138
52	0xbe8f74bd	-0.28018752
53	0xbeb68332	-0.3564697
54	0x3e233456	0.15937933
55	0xbe20d1f9	-0.15705098
56	0x3eb5e842	0.3552876
57	0xbe1873a1	-0.14887859
58	0x3c1e0f7e	0.009647248
59	0xbe5a9f21	-0.21349765
60	0x3e537f10	0.20653939
61	0xbc1524d8	-0.0091030225
62	0xbe8a78c9	-0.27045277
63	0xbe5ca6a7	-0.21547948
64	0xbd203be2	-0.03911961
65	0xbe9e2f68	-0.30895543
66	0x3ece9107	0.40345022
67	0xbe4f5554	-0.20247394
68	0x3eb0e7dc	0.34551895
69	0x3e0c0f0a	0.13677612
70	0x3d62ccb6	0.05537101
71	0xbdadee15	-0.08492676
72	0x3eabec52	0.33578736
73	0xbe810437	-0.25198528
74	0xbd9dbdc1	-0.07702208
75	0xbcf71e9d	-0.030165965
76	0xbbba524b	-0.0056860796
77	0x3d4255d9	0.047445152
78	0xbe988527	-0.29789087
79	0xbdeb45ad	-0.11487899
80	0xbd5d885a	-0.054085113
81	0xbe1331b9	-0.14374436
82	0x3e5e655c	0.21718353
83	0x3e944c65	0.28964534
84	0x3ebc36ba	0.36760503
85	0x3e344e2b	0.17607944
86	0xbe5634c8	-0.20918572
87	0xbe332860	-0.1749587
88	0xbe1acc98	-0.15117109
89	0x3de9ea7a	0.11421676
90	0x3ccc5ace	0.024945643
91	0xbe4785c8	-0.19484627
92	0x3e1bcbbe	0.1521444
93	0x3e82b10f	0.2552571
94	0xbea889df	-0.32917687
95	0xbead6052	-0.3386255
96	0x3e0a895f	0.13528965
97	0x3da3c18e	0.07995902
98	0x3ea1ec95	0.3162581
99	0xbd6f44eb	-0.058415335
100	0xbe973fa6	-0.29540747
101	0xbe390d36	-0.18071446
102	0xbe92bca5	-0.2865955
103	0xbe38073e	-0.17971513
104	0x3e1eb2f7	0.15497957
105	0xbe6a2b91	-0.22868182
106	0xbc7e72cb	-0.015530298
107	0xbd228202	-0.039674766
108	0x3e4f391c	0.20236629
109	0x3e97d881	0.29657367
110	0x3e06cc26	0.13163814
111	0xbd8944dc	-0.06702587
112	0x3d08afe9	0.033370886
113	0x3e556386	0.20838746
114	0x3e03e679	0.12880887
115	0x3e07a4e0	0.13246489
116	0x3e811043	0.2520772
117	0xbe4be457	-0.19911323
118	0x3e9a8d18	0.3018577
119	0x3da1a327	0.07892447
120	0x3d4a46a2	0.049383767
121	0x3da85a45	0.082203425
122	0xbda2a9b7	-0.07942527
123	0xbd94ff5e	-0.0727527
124	0xbe8a6473	-0.27029762
125	0x3e529271	0.20563675
126	0xbc236277	-0.009972206
127	0x3e8d2243	0.27565202

weight f4 [128, 128]
0	0xb109203a	-1.9954443e-09
1	0xb4ba6666	-3.4719704e-07
2	0xb3b79d68	-8.5502336e-08
3	0x375b7698	1.30810295e-05
4	0x1ae966f1	9.653285e-23
5	0xb3044d7b	-3.0804113e-08
6	0xbcf54047	-0.029937876
7	0x307ce908	9.2008223e-10
8	0xbc937c3c	-0.018003576
9	0xa369131a	-1.2635e-17
10	0x38b2d132	8.526667e-05
11	0xbbd08649	-0.0063636643
12	0xbbbdfc23	-0.0057978793
13	0x39407ef3	0.00018357839
14	0x39973fa0	0.0002884837
15	0xbc8ef5d6	-0.017451208
16	0x333ffb27	4.4699075e-08
17	0xbcd7ab57	-0.026326818
18	0xbcc24dc5	-0.023718724
19	0xbce553be	-0.027994033
20	0xbb8a6960	-0.0042239875
21	0x393afc16	0.00017832252
22	0xbc7224be	-0.014779268
23	0xbcb6ae7a	-0.022299994
24	0xb95a29c8	-0.00020805665
25	0xbcf2e21a	-0.02964883
26	0x375532e6	1.270764e-05
27	0x95822980	-5.257206e-26
28	0x396298f2	0.00021610016
29	0xb82917d7	-4.0314942e-05
30	0x23cff21b	2.254552e-17
31	0x97918efa	-9.406498e-25
32	0x3c405bf3	0.011740672
33	0xb298d5aa	-1.7792292e-08
34	0xb08f0d61	-1.0408422e-09
35	0xb11fb661	-2.3241216e-09
36	0x3a4ee99f	0.00078930886
37	0x28f39be3	2.7046025e-14
38	0xbbd93c15	-0.006629477
39	0x3b8fa2cb	0.00438342
40	0xbc5837f4	-0.013196934
41	0xb9f65238	-0.00046982034
42	0x3c1680df	0.009185999
43	0xbc486a93	-0.0122324405
44	0xaf895725	-2.4982075e-10
45	0x3bf4ae26	0.007467049
46	0xbcb9c254	-0.02267567
47	0xbc267fbd	-0.010162291
48	0x1d4c4dd2	2.7039407e-21
49	0x3caa5aaa	0.020795185
50	0x3529d67d	6.326953e-07
51	0x3c3a4ecb	0.011371325
52	0xb805a323	-3.1861604e-05
53	0x3c8b857e	0.017031427
54	0x22b30bd2	4.8530562e-18
55	0xb762323a	-1.3482344e-05
56	0x2f7e8a8f	2.3150391e-10
57	0xb98c3457	-0.00026741877
58	0xbcb6fcfa	-0.022337426
59	0xbc05426c	-0.008133512
60	0x3d04e7ac	0.032447502
61	0xb5886605	-1.0162481e-06
62	0x357dcf0c	9.455114e-07
63	0xbbb00ab3	-0.005372369
64	0x3c3198cc	0.010839652
65	0x34362661	1.6964033e-07
66	0x330b3e23	3.2419972e-08
67	0x3768ca8a	1.3875435e-05
68	0xb2fb8475	-2.928048e-08
69	0xbc9c592b	-0.019085487
70	0xb69e6427	-4.720426e-06
71	0xb5a8b744	-1.2570313e-06
72	0x3c08d6af	0.008351966
73	0xbb77a34f	-0.0037786548
74	0xbc72bcf3	-0.014815557
75	0x25555b5a	1.8505756e-16
76	0xbc6e0ce9	-0.014529445
77	0x3a8da5fb	0.0010806912
78	0x3d040572	0.032231756
79	0x3b76e3e2	0.003767245
80	0x3c0bf5f4	0.0085425265
81	0xbb28e60d	-0.0025771887
82	0x3cdc25f7	0.026873572
83	0x39496305	0.00019205741
84	0x3cdf1e15	0.027236024
85	0x39c84c35	0.0003820375
86	0xba820234	-0.000991887
87	0xbc648dc1	-0.013949812
88	0x3baacd12	0.0052124346
89	0x351d59f2	5.8617945e-07
90	0x3a17f19a	0.00057961943
91	0xb904960f	-0.00012644402
92	0xb0a71932	-1.215801e-09
93	0x3be115cf	0.006869055
94	0xba6b47d3	-0.0008975241
95	0xbbf462b2	-0.0074580545
96	0xbcb15157	-0.021645231
97	0xbcf36638	-0.029711828
98	0x3c4d8a2f	0.012545153
99	0x96825cf2	-2.106129e-25
100	0xbcab368f	-0.020900039
101	0xb32d25f7	-4.031423e-08
102	0x3a9d3e4c	0.0011996715
103	0xbb201c17	-0.0024430805
104	0x9e052e0d	-7.0504845e-21
105	0x370b0c2e	8.287881e-06
106	0x3cb46eb5	0.022025445
107	0xbcd594b5	-0.026071886
108	0x9725c9a3	-5.3568877e-25
109	0xb2019d19	-7.544508e-09
110	0xba8d76e7	-0.0010792882
111	0x3c418303	0.011811021
112	0xbafa2ab6	-0.0019086215
113	0xba81cb30	-0.0009902474
114	0x199ab410	1.5995953e-23
115	0x3cfdbe99	0.030974673
116	0x3460ca3b	2.0935197e-07
117	0x3bb738dc	0.005591495
118	0xbc0b056e	-0.008485181
119	0x3ba597c4	0.0050534923
120	0xbb40a22f	-0.0029393544
121	0xbc9eb9b9	-0.019375669
122	0xb3047b58	-3.0845825e-08
123	0xbcf69a95	-0.030103007
124	0xba0607c2	-0.00051128503
125	0xbc85487d	-0.016269917
126	0x3470c8f3	2.2424847e-07
127	0x341f98c1	1.48636e-07
128	0xbd2f006d	-0.042725015
129	0x3ce2923a	0.027657617
130	0x3d1256da	0.03572736
131	0xbd8c1469	-0.068398304
132	0xbd8f5a84	-0.06999686
133	0x3b7847da	0.0037884624
134	0xbc1fe16e	-0.0097583365
135	0x3d0f026c	0.03491442
136	0x31fa1568	7.2783912e-09
137	0xbdd46ae6	-0.10371952
138	0x3c2022d3	0.009773928
139	0x3da8fd97	0.082514934
140	0x33576316	5.0148707e-08
141	0xbce93e39	-0.028472053
142	0xbc25fd33	-0.010131168
143	0xbc820e68	-0.01587601
144	0x3cc4f7dd	0.024043972
145	0xbc9807ea	-0.018558461
146	0xbc8a036c	-0.016847335
147	0x3c1dc544	0.009629551
148	0x3c7ee31a	0.015557075
149	0x3d48dbfe	0.049037926
150	0xbd5d9e73	-0.054106187
151	0xbd5b667d	-0.053564537
152	0x3dc7df3c	0.097593755
153	0x3dacfa71	0.084462054
154	0xbd327d3b	-0.04357646
155	0x3d92d016	0.071685955
156	0x3d8bd580	0.06827831
157	0xbae54f92	-0.0017495027
158	0x3cfbe542	0.030748967
159	0x3c291dbb	0.01032203
160	0xbda12efe	-0.07870291
161	0x3d888029	0.066650696
162	0x3d0c8054	0.03430207
163	0xbccee8f7	-0.02525757
164	0xbd9e9abf	-0.07744359
165	0xbdb9f202	-0.090793625
166	0xa3a99f9d	-1.8390616e-17
167	0xbd47ca78	-0.048777074
168	0x3c448fe2	0.011997195
169	0xbd110934	-0.035409167
170	0x3c7eed7c	0.01555955
171	0xbd843128	-0.06454688
172	0x3d9fc4bd	0.07801197
173	0x3d38ee4d	0.045149136
174	0x3cf0b355	0.029382387
175	0xbd83ac3c	-0.064293355
176	0x3d6b1f40	0.05740285
177	0xba4ff71d	-0.0007933246
178	0xbd4d5a66	-0.05013504
179	0x3c6b33b7	0.0143555915
180	0x3dc91cb2	0.09819926
181	0xbbdf55e6	-0.00681566
182	0x3d6429d7	0.055703964
183	0x3d9f7354	0.07785669
184	0x3da73637	0.081646375
185	0x3daaeef7	0.0834636
186	0xbc872c2a	-0.016500551
187	0xbd889dd0	-0.06670725
188	0x3d288bf7	0.041149106
189	0x3d447000	0.047958374
190	0xbca8622e	-0.020554628
191	0x3d63c550	0.055608094
192	0x3cf5f8a3	0.030025786
193	0x3d32f684	0.043692127
194	0x3d4488aa	0.047981896
195	0x3d380867	0.044929888
196	0x3d320f84	0.043471828
197	0x3c5de7f3	0.013544071
198	0xbcb78ead	-0.0224069
199	0x3d926886	0.071488425
200	0xbcb29b1a	-0.021802474
201	0x3d4ac082	0.049499996
202	0xbdad9ff4	-0.08477774
203	0x3dabe1d2	0.08392681
204	0x3d92d2f5	0.07169143
205	0xbd2cb724	-0.042166844
206	0x3caa5805	0.020793924
207	0x3d484314	0.048892096
208	0xbdb4b482	-0.08823492
209	0xbd3b181c	-0.04567729
210	0xbcec1e5d	-0.028823072
211	0x3d403a87	0.046930816
212	0x3c53d36e	0.012928827
213	0xbdc19544	-0.09452298
214	0xbd80f4ea	-0.06296714
215	0x3d2d31d0	0.042283833
216	0xbd64a9cb	-0.05582599
217	0xbc40711b	-0.011745716
218	0xbdd36d90	-0.10323632
219	0x3d4b02bf	0.049563166
220	0xbdd6fe68	-0.10497743
221	0xbde96594	-0.113963276
222	0x3cbad20f	0.022805242
223	0x3cc4db87	0.02403046
224	0xbd6d7409	-0.057971988
225	0x3d42633d	0.047457922
226	0xbd97253e	-0.0738015
227	0x3d939759	0.07206602
228	0xbd0d9964	-0.034570113
229	0xbcd98b2c	-0.02655562
230	0x3ce9e323	0.02855069
231	0x93932124	-3.7140696e-27
232	0x3db733aa	0.08945401
233	0x3caab513	0.020838296
234	0x3cdd27af	0.026996462
235	0x3c5297b9	0.012853556
236	0xbd5b40a6	-0.05352845
237	0x3b06c26f	0.0020562669
238	0xbc9dedce	-0.019278433
239	0xbd88382e	-0.066513404
240	0xbd24283d	-0.040077437
241	0x3cd9fec2	0.026610736
242	0x3da38206	0.079837844
243	0xbd9b5f7e	-0.07586573
244	0xbd527b07	-0.05138686
245	0xb58d3845	-1.0521695e-06
246	0xbd8fb188	-0.07016283
247	0x3d783b03	0.060603153
248	0x3ce11dbc	0.027479999
249	0x3ca3adc0	0.019980311
250	0xbc987f0a	-0.018615264
251	0xbd5e9ec5	-0.054350633
252	0xbc3f3c5d	-0.011672107
253	0x3dc529d9	0.096271224
254	0x3d7034c8	0.058644086
255	0xbd9fb5fb	-0.07798382

bias f4 [128]
0	0xbcfc724d	-0.030816222
1	0xbc94e49a	-0.018175412
2	0xbcab83c5	-0.020936856
3	0xbb1f106d	-0.0024271265
4	0x3b26490b	0.0025373127
5	0xbb9eeeda	-0.0048502507
6	0x3db16ecd	0.08663712
7	0xbaecc41d	-0.0018063817
8	0xbdbf9422	-0.09354426
9	0x3d171fc0	0.036895514
10	0xbd750f76	-0.059829198
11	0x3c8c4480	0.017122507
12	0x3dcfbc73	0.10143366
13	0xbcbfb40e	-0.023401286
14	0x3c9f34e8	0.019434407
15	0x3d6319f5	0.055444676
16	0xbc02a18e	-0.007973088
17	0x34828aed	2.431547e-07
18	0xbd4ec349	-0.050479207
19	0xbd70b62a	-0.058767475
20	0xbdbfbf2d	-0.09362636
21	0xbd8073f4	-0.06272116
22	0xbcaa2cba	-0.02077328
23	0xbd1de48a	-0.03854803
24	0x3d9fcf0e	0.078031644
25	0x3c57d9e4	0.013174508
26	0xbd30f2ff	-0.04320049
27	0x3c4eb5d1	0.012616591
28	0xbcb370f8	-0.021904454
29	0xbcb2f48e	-0.021845128
30	0x3b7a0d05	0.0038154733
31	0xbd7ca026	-0.061676167
32	0xbd2e4b17	-0.04255208
33	0x3d1bf278	0.038073033
34	0xbbfc35b7	-0.007696833
35	0xbcd7dc29	-0.026350098
36	0xbca8c471	-0.020601483
37	0xbd8389d5	-0.06422774
38	0xbda628cb	-0.081132494
39	0xbd07f99a	-0.033197023
40	0xbc3ffa7a	-0.011717433
41	0xbd9f2c63	-0.07772138
42	0x3d77d312	0.060504027
43	0xbd1cffac	-0.038329765
44	0x3dbfdc53	0.093681954
45	0x3d8d29d4	0.06892744
46	0x3c867607	0.016413702
47	0xbcd35006	-0.025794994
48	0x3d637af6	0.055537187
49	0x3d9b7496	0.075905964
50	0x3d6802c8	0.056643277
51	0xbd1d86ab	-0.038458508
52	0x3bddee6a	0.006772806
53	0x3db40596	0.08790128
54	0x3d0bbc76	0.034115277
55	0x3d338a8b	0.043833297
56	0xbd638cbb	-0.055554133
57	0xbd349434	-0.04408665
58	0x3da36716	0.079786465
59	0xbd0adab3	-0.033899974
60	0xbd98a3a5	-0.07453088
61	0xbd84a97a	-0.064776376
62	0x3d34da44	0.044153467
63	0x3cd6b408	0.026208892
64	0x3d52641a	0.051364996
65	0xbda354b3	-0.079751395
66	0x3d3e517c	0.04646443
67	0xbd8e2bfa	-0.069419816
68	0xbd0c351a	-0.03423033
69	0x3cbe7c73	0.023252701
70	0x3d9d684c	0.07685909
71	0xbcbd2932	-0.023090933
72	0xbce15390	-0.027505666
73	0x3ac8d988	0.0015323618
74	0x3daf6c16	0.08565538
75	0x3c3a5d58	0.011374794
76	0x3d8aee4e	0.06783734
77	0x3cc802ce	0.0244154
78	0x3d3bca26	0.04584708
79	0x3d5b0270	0.05346912
80	0x3c4e300b	0.0125846965
81	0x3d58998a	0.0528808
82	0xbc8c2520	-0.017107546
83	0xbd906aa4	-0.0705159
84	0xb40390bd	-1.2252981e-07
85	0x3d18ed56	0.037335716
86	0xbd3629ad	-0.04447334
87	0x3a625c74	0.00086349924
88	0x3b4adaf5	0.0030953262
89	0x3db9e9ac	0.090777725
90	0x3c6b05f5	0.014344682
91	0xbd04639b	-0.032321554
92	0x3cd5193d	0.026013011
93	0x3b9f224f	0.004856385
94	0x3b9d432a	0.0047992663
95	0x3d163f24	0.03668131
96	0x3db564ee	0.088571414
97	0xbd5c6acc	-0.053812787
98	0x3d400fba	0.046889998
99	0x3ccd96c5	0.025096307
100	0x3d831489	0.06400401
101	0x3811ce9d	3.4763118e-05
102	0xbd769516	-0.060200773
103	0x3d83d6db	0.06437465
104	0x3dac3cba	0.0841002
105	0xa401d5c2	-2.8153476e-17
106	0x3dda4a28	0.106586754
107	0xbd6c7ae5	-0.05773439
108	0x3d1b08c0	0.03785014
109	0x3da3b405	0.079933204
110	0xbcec9689	-0.028880375
111	0xbd40afcf	-0.047042664
112	0xbdad6c31	-0.084679015
113	0x3dd89b48	0.105764925
114	0x3db087be	0.08619641
115	0xbcf3d6ba	-0.029765476
116	0xadb361dc	-2.0393402e-11
117	0x3bf8e304	0.0075954217
118	0xbcd59b2a	-0.026074965
119	0x3cdc72db	0.026910236
120	0x3c72aeca	0.014812181
121	0xbac01844	-0.0014655669
122	0x3d602a52	0.05472786
123	0x3cb65b77	0.02226041
124	0x3c394602	0.011308195
125	0x3d8aff1c	0.067869395
126	0x3d910c5f	0.07082438
127	0x3d12ff17	0.035887804

weight f4 [1, 128]
0	0x3ccb2a0f	0.024800329
1	0x3d546b24	0.05185999
2	0xbdb7ca5a	-0.089741424
3	0x3cf69a87	0.030102981
4	0x3cc438c9	0.023952859
5	0xa936035f	-4.0415042e-14
6	0x3d88c702	0.06678583
7	0xbc79a5ed	-0.015237314
8	0xbd537cfa	-0.05163286
9	0x3bfcd5ba	0.007715908
10	0x3cf3b197	0.029747767
11	0x3b16b412	0.0022995514
12	0xbdefecda	-0.11715098
13	0xbde7c317	-0.11316507
14	0x3da3ef61	0.08004642
15	0xbdce90f0	-0.100862384
16	0xbdb0eecf	-0.08639299
17	0x3a825efc	0.000994652
18	0xbd1b90d2	-0.03797991
19	0x3d6378f3	0.055535268
20	0xbdc23928	-0.09483558
21	0x3d429de6	0.047513865
22	0x19f7e829	2.563297e-23
23	0x3da88a17	0.082294635
24	0x3d2b0838	0.041755885
25	0xbd5e48c8	-0.05426863
26	0x3d310b8a	0.043223895
27	0x3d68d0e1	0.056839827
28	0xbccea138	-0.02522336
29	0xbdb76b82	-0.08956052
30	0x3d21f05e	0.039535873
31	0x3d460193	0.048341345
32	0xbd026f3e	-0.03184437
33	0x3d913672	0.07090463
34	0x3d22d5cd	0.039754678
35	0x3db4d2f3	0.08829298
36	0x3d213421	0.039356355
37	0xbd76ae2d	-0.0602247
38	0xbde27675	-0.1105775
39	0x3cf3ff52	0.029784832
40	0x3c793602	0.01521063
41	0xbd9c0bda	-0.07619448
42	0x3d926a69	0.071492024
43	0x3d735121	0.059403542
44	0xbdda3e27	-0.10656386
45	0xbd801842	-0.06254627
46	0x3d93b8d1	0.07212985
47	0xbda7c1ad	-0.081912376
48	0x3d6b1948	0.057397157
49	0x3cccdb51	0.025006922
50	0x3c920da0	0.017828763
51	0xbd72d4f0	-0.059285104
52	0x3c2ceeb7	0.010554961
53	0xbdbf6c8d	-0.09346876
54	0xbd99313a	-0.07480092
55	0x3d20b243	0.039232504
56	0xbd026834	-0.031837657
57	0x3ca0afc0	0.019615054
58	0xbd944952	-0.07240547
59	0x3d635a5d	0.0555061
60	0xbd6a2a7c	-0.057169423
61	0xbd7b6d35	-0.061383445
62	0x3dc1aedd	0.09457181
63	0xbda10b83	-0.07863524
64	0x3d7f99da	0.062402584
65	0xbd92f23e	-0.0717511
66	0x3dc98fd4	0.09841886
67	0x3da49bf7	0.080375604
68	0xbd94f3ff	-0.07273101
69	0x3bc1cbfc	0.0059142094
70	0xbdab473c	-0.08363196
71	0xbd83c858	-0.06434697
72	0xaf20ce2f	-1.4625166e-10
73	0x3d42141f	0.04738247
74	0xbdb494f1	-0.08817471
75	0xbdd3a515	-0.10334221
76	0x3c3e6705	0.011621241
77	0x3d9202a5	0.07129411
78	0xbda21863	-0.07914808
79	0x3cb225d4	0.021746553
80	0xbde8ba4b	-0.113636576
81	0xbe048f1a	-0.12945214
82	0xbb461412	-0.0030224365
83	0x3d8a72e0	0.06760192
84	0xbcc274ac	-0.023737274
85	0x3d86848d	0.06568251
86	0x3d1a2151	0.03762943
87	0xb814f4dd	-3.5513996e-05
88	0x3cb27192	0.02178267
89	0x3ce3dfbd	0.027816648
90	0xbd2ea2cb	-0.04263572
91	0xb6ba7f12	-5.558025e-06
92	0x3cf826a2	0.030291859
93	0xbe010f76	-0.12603554
94	0xbdb92032	-0.09039344
95	0xbe0311b5	-0.12799723
96	0xbdc022fe	-0.09381674
97	0x3cddc31c	0.027070574
98	0xbde89fc8	-0.11358601
99	0xbd3ed08d	-0.04658561
100	0x3dddb4ef	0.10825526
101	0xbbd89b31	-0.006610297
102	0x3db21957	0.086962394
103	0x3d502bfc	0.050823197
104	0x3c6ef5f1	0.014585004
105	0xb2fe41ca	-2.959941e-08
106	0xbd5e9cc3	-0.05434872
107	0xbd8c48f3	-0.068498515
108	0xbd50f7f4	-0.051017717
109	0x3d779456	0.0604442
110	0x3caf7854	0.021419682
111	0xbd9169bc	-0.07100245
112	0xbd960d3a	-0.073267415
113	0xbdc78626	-0.09742384
114	0x3c9cb941	0.019131305
115	0x3dcb6a88	0.099324286
116	0xb97bf085	-0.00024026826
117	0x3daed472	0.085366145
118	0x3d9416e6	0.0723093
119	0x3d2ec6af	0.04266995
120	0xbd868624	-0.06568554
121	0xb1652334	-3.3343897e-09
122	0xbd2f5cf0	-0.04281324
123	0x3d9eb890	0.07750046
124	0x3d86a00f	0.065734975
125	0xbd4257ff	-0.0474472
126	0x3dabd29a	0.083897784
127	0xbdf15b84	-0.11785033
