c220g2_bips.pt (torch, 87964 bytes, 6 tensors)

weight f4 [128, 5]
0	0x3dc8bc4b	0.09801539
1	0x3ec4ce8b	0.3843883
2	0x3da6607d	0.081238724
3	0x3df6c47b	0.120491944
4	0xbe54dff8	-0.20788562
5	0xbe165314	-0.1468013
6	0xbe885c59	-0.26632956
7	0x3e9f39c6	0.31098765
8	0xbca4453b	-0.020052543
9	0x3e6cb699	0.2311653
10	0xbc93824c	-0.018006466
11	0xbeab8353	-0.3349863
12	0xbe537488	-0.20649922
13	0x3e4566ee	0.19277546
14	0x3e291d2f	0.16515039
15	0xbe3cfec6	-0.18456563
16	0xbe9b9332	-0.3038574
17	0x3edb8c61	0.42880538
18	0xbc2653c2	-0.010151805
19	0x3e93ac3a	0.28842336
20	0xbe047b11	-0.12937571
21	0x00009e7c	5.6853e-41
22	0x8002d45b	-2.5985e-40
23	0x8000afb8	-6.3036e-41
24	0xba9f049b	-0.001213211
25	0x3e9c17ed	0.30487004
26	0x3cfa7ca5	0.030577013
27	0x3e543b58	0.20725763
28	0xbca9dc27	-0.02073486
29	0x3e96948b	0.29410204
30	0x3c638ffe	0.013889311
31	0xbec2fe01	-0.38084415
32	0x3e8b3f96	0.2719695
33	0xbe77d65c	-0.24202865
34	0x3edbaf63	0.42907247
35	0x3d191056	0.037369095
36	0x3efadcbc	0.48996532
37	0xbda72ac5	-0.081624545
38	0x3ed44961	0.41462234
39	0xbdf1050b	-0.1176854
40	0xbdb5c7b7	-0.08875983
41	0xbeaa09b4	-0.33210528
42	0x3d358bef	0.044322904
43	0x3d92add3	0.071620606
44	0x3e1a7bf0	0.15086341
45	0x3d10869f	0.035284635
46	0xbdca2bec	-0.09871659
47	0x3c7d3a84	0.015455846
48	0x3cd244c7	0.025667561
49	0xbeafa121	-0.3430262
50	0xba72dfdf	-0.0009264927
51	0x0000b754	6.5766e-41
52	0x8000aeac	-6.266e-41
53	0x9fd54ed5	-9.0339426e-20
54	0x8000a523	-5.924e-41
55	0x3eefdedf	0.46849725
56	0x3ea516bc	0.32243907
57	0x3c93dfb5	0.018051008
58	0xbf06f280	-0.52713776
59	0xbd6fd147	-0.05854919
60	0xbe8bc062	-0.27295214
61	0x3e5d0258	0.21582925
62	0x3e123b29	0.1428038
63	0x3dc21d78	0.09478277
64	0x3d803aca	0.06261213
65	0x3ec4fc13	0.38473567
66	0xbed11cd4	-0.40842307
67	0xbcd4fbfa	-0.025999058
68	0xbe8e4874	-0.27789652
69	0xbe6eac07	-0.2330781
70	0x3e8dee70	0.27720976
71	0xbd99dbaa	-0.07512601
72	0xbdc5435f	-0.09631991
73	0xbf233065	-0.6374572
74	0xbe5778bf	-0.21042155
75	0x3edd0b0a	0.43172485
76	0x3c2117e0	0.009832352
77	0x3e2abcf1	0.16673638
78	0x3e225207	0.15851603
79	0xbeb1c608	-0.34721398
80	0xbde46918	-0.111528575
81	0x3ed3d390	0.41372347
82	0x3dfa89f7	0.12233346
83	0x3db048c8	0.08607632
84	0x3e03078e	0.1279585
85	0xbe7d6ddd	-0.24748941
86	0x3e39ffb4	0.18163949
87	0x3e23099f	0.15921639
88	0xbdf8cd82	-0.121485725
89	0x3e5ea954	0.21744281
90	0x3ca35cde	0.019941743
91	0x3e304f84	0.17217833
92	0xbdfd9234	-0.12381402
93	0x3d23c3d7	0.03998169
94	0x3e42f419	0.19038428
95	0x8000bc49	-6.7544e-41
96	0x3db6043d	0.08887527
97	0xa190e2bf	-9.817839e-19
98	0x3bc85c02	0.006114484
99	0xbdcee7c5	-0.101028
100	0xbeb1f6cf	-0.34758613
101	0xbe035dc1	-0.12828733
102	0xbe551fcf	-0.20812915
103	0x3f0ce5d4	0.5503819
104	0x3da84097	0.082154445
105	0x3d666cbf	0.056256052
106	0xbcd0f2d9	-0.025506424
107	0x3ebe0ff0	0.37121534
108	0xbe87f647	-0.26555082
109	0x3de19d96	0.11016385
110	0xbeb652c5	-0.35610023
111	0xbec311d5	-0.38099542
112	0xbe4a2c45	-0.1974345
113	0x3df84a31	0.12123526
114	0x3e2b3c9c	0.1672234
115	0xbec63190	-0.38709688
116	0xbd9c817f	-0.07641887
117	0xbc223a4e	-0.009901596
118	0xb93f0f77	-0.0001822094
119	0xbe995ba3	-0.29952726
120	0x3ded08ae	0.11573921
121	0xbf0b6dbf	-0.54464334
122	0x3e5b1e9e	0.21398398
123	0xbe8d9832	-0.27655178
124	0x3e89b7d6	0.26898068
125	0x3e7494c5	0.23884876
126	0xbd741b74	-0.059596494
127	0x3e0e09f7	0.13870989
128	0xbeedf00e	-0.4647221
129	0x3da53250	0.08066237
130	0x3e9fdb64	0.3122207
131	0xbea29450	-0.31753778
132	0x3ebc0967	0.36725923
133	0xbeede3f0	-0.46462965
134	0x3e8d4b4e	0.27596515
135	0xbc80bd4c	-0.015715264
136	0xbedd5c55	-0.43234506
137	0x3ed6ea47	0.41975614
138	0xbf202943	-0.6256296
139	0x3e675d7d	0.22594257
140	0x3eb84e05	0.35997024
141	0x3ea7e434	0.32791293
142	0xbce96128	-0.02848871
143	0xbf12d13b	-0.5735051
144	0x3ea9daa2	0.33174616
145	0xbe92dea0	-0.28685474
146	0xbe06e35a	-0.13172665
147	0x3e76e0cb	0.24109189
148	0xbe69f906	-0.22848901
149	0x3e7424bf	0.23842143
150	0xbe1f1430	-0.15535045
151	0xbdc7ea74	-0.09761515
152	0x32ea560d	2.7280317e-08
153	0xbc2d5950	-0.010580376
154	0xbdb5fb1c	-0.08885786
155	0xbe1b3dc7	-0.15160285
156	0xbdb0b3f9	-0.08628077
157	0xbd9100d4	-0.07080236
158	0xbd158a97	-0.036509123
159	0xbe078460	-0.13234091
160	0xbd802d15	-0.06258599
161	0xbde2c608	-0.11072928
162	0x3c1871cf	0.009304478
163	0x3e35a298	0.17737806
164	0xbe99546e	-0.29947227
165	0x3d418ce0	0.04725349
166	0xbeacdc42	-0.33761793
167	0x3e931be1	0.28732207
168	0xbd66fba0	-0.056392312
169	0x3e50bbec	0.20384187
170	0x3ed26c2a	0.41098148
171	0xbe960af0	-0.2930522
172	0x3dd62cec	0.10457787
173	0xbee54554	-0.44779456
174	0x3da390ab	0.079865776
175	0x3ee41736	0.4454896
176	0xbe00ee1e	-0.12590834
177	0x3ea50ef8	0.32237983
178	0x3e550607	0.2080308
179	0x3e835bd1	0.25655988
180	0x3e544724	0.20730263
181	0x3e9e860a	0.3096164
182	0xbc154397	-0.009110353
183	0x3dea9e92	0.11456026
184	0xbeac778d	-0.3368496
185	0x3d4ee34b	0.050509732
186	0xbe8bf279	-0.2733343
187	0x3e0a9ee1	0.1353717
188	0xbdb84b3e	-0.08998726
189	0xbd2764a0	-0.040867448
190	0x3eba9b82	0.36446768
191	0xbe933d6c	-0.287578
192	0x3e0b9d9e	0.13634345
193	0x3b8dfb3b	0.0043329275
194	0x3ec42128	0.38306546
195	0xbe47ece2	-0.19523957
196	0xbe929566	-0.28629607
197	0x3eff21c4	0.4983045
198	0xbe9c53ad	-0.3053259
199	0x3e1f8dd9	0.15581454
200	0x3ec1acf7	0.37827274
201	0xbe9c158e	-0.30485195
202	0x3c172b0d	0.009226573
203	0xbe26fb34	-0.16306764
204	0x3e09f6dc	0.13473076
205	0xbc6e179f	-0.014531999
206	0x8000a042	-5.749e-41
207	0x3cfa3eeb	0.03054758
208	0x0000ba85	6.691e-41
209	0x8000a3bf	-5.8741e-41
210	0xbeb4fa78	-0.35347342
211	0xbea2afbd	-0.31774703
212	0xbabf21fb	-0.001458227
213	0xbe0f2ed3	-0.13982706
214	0xbeca988a	-0.39569503
215	0xbd916a92	-0.07100405
216	0x3e2fc5bc	0.17165273
217	0xbdb9f4d1	-0.09079898
218	0x3b11c8bf	0.0022244898
219	0xbd27a012	-0.04092414
220	0xbebf6240	-0.37379646
221	0x3ed209ee	0.410232
222	0xbc0e3f13	-0.00868203
223	0xbd7894b6	-0.060688697
224	0xbeab0cd2	-0.3340822
225	0x3eb8ea28	0.36116147
226	0xbebd571e	-0.36980528
227	0x3bf55ea5	0.007488089
228	0xbeea85fc	-0.45805347
229	0xbd81ba1c	-0.06334326
230	0xbe6734eb	-0.2257878
231	0x3d10ad7e	0.035321705
232	0x3e9e3c72	0.3090549
233	0xbd93b416	-0.07212083
234	0x3e0bcc63	0.13652186
235	0x3e5e6a01	0.21720125
236	0xbeefe328	-0.46852994
237	0x3ef34827	0.47515985
238	0xbeaf6956	-0.34260052
239	0x3e7a6f5b	0.24456541
240	0x38c407f5	9.3474904e-05
241	0x3927bc54	0.00015996519
242	0x3dccd579	0.10001654
243	0x3171e44c	3.5199887e-09
244	0xbb8f3f9a	-0.0043715956
245	0x3eb3ec27	0.35141107
246	0x3e9669f2	0.29377705
247	0x3d2bd963	0.041955363
248	0x3d5381e1	0.051637534
249	0xbe7404f7	-0.23830019
250	0xbda2254d	-0.07917271
251	0xbd8686af	-0.065686576
252	0x3a919cc7	0.0011109345
253	0x8000b1fc	-6.3849e-41
254	0xbe0a3613	-0.1349719
255	0x3ef62066	0.48071593

bias f4 [128]
0	0x3cb64475	0.02224944
1	0x3e69ab27	0.22819196
2	0x3e09dfcd	0.1346428
3	0xbc351488	-0.011052258
4	0x826d69b4	-1.7442345e-37
5	0x3d87dc7c	0.06633851
6	0x3ee0e0f4	0.43921626
7	0x3e8e8bd1	0.27841046
8	0xbde152db	-0.110021316
9	0x3e7ffd5c	0.24998993
10	0xbe1a6867	-0.15078889
11	0xbe4ce5c8	-0.2000953
12	0x3debc27d	0.11511705
13	0x3df2779d	0.11839221
14	0x3e27299e	0.1632447
15	0xbe02de85	-0.12780197
16	0xbe6a64aa	-0.22889963
17	0xbe505b86	-0.20347413
18	0x3e8b35e4	0.27189553
19	0xbdc8657d	-0.09784982
20	0x3eaee4ef	0.34159037
21	0x3edb488c	0.42828786
22	0xbddda7f0	-0.10823047
23	0x3e0b379f	0.13595437
24	0x3e8db150	0.2767434
25	0x3ea9c485	0.33157745
26	0xbe3fac56	-0.18718085
27	0x3ee3287f	0.44366834
28	0xbd14e8ff	-0.036355015
29	0xbd98011e	-0.07422088
30	0x87afdd47	-2.6461129e-34
31	0x3efd042b	0.49417242
32	0x3ef186ff	0.47173306
33	0xbcfcabd7	-0.030843658
34	0x3e35f6e8	0.17769969
35	0x3edb5136	0.42835397
36	0x3e586e84	0.21135908
37	0x3ec5760a	0.3856662
38	0xbe642bd7	-0.22282349
39	0x3dab71e0	0.08371329
40	0xbe32eca0	-0.17473078
41	0xacf03afa	-6.827758e-12
42	0x3eb163b7	0.3464639
43	0x3d269d1d	0.04067718
44	0x3e4af170	0.19818664
45	0x3e5aed63	0.21379618
46	0x3ced32f1	0.028954955
47	0xbe3ec92f	-0.18631433
48	0xb8d7ba25	-0.00010286671
49	0xbe809c15	-0.2511908
50	0xbb222478	-0.0024740975
51	0xbe45f9d4	-0.19333583
52	0x3e709b2b	0.23496692
53	0xbd2a6869	-0.04160348
54	0x3e762af3	0.24039821
55	0xbe69a182	-0.22815517
56	0x3d6d5abf	0.05794787
57	0xbd3dac13	-0.04630668
58	0x3e8af0a3	0.27136716
59	0xbd7d696e	-0.061868124
60	0x3ed93754	0.42425025
61	0x3de151e6	0.11001949
62	0x850ca7ca	-6.613586e-36
63	0x3e934455	0.2876307
64	0x90e8b369	-9.178429e-29
65	0xbaa558de	-0.0012614985
66	0xbd904e67	-0.07046204
67	0x3e7a2530	0.24428248
68	0xbe8b4d45	-0.2720739
69	0x3ea386c7	0.31938764
70	0x3e13e602	0.1444321
71	0x3eeb9efa	0.46019727
72	0x3e395a89	0.18100943
73	0xbed6cc5d	-0.41952792
74	0x3ebfdd60	0.37473583
75	0x3ed0e2c1	0.40798
76	0x3e89c857	0.2691066
77	0x3eae0b7f	0.33993146
78	0x3edcce50	0.43126154
79	0x3db0e01c	0.086364955
80	0x3cb3dd92	0.021956239
81	0x3eea2dba	0.45738012
82	0x3ed3d865	0.41376033
83	0x3ec7d475	0.3902928
84	0x3d58d93d	0.05294155
85	0xbe309168	-0.17242968
86	0xb3822ec1	-6.062101e-08
87	0x3ca86877	0.020557625
88	0x3e0a8a72	0.13529375
89	0xb02dbfc7	-6.3209565e-10
90	0xbe850660	-0.25981426
91	0x3e7e46bd	0.24831672
92	0xbe059b96	-0.13047633
93	0x3ef0f7c1	0.4706402
94	0x3e46ca40	0.1941309
95	0x3d5a68af	0.05332249
96	0x8000b6ad	-6.5532e-41
97	0xbe86ae7b	-0.26304993
98	0xbd4f05b3	-0.050542545
99	0xbeab2699	-0.33427885
100	0x3e41bb8a	0.18919197
101	0x3e242528	0.16029799
102	0xbbb51aef	-0.0055268924
103	0x0000c1f8	6.9583e-41
104	0xbd919164	-0.07107809
105	0x3ee4b5b3	0.44669876
106	0xbe3e82e5	-0.1860462
107	0x3ddfc748	0.10926682
108	0xbe196fd1	-0.14984061
109	0x3ec635f1	0.3871303
110	0xbd8f4d17	-0.069971256
111	0xbed73f8e	-0.42040676
112	0x3e6345b1	0.22194554
113	0x3e2167ea	0.15762296
114	0x8000ae24	-6.247e-41
115	0xbdd828df	-0.105546705
116	0x3eb40d43	0.35166368
117	0xbda57638	-0.08079189
118	0x8000aaf5	-6.1328e-41
119	0x8000a458	-5.8955e-41
120	0x8000b128	-6.3552e-41
121	0x3c03aff0	0.008037552
122	0xbecf2f26	-0.4046566
123	0xbe41c921	-0.18924381
124	0x3eb395d0	0.35075235
125	0x3e3eb0c3	0.18622117
126	0xbe08700a	-0.1332399
127	0xbe9b6841	-0.30352977

weight f4 [128, 128]
0	0x3cd3b075	0.025840977
1	0x3d5af9cf	0.053460892
2	0xbaba7829	-0.0014226484
3	0x3d3ae5c0	0.045629263
4	0x0000ae74	6.2582e-41
5	0x3d723140	0.059129
6	0x3c365224	0.011127982
7	0x3d27bd45	0.040951986
8	0xbcf41648	-0.02979578
9	0x3b164409	0.0022928736
10	0x8000bc89	-6.7634e-41
11	0x3b6f8433	0.0036547303
12	0xbc4c2682	-0.012460353
13	0x3bb29869	0.0054502976
14	0xbc4adaf5	-0.012381305
15	0x3c048d70	0.008090362
16	0x3cef53fc	0.029214852
17	0x3cae384f	0.021267084
18	0xbd0f574d	-0.034995366
19	0x8000a1b1	-5.8004e-41
20	0x3cd82a84	0.02638746
21	0x3b23c48c	0.0024988977
22	0xbcd204ae	-0.025636997
23	0xbc03d157	-0.008045516
24	0xbcfe8bf2	-0.03107259
25	0x3d050459	0.03247485
26	0xbd351716	-0.04421147
27	0xbcdfbc42	-0.027311448
28	0xbbbbd2f8	-0.0057319365
29	0xbc5554a2	-0.013020666
30	0x0000b00c	6.3154e-41
31	0x3d702f7c	0.058639035
32	0x3bd1f38b	0.0064072064
33	0xbcef7322	-0.029229704
34	0xbc75214a	-0.01496155
35	0xbd54fac9	-0.05199698
36	0x3bcb1daf	0.006198607
37	0x3d20dffa	0.0392761
38	0x3d5a9d65	0.05337276
39	0xbc955a0c	-0.018231414
40	0xbd68580c	-0.056724593
41	0x0000b244	6.395e-41
42	0xbccd83cc	-0.02508726
43	0xbced1fb6	-0.028945785
44	0x3c7c16ad	0.015386266
45	0xbce66573	-0.028124547
46	0x3c67a639	0.014138752
47	0x3c534158	0.012893997
48	0xba3f6ab0	-0.00073019695
49	0x3c9d1ec2	0.019179706
50	0x80009fc4	-5.7313e-41
51	0x3c69cc2a	0.014269868
52	0xba989799	-0.0011641859
53	0xbc82f659	-0.015986608
54	0xbd38aa83	-0.045084488
55	0xbc08fb38	-0.0083606765
56	0xbc72f921	-0.014829905
57	0x0000b338	6.4292e-41
58	0xbc213471	-0.009839163
59	0x80009cfa	-5.6313e-41
60	0x3d6972a5	0.0569941
61	0xbd8faa7f	-0.070149414
62	0x0000c183	6.9419e-41
63	0xbd6441e2	-0.055726893
64	0x0000a931	6.0694e-41
65	0x8000b037	-6.3214e-41
66	0xbbd4cd5e	-0.0064942082
67	0x3cbc1927	0.022961212
68	0x3baadd40	0.0052143633
69	0xbd7ccc3f	-0.06171822
70	0xbc47d5d3	-0.012196976
71	0x3ca706fd	0.020389074
72	0x3cc680e8	0.02423139
73	0xbcdb6e9d	-0.026786143
74	0x3c61d92a	0.013784686
75	0x3d5181f1	0.051149312
76	0xbc27f98a	-0.010252366
77	0x3ca2eb9f	0.019887744
78	0xbc494cb8	-0.012286358
79	0xbd240aba	-0.040049292
80	0x3d4a7a31	0.049432937
81	0x3c48f0f5	0.01226448
82	0x3d1fd388	0.03902009
83	0x3ce273c0	0.027643085
84	0xbd75309e	-0.059860818
85	0x3d517f0e	0.05114656
86	0x34579dd4	2.0080853e-07
87	0x3cf7ce13	0.030249631
88	0xbb091181	-0.0020914974
89	0x34074cf9	1.2600857e-07
90	0x3b0c64bd	0.002142235
91	0x3c877afd	0.016538138
92	0x3ca72df9	0.020407664
93	0xbd6e403a	-0.05816672
94	0x3c11fcd8	0.00891038
95	0x3c22b8d8	0.0099317655
96	0x0000bf9f	6.874e-41
97	0x3cc05278	0.023476824
98	0xbd0d1ba7	-0.0344502
99	0xbd3972ac	-0.045275375
100	0x3c643644	0.013928954
101	0x3b054b44	0.0020339051
102	0x3d5b6c37	0.05357
103	0x8000bfad	-6.876e-41
104	0x8000b78a	-6.5841e-41
105	0x3d5690e5	0.052384276
106	0x3d5cacee	0.053875856
107	0xbc45247e	-0.012032626
108	0x3d4f7ec0	0.050657988
109	0x3d0e38e0	0.03472221
110	0x3bb9d828	0.00567152
111	0x3d2ee21e	0.04269611
112	0xbd438b8a	-0.047740497
113	0xbcf55a32	-0.029950235
114	0x8000a04a	-5.7501e-41
115	0x3bd7aa1d	0.0065815584
116	0x3d950d28	0.072779
117	0xbd0320d0	-0.032013714
118	0x8000bb70	-6.724e-41
119	0x0000baf3	6.7065e-41
120	0x8000b015	-6.3166e-41
121	0x3dc4fb5c	0.096182555
122	0x3c031c59	0.008002364
123	0xbb1bb64e	-0.0023759785
124	0x3d30585f	0.043053027
125	0x3d0673cf	0.032825287
126	0x8000b1a3	-6.3724e-41
127	0xbcb5867c	-0.022158854
128	0xbc9bf162	-0.019035999
129	0xbbe85d02	-0.0070911655
130	0xbd4670f4	-0.048447564
131	0xbc4bb691	-0.012433664
132	0x8000b61b	-6.5327e-41
133	0x3da799ba	0.08183618
134	0x3d7c0c12	0.06153495
135	0xbbeb30bd	-0.007177441
136	0x3da0a3b7	0.07843726
137	0xbd814936	-0.06312792
138	0x0000b910	6.6388e-41
139	0x3d3269f4	0.043558076
140	0xbe0492f4	-0.12946683
141	0x3de506a8	0.1118291
142	0x3c739c96	0.014868876
143	0xbdc6f3a7	-0.09714442
144	0x3d3b26ee	0.045691423
145	0x3c80e633	0.015734768
146	0xbc7d2131	-0.015449808
147	0x8000a67a	-5.972e-41
148	0xbdb86614	-0.09003845
149	0xbc9663a5	-0.018358061
150	0xbcf76aab	-0.03020223
151	0xb923be4c	-0.00015615782
152	0x3cdc3c61	0.02688426
153	0xbbdaaf3b	-0.006673721
154	0xbd340b25	-0.04395594
155	0xbd2dbec6	-0.042418264
156	0x3d8e0a0a	0.069355085
157	0x3c3c3850	0.011488035
158	0x8000ab0a	-6.1357e-41
159	0xbdcc98d0	-0.09990084
160	0xbe18626b	-0.14881293
161	0x3d5f3b59	0.054499958
162	0x3d0d86f6	0.034552537
163	0xbd3822b2	-0.044954963
164	0xbc993b56	-0.018705051
165	0xbcb951c4	-0.022621997
166	0xbd8ea7b8	-0.069655836
167	0x3cdfcd79	0.027319657
168	0xbbfb871a	-0.0076760175
169	0x0000a5a1	5.9416e-41
170	0xbd62161a	-0.05519686
171	0x3a765d8b	0.0009398094
172	0xbb161cc0	-0.002290532
173	0xbd5e0193	-0.05420072
174	0x3de2fee3	0.11083772
175	0x3d2e3ad9	0.04253659
176	0x389f7776	7.603962e-05
177	0xbdefd937	-0.11711352
178	0x00009ed3	5.6975e-41
179	0x3d301a26	0.042993687
180	0x3d5bb679	0.053640816
181	0xbe198a08	-0.14994061
182	0x3d09134e	0.033465676
183	0x3dc39a7c	0.0955095
184	0x3dd0ac62	0.101891294
185	0x0000a3bc	5.8737e-41
186	0x3cd7cd8c	0.02634313
187	0x80009f78	-5.7207e-41
188	0xbd39b494	-0.04533823
189	0xbb973a7b	-0.0046151257
190	0x0000b64a	6.5393e-41
191	0xbd39a221	-0.045320634
192	0x8000c033	-6.8948e-41
193	0x8000a520	-5.9236e-41
194	0xbd9b1ee4	-0.07574251
195	0x3e241908	0.16025174
196	0x3cd233ae	0.025659408
197	0x3d91abd2	0.0711285
198	0xbd29667e	-0.04135751
199	0xbe0737ae	-0.13204834
200	0x3d0fa317	0.035067644
201	0xbcb46ed6	-0.022025507
202	0xbd64a4ed	-0.055821348
203	0xbdda5d65	-0.10662345
204	0x3c9d3207	0.019188894
205	0xbd69bb63	-0.05706347
206	0x3dbc8871	0.09205712
207	0xbd224ba9	-0.039622936
208	0x3d5cbbff	0.053890225
209	0x3c345ec5	0.011008923
210	0xbc9814c5	-0.018564591
211	0x3db7000e	0.08935557
212	0x3e0a61a6	0.13513812
213	0x3d95d5b5	0.07316152
214	0x0000c0b8	6.9134e-41
215	0xbd7d4c5b	-0.061840396
216	0xbaac25ab	-0.0013133785
217	0x8000b127	-6.355e-41
218	0xbcc1ba53	-0.023648417
219	0xbd352292	-0.044222422
220	0xbd0485a5	-0.032354016
221	0x3dbbf45f	0.091774695
222	0xbe090068	-0.13379061
223	0xbc54c7e8	-0.0129871145
224	0x0000b05d	6.3267e-41
225	0xbd9c804a	-0.07641657
226	0x3be53054	0.0069942866
227	0x3d9f7d26	0.07787542
228	0xbdbb8e76	-0.09158032
229	0xbd27df50	-0.04098445
230	0x3d07a0fc	0.03311251
231	0x0000c0e5	6.9198e-41
232	0x8000a9a6	-6.0858e-41
233	0xbacd256d	-0.0015651413
234	0xbd8d960e	-0.06913386
235	0x3c70833f	0.014679729
236	0xbcd8c34d	-0.026460314
237	0xbd62cb0b	-0.055369418
238	0x3d48b019	0.048996065
239	0xbc81169b	-0.01575785
240	0x3d981d6b	0.07427486
241	0x3a6199cc	0.00086059864
242	0x0000b0ca	6.342e-41
243	0xbdb9a270	-0.090641856
244	0xbddf5628	-0.10905105
245	0x3c836f7c	0.01604437
246	0x8000b152	-6.361e-41
247	0x80009ff8	-5.7386e-41
248	0x8000a316	-5.8504e-41
249	0x3e22a158	0.1588186
250	0x3bbdd2a8	0.0057929344
251	0xbd3d8f4d	-0.04627924
252	0xbd3bb264	-0.045824423
253	0x3c1bceb2	0.009509729
254	0x8000adda	-6.2366e-41
255	0x3d03f737	0.032218184

bias f4 [128]
0	0x3c95b223	0.018273419
1	0xbcfd15c2	-0.030894164
2	0x3c9000f3	0.017578578
3	0x3c033653	0.008008557
4	0x3d148600	0.036260605
5	0x3d096766	0.033545874
6	0x3db6f72b	0.08933862
7	0xbcea6773	-0.028613782
8	0x3cd19db4	0.025587894
9	0xbd37edb1	-0.044904415
10	0xbcf29c95	-0.02961568
11	0x3d1545d1	0.036443535
12	0x3d8bc0db	0.06823894
13	0x3d19caad	0.037546802
14	0x3d7a8bc5	0.06116845
15	0x3daaf948	0.08348328
16	0x3cb43d40	0.022001863
17	0xbc1988a6	-0.009370958
18	0x3e01836c	0.1264779
19	0x3d66b7ac	0.056327507
20	0xb9236cf5	-0.00015585481
21	0x3da81bc6	0.08208422
22	0x3d9c8955	0.076433815
23	0x3c0b8604	0.0085158385
24	0xbcd6b55d	-0.026209528
25	0x3d2e759f	0.04259264
26	0x3db505de	0.0883901
27	0x3ba227d0	0.0049485937
28	0xbd11e378	-0.03561732
29	0xbbd3a9fe	-0.0064594736
30	0xbcf5cf44	-0.030006059
31	0x3de988f7	0.11403077
32	0x3d87f8c6	0.06639247
33	0xbd9fdb0d	-0.078054525
34	0x3bfa04d8	0.007629972
35	0x3c23aafc	0.009989496
36	0x3d563963	0.052300822
37	0xbb776732	-0.0037750718
38	0x3dc52dcd	0.096278764
39	0x3e049de0	0.1295085
40	0xbd9f1128	-0.07766944
41	0xbcb159e0	-0.021649301
42	0x3d8aa307	0.06769376
43	0xbc810f0f	-0.01575425
44	0x3c8480af	0.016174642
45	0x3d7b1657	0.0613006
46	0x3c94dd7b	0.018172016
47	0xbc678928	-0.014131822
48	0x3cc5dadd	0.024152214
49	0x3da574fb	0.08078953
50	0x3d4b33f1	0.049610082
51	0x3decea4d	0.11568127
52	0xbdd148fb	-0.10218998
53	0xbd30410b	-0.04303078
54	0x3d509c3b	0.050930243
55	0xbdc55297	-0.096348934
56	0xbd44481e	-0.04792034
57	0xbd128d14	-0.035779074
58	0x3da51469	0.080605336
59	0xbd575e82	-0.052580364
60	0x3d65a9b4	0.056070045
61	0xbcc4d02a	-0.024025042
62	0x3db107e7	0.086440854
63	0xbb7b265e	-0.003832243
64	0x3df9fbb2	0.1220621
65	0x3de13bd4	0.109977394
66	0x3dfa5c33	0.12224617
67	0x3c21b82e	0.009870572
68	0x3d5d81c4	0.054078832
69	0xbc9c40c6	-0.019073855
70	0x3d75a9cc	0.059976384
71	0x3d52af8b	0.051436942
72	0x3d5690e4	0.052384272
73	0x3cad4a04	0.021153457
74	0xbceb45f8	-0.028719887
75	0x3cb990b3	0.022652006
76	0xbc3d76e8	-0.011563994
77	0x3df77a70	0.120839
78	0x3c174201	0.009232045
79	0x3d95a5cf	0.07307016
80	0xbcbd5390	-0.023111135
81	0x3d6a53c2	0.057208784
82	0xbd89f54b	-0.06736239
83	0x3d7f37eb	0.062309187
84	0x3d5b7a8e	0.053583674
85	0xbca96e2f	-0.020682422
86	0x3d5d3566	0.054006003
87	0x3da00ddc	0.078151435
88	0xbd4b0652	-0.049566574
89	0xbd4fdd12	-0.05074794
90	0xbd256365	-0.040377993
91	0x3b818ddc	0.0039536785
92	0x3d864bb8	0.06557411
93	0x3d5b66c5	0.053564806
94	0x3b1e5d63	0.002416455
95	0xbc6440e4	-0.013931487
96	0x3cc835de	0.024439748
97	0xb797c2e1	-1.809135e-05
98	0xbd54bbea	-0.05193702
99	0xbd2d145a	-0.042255737
100	0x3d9b1701	0.07572747
101	0x39a59879	0.00031584853
102	0xbd4bc664	-0.049749747
103	0x3d7d429d	0.061831106
104	0xbc1998b1	-0.009374783
105	0x3d28ac87	0.04118016
106	0x3cf3d4e7	0.029764606
107	0x3d18e72f	0.03732985
108	0x3bd6584b	0.006541287
109	0x3d2e72bf	0.0425899
110	0x3c15d101	0.009144069
111	0x3da039b6	0.078235075
112	0x3d9c6bf2	0.076377764
113	0x3ca0df88	0.019637838
114	0x3da1bd3d	0.078974225
115	0xbc63c7c5	-0.013902609
116	0xbde728d4	-0.11287084
117	0x3cf7e637	0.030261142
118	0xbd4029cc	-0.04691486
119	0xbb03d942	-0.002011851
120	0x3bbc0900	0.0057383776
121	0xbcba42c1	-0.022736909
122	0xbcdcc7e5	-0.026950786
123	0x3ab302db	0.0013657467
124	0xbc416a0a	-0.011805067
125	0xbd055e22	-0.032560475
126	0x3d60054f	0.054692563
127	0xbc50b82b	-0.012739222

weight f4 [2, 128]
0	0x3d590a7a	0.052988507
1	0x3d83f9e6	0.06444149
2	0x3d6dfbd2	0.058101483
3	0x3d4df763	0.050284754
4	0x3daa13e4	0.08304575
5	0x3dcad3ad	0.09903655
6	0x3d46f7b3	0.048576068
7	0xbca1d8bd	-0.01975667
8	0x3ccbddd0	0.024886042
9	0x3d1a76bb	0.037710886
10	0x3d502f9c	0.050826654
11	0xbdfd7098	-0.12374991
12	0xbd62d9ed	-0.05538361
13	0x3db24762	0.087050214
14	0x3d939f48	0.07208115
15	0x3dc9ffb6	0.09863226
16	0x3d41a785	0.0472789
17	0x3d5d8703	0.054083835
18	0x3d0127f1	0.03153223
19	0x3dc5559a	0.09635468
20	0x39311473	0.00016887653
21	0x3d982cc0	0.074304104
22	0x3d62ab4f	0.055339154
23	0x3d830079	0.063965745
24	0xbdc72b0e	-0.09725009
25	0x3dbacd4b	0.09121188
26	0xbd34f723	-0.044181
27	0xbb498bb1	-0.0030753429
28	0x3cb128f3	0.021625971
29	0xbcc72a9c	-0.02431231
30	0xbd14e1bb	-0.036348086
31	0x3c99eca7	0.018789602
32	0x3d51652e	0.051121883
33	0xbe1088d0	-0.1411469
34	0x3b644667	0.0034832002
35	0x3d0596c8	0.0326145
36	0xbdc836c5	-0.097760715
37	0x3db07e76	0.086178705
38	0x3da33a51	0.07970107
39	0xbd85e3f0	-0.06537616
40	0xbdc6e9de	-0.097125754
41	0xbdd2393e	-0.10264824
42	0xbda168fa	-0.07881351
43	0x3dd4f97e	0.10399149
44	0x3d4268eb	0.04746334
45	0xbe11e13b	-0.14246075
46	0x3dd71496	0.10501973
47	0xbd71ce9e	-0.059034936
48	0x3d9f4609	0.0777703
49	0x3d6f4581	0.058415893
50	0xbdb6e83d	-0.08931015
51	0x3d9c3c73	0.07628717
52	0xbdb49967	-0.08818322
53	0x3da5e266	0.08099823
54	0x3d5b6015	0.053558428
55	0xbdce861e	-0.100841746
56	0x3da7263c	0.081615895
57	0xbcdcfa78	-0.026974902
58	0x3dff3009	0.12460334
59	0x3db44a10	0.08803189
60	0x3d6a3f99	0.057189558
61	0x3dc29ede	0.09502958
62	0xbdbdc79d	-0.09266589
63	0x3b13ff1f	0.0022582484
64	0x3dcc774a	0.0998369
65	0x3d511129	0.051041756
66	0x3d75d8c4	0.060021177
67	0x3d5ec317	0.05438527
68	0xbcc36d9a	-0.023855973
69	0x3cb2b07d	0.021812672
70	0x3d78a4fe	0.060704224
71	0x3d964c1f	0.07338738
72	0x3dad8fcc	0.08474693
73	0xbd66b859	-0.05632815
74	0x3cd2b964	0.025723167
75	0x3d9a0eee	0.07522379
76	0x3d83f755	0.06443659
77	0x3d6bdc3c	0.05758308
78	0x3db3cc55	0.087792076
79	0xbe12d637	-0.14339529
80	0xbd44176b	-0.047873896
81	0xbd942d5a	-0.072352126
82	0xbd2b565e	-0.041830413
83	0x3ba8532c	0.005136868
84	0xbdbd98bc	-0.092576474
85	0xbd513172	-0.051072545
86	0x3d49b854	0.049248055
87	0x3d3fbb7d	0.046809662
88	0xbd379dc7	-0.044828203
89	0xbda8e8b4	-0.082475096
90	0xbcb1f5c5	-0.021723637
91	0xbb419ddb	-0.0029543552
92	0x3d599945	0.053124685
93	0x3e10cbf8	0.14140308
94	0x3dd96ee1	0.106168516
95	0x3d2a58c2	0.041588552
96	0x3dbadf97	0.09124678
97	0x3d9dac2a	0.07698853
98	0x3c005941	0.00783378
99	0x3df06608	0.11738211
100	0x3da89507	0.0823155
101	0x3958d5a4	0.00020678953
102	0xbd7fbd3f	-0.06243634
103	0x3caabefc	0.020843022
104	0xbd49b625	-0.049245972
105	0x3dd1d456	0.10245578
106	0x3d002a21	0.031290177
107	0xbd8c61e7	-0.06854611
108	0x3dc12c50	0.0943228
109	0x3dfe0cbe	0.12404774
110	0x3cf208de	0.029545244
111	0x3d99bed7	0.07507103
112	0x3d94a57a	0.07258125
113	0x3dbf5c89	0.093438216
114	0x3c89f033	0.016838169
115	0x3d32749f	0.04356825
116	0xbda54db6	-0.08071463
117	0x3df5589e	0.11979793
118	0xbd49fb81	-0.04931212
119	0x3dafb38b	0.08579167
120	0xbcc22c8e	-0.023702886
121	0x3c06fe45	0.0082393335
122	0x3d9fa901	0.07795907
123	0xbdbace3b	-0.091213666
124	0xbb63f96d	-0.003478612
125	0xbcbb6b6d	-0.022878373
126	0xbd7d769b	-0.06188069
127	0xbb842322	-0.0040325085
128	0x3db80394	0.089850575
129	0xbd728d63	-0.059216868
130	0x3db7945f	0.089638464
131	0x3c39ca9f	0.011339813
132	0xbbd1bb6a	-0.0064005153
133	0xbcb6c30e	-0.022309806
134	0xbd195fc3	-0.03744484
135	0x3a359e3a	0.00069281796
136	0x3d0211ca	0.031755246
137	0x3d2a7472	0.041614957
138	0xbcccf4d1	-0.025019081
139	0x3cad9db7	0.021193368
140	0xbdf5ec77	-0.12007993
141	0xbd1985fd	-0.037481297
142	0xbd1fe5ca	-0.039037503
143	0xbb1f16e0	-0.002427511
144	0xbc0ff92e	-0.008787436
145	0x3d3c662b	0.045995872
146	0xbca3a021	-0.019973816
147	0xbdb3b880	-0.08775425
148	0x38937269	7.030817e-05
149	0x3d58fc69	0.052975092
150	0x3e043485	0.1291066
151	0xbb2d4c3f	-0.0026443151
152	0x3ca656ca	0.020305056
153	0xbc24bdb0	-0.010054991
154	0x3ada88a6	0.0016672804
155	0x3a37df09	0.0007014131
156	0xbd627737	-0.055289473
157	0x390d4961	0.00013474144
158	0x3aee93ec	0.0018202043
159	0xbcf55aec	-0.029950581
160	0xbc6c8c9d	-0.014437822
161	0x3d07bfec	0.033142015
162	0x3b8746d8	0.0041283183
163	0x3d218e3e	0.039442293
164	0xbb8ac8e4	-0.004235374
165	0x3d118ef8	0.035536736
166	0xbc5eb3fc	-0.013592716
167	0x3d587063	0.052841555
168	0x3dd42192	0.103579655
169	0x3da9a86b	0.08284076
170	0x3c10fc7f	0.008849262
171	0x3b2033fc	0.0024445048
172	0x3c9ac40a	0.018892307
173	0x3c8a03c5	0.0168475
174	0xbda5e1a8	-0.08099681
175	0xbad526df	-0.0016262195
176	0x3bd9cfb2	0.0066470737
177	0xbd69f1fd	-0.057115544
178	0x3c7a8add	0.015291897
179	0x3d1334cf	0.035939034
180	0x3d9638e0	0.07335067
181	0x3c3af89d	0.011411813
182	0xbd2f0122	-0.04272569
183	0x39cd56f9	0.00039165447
184	0x3d66a83e	0.056312792
185	0x3a285ec7	0.00064228143
186	0x3d173872	0.036919065
187	0xbc389599	-0.011266136
188	0xbd5bbb6f	-0.053645547
189	0x3bd5faf8	0.006530162
190	0xbd2da63e	-0.04239487
191	0x3ba87c5d	0.0051417784
192	0x3d74c8c3	0.059761774
193	0xbb4cb24a	-0.0031234198
194	0xbb8641e6	-0.004097211
195	0xbd25f6ea	-0.04051868
196	0x3c43cf96	0.011951348
197	0xbd8c89d8	-0.06862229
198	0xbc1e32b5	-0.009655644
199	0xbd51d149	-0.05122498
200	0x3bde3486	0.0067811636
201	0xbc0532f2	-0.008129822
202	0x3c616e45	0.0137592
203	0x3d46b8d1	0.0485161
204	0x3cf0a2e1	0.029374542
205	0xbd71c806	-0.059028648
206	0xbd71bffa	-0.059020974
207	0xbb742f95	-0.0037259806
208	0x3d60f4a0	0.054920793
209	0x3cfb0f61	0.030646982
210	0xbac84d02	-0.0015281739
211	0x3dd8fa37	0.105946
212	0x3dfa5e32	0.122249976
213	0xbd6ca5e9	-0.05777541
214	0xbd727905	-0.059197444
215	0x3c261b9a	0.010138417
216	0xbbc7c49e	-0.0060964366
217	0x3d91fcf7	0.07128327
218	0x3adcf651	0.0016858076
219	0x3a1003e3	0.0005493743
220	0xbd14b3d5	-0.036304314
221	0xbd3411ab	-0.043962162
222	0x3ce4c6b7	0.027926786
223	0x3d4c0a46	0.049814485
224	0xbcb7a22a	-0.022416193
225	0x3cf6f51f	0.03014618
226	0x3cd176ca	0.025569338
227	0x3cb972ca	0.022637744
228	0x3da65302	0.08121301
229	0xbabdb964	-0.0014474806
230	0xbcdceb97	-0.026967807
231	0xbd9c4758	-0.07630795
232	0x3e161562	0.14656594
233	0xbb14242e	-0.0022604573
234	0x3db0426d	0.0860642
235	0xbc009b4e	-0.0078495275
236	0xbd0d7ed0	-0.034544766
237	0x3d02897b	0.031869393
238	0x3d1d2ab8	0.038370818
239	0xbd3c3068	-0.0459446
240	0x3cf7eb1c	0.030263476
241	0x3d800e04	0.06252673
242	0xbd98865b	-0.07447501
243	0xba356346	-0.0006919395
244	0x3e20f358	0.15717828
245	0xbd4d1245	-0.05006625
246	0x3dc4320b	0.095798574
247	0x3d079a16	0.033105932
248	0x39ab7b14	0.00032707362
249	0xbdb7c39e	-0.08972858
250	0xbd4b528d	-0.049639273
251	0xbc9e3d63	-0.01931638
252	0x39e7173f	0.00044077073
253	0x3ab4635a	0.0013762519
254	0x3d3952a9	0.045244846
255	0x3a5be62d	0.0008388486

bias f4 [2]
0	0x3da807ff	0.0820465
1	0x3d385831	0.04500598
