c220g2_power.pt (torch, 84632 bytes, 7 tensors)

pkg_bias f4 [2]
0	0x3da3e3d6	0.08002441
1	0xbd71c731	-0.059027854

weight f4 [128, 7]
0	0x3d792163	0.060822856
1	0x3e541e1a	0.20714608
2	0x3dab584e	0.08366452
3	0xbe8cc740	-0.27495766
4	0xbd416d40	-0.04722333
5	0x3e498ba2	0.19682172
6	0xbe360833	-0.17776565
7	0xbe3be700	-0.18349838
8	0xbe078a98	-0.13236463
9	0x3ebc3690	0.36760378
10	0xbdfad921	-0.12248445
11	0xbd18bbe7	-0.037288573
12	0x3e78fd33	0.24315338
13	0x3e0ee9ed	0.13956423
14	0xadd02f40	-2.3667845e-11
15	0x80042370	-3.80055e-40
16	0xbdc5357b	-0.09629341
17	0x3c0d1086	0.0086098965
18	0xbe3e4c2a	-0.18583742
19	0x3e52d573	0.20589237
20	0xa5597563	-1.8861522e-16
21	0xbe6e7660	-0.23287344
22	0xbe6ca40e	-0.23109457
23	0x3e60c62c	0.21950597
24	0xbe19bc05	-0.1501313
25	0x3e5db8d0	0.21652532
26	0x3eaa4f33	0.3326355
27	0x3e1c5ec2	0.15270522
28	0xbd5bff9e	-0.053710572
29	0xbe73c7c9	-0.2380668
30	0xbe89998c	-0.2687496
31	0x3edeab22	0.4348994
32	0x3e8b869c	0.27251136
33	0x3e3c0942	0.18362907
34	0xbdc0e2a7	-0.094182305
35	0x3ec69c8b	0.38791308
36	0x3e9acc61	0.30234054
37	0x3e97ef92	0.29674965
38	0xbeb9f433	-0.36319122
39	0x3cfaa18a	0.030594606
40	0x3c83391f	0.016018448
41	0x3d3365f4	0.043798402
42	0x3ebf19df	0.37324426
43	0x3e8972f6	0.2684552
44	0x3da2d39e	0.07950519
45	0x3ea462a3	0.32106504
46	0x3d017804	0.031608596
47	0x3ceee736	0.029162984
48	0xbeaaf2be	-0.33388323
49	0x3e19657e	0.14980122
50	0xbd8b7472	-0.068093196
51	0x3e677f70	0.22607207
52	0xb992f55a	-0.0002803009
53	0x3eb27b45	0.34859672
54	0x3da717c8	0.08158833
55	0x3e83f969	0.25776222
56	0xbe140c8c	-0.14457911
57	0xbd9c5d10	-0.07634938
58	0xbe6c6e2c	-0.23088902
59	0xbd4f47f4	-0.05060573
60	0xbe44920b	-0.19196336
61	0x3e383c22	0.17991689
62	0x3e2c174e	0.16805765
63	0xbeb1d045	-0.3472921
64	0xbe263da5	-0.16234453
65	0xbeb7ab62	-0.35872942
66	0xbdb081a6	-0.086184785
67	0x3d8bb0c9	0.068208285
68	0x3e67bcfc	0.22630686
69	0x3ea1c852	0.31598145
70	0xbe1dc87f	-0.15408514
71	0x3e98a4a4	0.2981311
72	0xbe6af6fe	-0.22945783
73	0xbd950639	-0.072765775
74	0x3d39c67e	0.045355313
75	0xbe7b1bb0	-0.2452228
76	0x3d807576	0.06272404
77	0x3e6feb32	0.23429564
78	0x3e3b198d	0.18271466
79	0x3e3f1138	0.18658912
80	0xbd10d307	-0.0353575
81	0xbe61eb93	-0.2206252
82	0x3d45c64c	0.048284814
83	0xbce2495c	-0.027622871
84	0xbe931fde	-0.2873525
85	0x3e82c519	0.25541
86	0xbde36849	-0.11103875
87	0xbe4ce44f	-0.20008968
88	0x3e77272f	0.24136041
89	0xbe16489b	-0.14676134
90	0x3cdb6ac3	0.026784306
91	0xbe032291	-0.12806155
92	0x8000c1a8	-6.9471e-41
93	0xbe0fdec7	-0.14049827
94	0x8ad3868c	-2.0369172e-32
95	0x2ef0b083	1.0945291e-10
96	0x3e1f9ce0	0.15587187
97	0x0000b948	6.6466e-41
98	0x3e40c4dd	0.18825097
99	0x3e96ec1c	0.29477012
100	0xbe9c840e	-0.305695
101	0x3e1f26b2	0.15542105
102	0x3e5a619f	0.21326302
103	0x3e935819	0.2877815
104	0x3ca06a0b	0.019581815
105	0xbc9c482e	-0.019077387
106	0x3d663c33	0.056209754
107	0xbe97af57	-0.2962596
108	0xbeb6207b	-0.35571656
109	0x3ea74238	0.32667708
110	0xbe5703f7	-0.20997606
111	0x3e3dd802	0.18539432
112	0x3ea1d09a	0.31604463
113	0x3e134bf9	0.1438445
114	0x3e3ac06b	0.18237464
115	0x3dff9878	0.12480253
116	0x3e037d87	0.12840854
117	0xbe0c9169	-0.13727345
118	0xbe1e8a42	-0.15482429
119	0xbe8b647c	-0.272251
120	0x3c2f0252	0.010681706
121	0x3e4bf32b	0.1991698
122	0xbeabe412	-0.3357244
123	0x3df7484d	0.12074337
124	0x3d4ab2d3	0.049486946
125	0xbdba07e9	-0.0908354
126	0x3ec01895	0.37518755
127	0xbeab918a	-0.33509475
128	0x3e8e6e49	0.27818516
129	0x3dcf6dcd	0.10128365
130	0x3e717910	0.23581338
131	0x3eb07206	0.34461993
132	0x3e1b9513	0.15193586
133	0xbe16a401	-0.14711
134	0xbe69eb84	-0.22843748
135	0xbeb4d388	-0.35317636
136	0xbd8bc93d	-0.068254925
137	0x3d5fdd45	0.05465438
138	0xbe3845a4	-0.17995316
139	0x3da078c7	0.078355365
140	0x3df1debe	0.11810063
141	0x3e97c88e	0.296452
142	0x3d171c14	0.03689201
143	0x3dc4b3d7	0.09604614
144	0x3e3b9a6c	0.18320626
145	0x3e3cc3c2	0.1843405
146	0x3e2cc08f	0.1687033
147	0x3e4ed126	0.20196971
148	0xbe0e1ade	-0.13877437
149	0x3e37986c	0.17929238
150	0x3dda5542	0.10660793
151	0xbe183de5	-0.14867361
152	0x3e95e954	0.29279578
153	0x3de2efeb	0.11080917
154	0xbeaab42d	-0.33340588
155	0x3e2b319e	0.16718146
156	0x3eb3e020	0.3513193
157	0x3db2dd4d	0.08733616
158	0xbe87a9e6	-0.2649681
159	0x3ea7de19	0.32786635
160	0x3e36e6fd	0.17861553
161	0xbd3361b8	-0.043794364
162	0xbd7236a9	-0.05913416
163	0x3d68fbff	0.056880947
164	0x3e95b052	0.29236084
165	0xbea55531	-0.32291558
166	0x3cb6cd62	0.022314731
167	0x398136d9	0.00024645662
168	0xbc2bc6b6	-0.010484388
169	0xbe52e466	-0.2059494
170	0x3e433c5c	0.19065994
171	0xbdb20bd7	-0.086936645
172	0x3c61c525	0.013779913
173	0xbe724509	-0.23659147
174	0x3e1f3a6e	0.15549633
175	0xbebc9980	-0.3683586
176	0x3e8f3297	0.27968284
177	0xbe38b12f	-0.1803634
178	0x3e926979	0.28596094
179	0xbde0b237	-0.10971492
180	0xbceac8e8	-0.028660253
181	0x3e15c709	0.14626707
182	0xbd7ab2ef	-0.0612058
183	0x3e18c917	0.1492046
184	0x3d9d358b	0.07676228
185	0x3d202e3b	0.03910659
186	0x3eb6ba1d	0.35688868
187	0xbe93726c	-0.28798234
188	0x3ea7252a	0.3264554
189	0x3db921bf	0.0903964
190	0x3e856697	0.26054832
191	0x3ebc7767	0.36809847
192	0xbe85e3f8	-0.2615049
193	0x3ec8e801	0.39239505
194	0x3d9aa5d6	0.07551162
195	0xbe938247	-0.2881033
196	0x3e13202c	0.14367741
197	0xbe37cfa2	-0.179503
198	0x3d29f959	0.041497562
199	0x3e96589f	0.29364488
200	0x3d023c5d	0.03179585
201	0xbdaccc18	-0.08437365
202	0x3e9d75e6	0.30754012
203	0xbd54744b	-0.051868718
204	0xbe35e1c2	-0.17761901
205	0x3ecd4912	0.4009481
206	0x3c6b81bc	0.014374193
207	0x3e75ee18	0.24016607
208	0x3e79649e	0.24354789
209	0xbe193735	-0.14962466
210	0x3e5c8271	0.21534134
211	0xbddba5b2	-0.10724963
212	0xbe0f45df	-0.13991497
213	0xbe3c6b23	-0.18400244
214	0xbcd7c1b1	-0.026337476
215	0xbd2df2ed	-0.042468
216	0xbe2111ca	-0.15729442
217	0x3ebc8711	0.36821797
218	0x3df25503	0.11832621
219	0xbdcc0c7b	-0.09963318
220	0xbd364a73	-0.044504594
221	0x3cfb483d	0.030674094
222	0x3e928a25	0.2862102
223	0xbd8e05c8	-0.069346964
224	0x3e179247	0.14801894
225	0xbea5c315	-0.32375398
226	0x3e1d3863	0.15353541
227	0x3ed1b5d1	0.40959027
228	0x3e073bf8	0.1320647
229	0x3ea41f8d	0.3205532
230	0xbd82c226	-0.06384687
231	0x8003f37b	-3.62851e-40
232	0x800cc601	-1.173056e-39
233	0xbe1e64f7	-0.15468203
234	0xbdce2764	-0.10066107
235	0xbd8ad056	-0.06778018
236	0x3dbb8abf	0.09157323
237	0x2d89330b	1.5597764e-11
238	0xbdb1cf1c	-0.08682081
239	0xbbaa1afe	-0.005191206
240	0x3eab9072	0.3350864
241	0x3d5b6866	0.05356636
242	0xbd4065cf	-0.046972092
243	0x3e602dbf	0.21892451
244	0xbe6129d8	-0.21988618
245	0x22b5efb8	4.931396e-18
246	0xbe1d4b80	-0.15360832
247	0xbdcef726	-0.101057336
248	0xbd600459	-0.054691646
249	0xbbe738ee	-0.007056347
250	0x3bc50555	0.0060125985
251	0xbd7fbb13	-0.062434267
252	0x3dfbb01c	0.122894496
253	0x3e1b9e9f	0.15197228
254	0x3e82fa55	0.25581613
255	0xbebf646f	-0.37381312

bias f4 [128]
0	0xbdda0565	-0.1064556
1	0x3e9111ae	0.283338
2	0x82952959	-2.1917315e-37
3	0xbe53f70e	-0.20699713
4	0x3df6d7f0	0.120529056
5	0xbe77e69c	-0.24209064
6	0x3ec85fc8	0.39135575
7	0xbe9eaf20	-0.30992985
8	0xbe8b53ba	-0.27212316
9	0x3e951c07	0.29122946
10	0xbdc0119d	-0.093783595
11	0xbd159925	-0.036523003
12	0xbe94aa03	-0.2903596
13	0xbe6051a1	-0.21906139
14	0xbe889a18	-0.26680064
15	0xbdcd7a7d	-0.100331284
16	0xbe602130	-0.2188766
17	0x3e838d11	0.25693563
18	0x3e8c4dbc	0.27403057
19	0x3e7baf17	0.2457851
20	0xbe804f79	-0.25060633
21	0x3df21f5e	0.11822389
22	0xbe18d13a	-0.14923564
23	0xbcb3e7d8	-0.021961138
24	0x3dfd2257	0.123600654
25	0xbe8aa671	-0.2708011
26	0x3c2b5a25	0.010458504
27	0x3e903817	0.28167793
28	0xbc9aaab5	-0.018880228
29	0xbe976d03	-0.29575357
30	0x3e89a121	0.26880744
31	0x3c432e08	0.01191283
32	0xbd182120	-0.037140965
33	0xbe18ce3d	-0.14922424
34	0x3eb12cc2	0.3460446
35	0xbcab8ed8	-0.020942137
36	0xbcd4e754	-0.025989212
37	0xbd39a71f	-0.045325395
38	0x3ea11d06	0.31467456
39	0xbe45f1d1	-0.19330527
40	0x3e6539fd	0.22385402
41	0xbea6794f	-0.32514426
42	0xbc31fdc2	-0.010863723
43	0xbc2554b5	-0.0100909965
44	0xbc09c705	-0.008409266
45	0xbe8e3cfb	-0.277809
46	0xbebebf6f	-0.37255427
47	0x3e29345b	0.16523878
48	0x3e89a3b7	0.26882717
49	0x3e78b67b	0.24288361
50	0x3e82007f	0.25391003
51	0x3bcbbaeb	0.0062173507
52	0xbdfdc3b1	-0.12390841
53	0x3eb8af0b	0.36071047
54	0xbeaaa5e0	-0.33329678
55	0xbe3f0b4a	-0.1865665
56	0x3de4596d	0.11149869
57	0xbd7944e5	-0.06085672
58	0xbe38e846	-0.18057355
59	0xbe5f62e1	-0.21815063
60	0x3eb3b8fb	0.35102066
61	0x3d11b178	0.035569638
62	0xbd02d7f7	-0.03194424
63	0xbe02c001	-0.12768556
64	0x3e981a79	0.29707697
65	0x3df82440	0.12116289
66	0xbdf1c60a	-0.11805351
67	0xbe25c201	-0.16187288
68	0x3e3f6af5	0.18693145
69	0x3e9b72f7	0.3036115
70	0xbe9f11bd	-0.3106822
71	0x3eaeb3ef	0.34121653
72	0xbd219525	-0.039448876
73	0x3e0d98c6	0.1382781
74	0xbdbcebf9	-0.09224696
75	0xbe3e0716	-0.1855739
76	0x3e9d2c89	0.3069804
77	0x3e4367f8	0.1908263
78	0x3e681174	0.22662908
79	0x3e588106	0.21142969
80	0x3d1504f2	0.03638167
81	0xbe5f3b48	-0.21799958
82	0x3ea64e44	0.32481587
83	0x3e439e23	0.19103293
84	0xbdf18989	-0.11793811
85	0x3da446d0	0.08021319
86	0xbe7abd2c	-0.24486226
87	0x3ea61167	0.32435152
88	0xbd9101ad	-0.07080398
89	0xbd90b7b7	-0.07066291
90	0x3e21bc40	0.15794468
91	0xbdb029d3	-0.08601727
92	0xbe47e863	-0.19522242
93	0x3d1d5d37	0.038418975
94	0x3e84a3d4	0.2590624
95	0x3e9293a4	0.28628266
96	0x3e8edb57	0.27901718
97	0xbe92ca83	-0.2867013
98	0x3ce522f9	0.027970778
99	0xbdc6015d	-0.09668229
100	0xbe1b5587	-0.15169345
101	0xbb14c33e	-0.0022699381
102	0x3e491576	0.19637093
103	0x3d98acc5	0.07454828
104	0x3e61e216	0.22058901
105	0xbceb4bcb	-0.028722664
106	0x3e9cf4f7	0.30655643
107	0x3dba9f9a	0.09112473
108	0x3a1b47fe	0.00059235084
109	0x3e6179e1	0.2201915
110	0x3ea16bde	0.3152761
111	0x3e74a983	0.23892789
112	0x3daceaef	0.084432475
113	0x3e25167e	0.16121861
114	0xbeaab44e	-0.33340687
115	0xbe6c25bb	-0.23061268
116	0x3e25d577	0.16194712
117	0xbd2a4da1	-0.04157794
118	0x3e35b752	0.17745712
119	0xbac29fb3	-0.001484862
120	0xbeb56196	-0.35426015
121	0x3e360bb3	0.177779
122	0xbe66ee95	-0.2255195
123	0x3ebd1ad9	0.36934546
124	0x3eb6884f	0.3565087
125	0x3e850c06	0.25985736
126	0xbd540ec6	-0.0517719
127	0xbeb21543	-0.34781846

weight f4 [128, 128]
0	0x3daadd93	0.08343043
1	0xbd7fac14	-0.062419966
2	0x0000c2e7	6.9918e-41
3	0x3c1460a6	0.009056246
4	0xbd25fdd6	-0.04052528
5	0xbd875f1f	-0.0660994
6	0xbc657d96	-0.014006993
7	0xbd29de94	-0.041472033
8	0xbd0ae5a5	-0.033910412
9	0xbdbb194b	-0.091356836
10	0xbc3cff5f	-0.011535495
11	0x3d500d93	0.050794195
12	0x3ba668c9	0.0050784093
13	0x93057b9f	-1.684791e-27
14	0x3d1f6094	0.038910463
15	0xbd858540	-0.06519556
16	0x3daad154	0.083407074
17	0x3dd4d336	0.10391848
18	0x3dacc3be	0.08435772
19	0xbc34f1f5	-0.011044015
20	0xbd3420e9	-0.043976698
21	0xbcd59aee	-0.026074853
22	0x3c5d8335	0.013520052
23	0xbcf7c9cb	-0.03024759
24	0xbd46e9fa	-0.04856298
25	0xbd1448f7	-0.036202397
26	0x3cada1aa	0.021195251
27	0x3d894f5b	0.06704589
28	0x3ce573f6	0.028009396
29	0xbdf1979e	-0.11796497
30	0x3d972ab1	0.073811896
31	0x3e0ebd25	0.1393934
32	0x3d524fc1	0.05134559
33	0x0000a484	5.9017e-41
34	0xbc8421c5	-0.016129384
35	0x0efab1b6	6.1800888e-30
36	0xbd4a99e0	-0.049463153
37	0x3c95d433	0.018289661
38	0xbda5043f	-0.080574505
39	0x82cdd357	-3.0243346e-37
40	0xbd08fdce	-0.033445172
41	0x3d7684c4	0.06018521
42	0x3d312c66	0.043255232
43	0x3ca01d79	0.019545304
44	0xbb4984ac	-0.0030749245
45	0x3c807f1e	0.015685614
46	0x3c676b94	0.01412477
47	0x3cfcf72c	0.03087958
48	0x3dd6c2e0	0.10486388
49	0x3d534761	0.051581744
50	0x3db3387b	0.08751007
51	0x3d063dd8	0.032773823
52	0x8000b995	-6.6574e-41
53	0xbbea293f	-0.00714603
54	0x3cdbbba0	0.026822865
55	0xbcad5c80	-0.021162271
56	0xbd840ea4	-0.06448105
57	0x3c8d1f9a	0.017226983
58	0xb3cb563c	-9.46861e-08
59	0x3b8ff1b8	0.004392829
60	0xbc4cdbda	-0.012503589
61	0x3dafdf65	0.08587531
62	0xbd39fb77	-0.04540583
63	0xbcea69ad	-0.028614843
64	0x3da395ca	0.07987554
65	0x3dd6f7f4	0.10496512
66	0x3d9d6fe3	0.07687356
67	0xbb81065e	-0.0039375266
68	0x3c0efccb	0.008727263
69	0x3d967cb3	0.07348003
70	0x3bfd883e	0.0077371886
71	0x3bb0a74f	0.0053910385
72	0x0b18b0fa	2.9407278e-32
73	0x3dd22def	0.102626674
74	0x0554fad1	1.001426e-35
75	0x1ffb8014	1.0651452e-19
76	0x3dd6242a	0.104561165
77	0x3d92bde3	0.07165124
78	0xbd2a7424	-0.041614667
79	0x3d8872a1	0.06662489
80	0xbd030c65	-0.031994242
81	0xbd329a78	-0.043604344
82	0xbda7b94c	-0.081896394
83	0x3c8b1653	0.016978418
84	0x3d38b467	0.04509392
85	0x3c967e90	0.018370897
86	0xbd265c2a	-0.04061524
87	0x3dc29a94	0.0950214
88	0x3d868c7a	0.065697625
89	0xbd7ad3da	-0.061237194
90	0x3d18a7bf	0.03726935
91	0x2f572f0a	1.9570848e-10
92	0xb3e1a2ce	-1.0506993e-07
93	0xbd2b7a1d	-0.041864503
94	0x3daf38c9	0.08555753
95	0xbd1a2e20	-0.037641644
96	0xbd473d76	-0.048642598
97	0xbc8df449	-0.017328398
98	0x3d39be49	0.045347486
99	0xbd1240da	-0.03570638
100	0x3d461355	0.04835828
101	0x8000be78	-6.8327e-41
102	0xbd825f39	-0.063658185
103	0xbcd63fc8	-0.02615346
104	0x3d8d2718	0.06892222
105	0xbdf3fc73	-0.11913385
106	0xbc84f685	-0.01623083
107	0x3d261f66	0.040557288
108	0x3da4dd5b	0.08050033
109	0xbca503be	-0.020143386
110	0xbd7376e5	-0.05943956
111	0x3cdd0224	0.02697856
112	0xbc58ee6b	-0.013240437
113	0x3c8879a5	0.016659567
114	0xbd2f75e5	-0.042837042
115	0xbda65fbf	-0.08123731
116	0x3c9b9126	0.01899011
117	0x3b9805c9	0.0046393615
118	0x3da8e559	0.082468696
119	0xbc350010	-0.011047378
120	0xbc4345c1	-0.011918486
121	0x3d7a4601	0.061101917
122	0x3cc8efb6	0.024528366
123	0xbca0c4a5	-0.019625017
124	0x3ca04d7f	0.019568203
125	0x3d02f4cd	0.03197174
126	0xbd7620b6	-0.06008979
127	0xbc833a3a	-0.016018976
128	0xbc5abb32	-0.013350295
129	0x3daebcff	0.08532142
130	0xaa84098d	-2.3454537e-13
131	0x3cd9565e	0.02653044
132	0xbc68a284	-0.014198903
133	0x3d65f3e6	0.056140803
134	0x3d7cc77b	0.061713677
135	0x3d3a7a91	0.045527045
136	0x3d1895ea	0.037252344
137	0x3bb57bdb	0.0055384464
138	0xbce65716	-0.028117698
139	0xbb908fe9	-0.0044116867
140	0x3d83a4ad	0.06427894
141	0x2de1c027	2.5664871e-11
142	0x3cf3ee38	0.029776677
143	0xbc91b3d2	-0.01778594
144	0x3d4b64ff	0.049656864
145	0x3bcf7431	0.0063309898
146	0xbccee400	-0.025255203
147	0x3a1edd3d	0.0006060189
148	0x3cf65905	0.030071745
149	0x3b1225bc	0.0022300323
150	0xbc292591	-0.010323898
151	0x3caa73db	0.020807197
152	0x3c40a3e1	0.011757822
153	0xbc9ef487	-0.01940371
154	0xbd5243a2	-0.05133403
155	0x3dd0d1f4	0.101962954
156	0x3c3a94a2	0.011387976
157	0x3d95da90	0.07317078
158	0xbda87734	-0.08225861
159	0xbdb98d28	-0.090601265
160	0x3d92d2ec	0.071691364
161	0x2f1b5e7c	1.4130735e-10
162	0x3d811062	0.06301953
163	0x8d4b70a9	-6.2689814e-31
164	0x3c3f8bcd	0.011691046
165	0x3c785dd6	0.015159091
166	0x3d0047ec	0.03131859
167	0x94f06a33	-2.4275695e-26
168	0xbdad7f8f	-0.084715955
169	0x3db4266a	0.087963894
170	0xbd1e8233	-0.038698386
171	0x3b234578	0.0024913233
172	0x2b2a4b30	6.0500476e-13
173	0x3d7b6720	0.061377645
174	0x3dad82c8	0.0847221
175	0x3db2774d	0.08714161
176	0x3d8c859e	0.06861423
177	0xbd0f69dd	-0.03501307
178	0xbd01aa9a	-0.03165684
179	0xbc1ae409	-0.009453782
180	0x0001232c	1.04453e-40
181	0xbd8fbde6	-0.07018642
182	0xbc1cfec6	-0.009582227
183	0x3d8e4cd8	0.069482505
184	0xbd88c437	-0.0667805
185	0x3d5110f3	0.051041555
186	0x15540624	4.2817903e-26
187	0x3cb7a4ad	0.02241739
188	0xbceebf3b	-0.02914392
189	0x3da55863	0.08073499
190	0xbbf8a14a	-0.0075875865
191	0xbd0ebce2	-0.0348481
192	0xbc8ed9ad	-0.01743778
193	0x3d83c958	0.06434888
194	0x3d569c73	0.052395295
195	0x3d214d57	0.039380398
196	0xbcf58f2f	-0.029975502
197	0xbd82f043	-0.063934825
198	0xbca3ec35	-0.020010093
199	0xbd619d23	-0.055081498
200	0x8000b533	-6.5002e-41
201	0x3d854e98	0.06509131
202	0x0000a1fa	5.8106e-41
203	0x000ea727	1.34566e-39
204	0xbc1eae5b	-0.009685124
205	0x3d25bb82	0.040462025
206	0x3d53686d	0.05161326
207	0xbcc737b3	-0.024318552
208	0xbca81f98	-0.020522878
209	0x3d8f3768	0.0699299
210	0x3d4ee161	0.050507907
211	0x3d00450c	0.03131585
212	0x3cd138b8	0.02553974
213	0xbc175188	-0.009235747
214	0x3d7a25b0	0.061071098
215	0x3d729937	0.05922815
216	0x3d1055a2	0.035237916
217	0x3d3e1f13	0.046416353
218	0xbc447603	-0.011991027
219	0xb0e3fcd9	-1.6588287e-09
220	0x0000ba2b	6.6784e-41
221	0xbc9b26eb	-0.018939456
222	0x3d9bd6c3	0.07609322
223	0xbc9c12f6	-0.01905201
224	0xbc54494e	-0.01295693
225	0x3dc701f2	0.09717168
226	0x3d2d47a8	0.042304665
227	0x3cdf69ca	0.027272124
228	0x3ce05428	0.027383879
229	0x2f415a5d	1.7585351e-10
230	0x3da60fdc	0.08108494
231	0x3db387c6	0.08766131
232	0x3cce388e	0.025173452
233	0x3c8882f8	0.016664013
234	0x3caefeb3	0.021361684
235	0x3ceba85a	0.0287668
236	0x3d1ac067	0.037781145
237	0xbd01ddf6	-0.03170582
238	0xbd739ec3	-0.05947758
239	0x3d137141	0.03599668
240	0x3cdfd00b	0.027320882
241	0x3b8c2bef	0.004277698
242	0x3da10638	0.07862514
243	0xbc95c56e	-0.018282618
244	0x3d12a860	0.035805106
245	0x3b37db3a	0.0028054253
246	0x3c8a3f85	0.016875992
247	0x3d02f3a6	0.031970643
248	0xbb59bf0e	-0.003322545
249	0xbc81ca8d	-0.015843654
250	0x3d08270a	0.033240356
251	0xbd6d89e0	-0.057992816
252	0xbd7a2abd	-0.061075915
253	0xbd21e41b	-0.03952418
254	0x3d91e36a	0.07123454
255	0xbc9a1c68	-0.018812373

bias f4 [128]
0	0xbd6bd730	-0.057578266
1	0xbd8f8666	-0.07008056
2	0x3dc04ea8	0.093900025
3	0x3d9f7228	0.077854455
4	0x3dc1ad85	0.09456924
5	0x3cf91a4d	0.030408049
6	0x3a0ac8f4	0.00052942266
7	0xbd685a31	-0.05672664
8	0xbd038e47	-0.032118108
9	0xafdcbe74	-4.0153092e-10
10	0xbcba4f69	-0.022742944
11	0xbb8440ff	-0.0040360685
12	0xbcc7f6d1	-0.024409683
13	0xbdbe585a	-0.092941955
14	0xbb0f2643	-0.0021842874
15	0x3d889c3a	0.06670423
16	0x3d8b2af7	0.06795304
17	0x3d692b7f	0.056926247
18	0xbbc563c6	-0.006023857
19	0x3da53519	0.08066768
20	0x18cbca07	5.2678266e-24
21	0x3d601b38	0.054713458
22	0xbcc78a57	-0.024357958
23	0x3aadae85	0.0013250863
24	0xbae1324d	-0.0017181128
25	0x3cf9048d	0.030397678
26	0xbd3d38b3	-0.04619665
27	0x3d9c3ed5	0.07629172
28	0x0d374bf8	5.6482673e-31
29	0xbd586858	-0.052833885
30	0x3dc10667	0.09425049
31	0x3db3eac6	0.08785014
32	0xbd514dca	-0.051099576
33	0x3ce30a70	0.027714938
34	0xbd0f45d2	-0.034978695
35	0xbb696e4b	-0.0035618718
36	0x3dc8f7cc	0.098128885
37	0x3cc215f0	0.023692101
38	0xbcbb711b	-0.022881081
39	0x3d610d38	0.054944247
40	0x3cd60532	0.026125524
41	0x3da7cdc6	0.08193545
42	0x3dd7e1a6	0.10541086
43	0x87db9c45	-3.3043305e-34
44	0xbca8a8cb	-0.0205883
45	0x183f95f7	2.4761884e-24
46	0x3ceb1a9f	0.028699217
47	0xbd62b947	-0.055352475
48	0x3c87a4e8	0.016558126
49	0x3c2afbd8	0.010436021
50	0x3d4ff457	0.05077013
51	0xbd57e94d	-0.052712727
52	0x3d6dda8e	0.058069758
53	0xbc3130ed	-0.0108148875
54	0xba6f2a84	-0.0009123462
55	0xbce3c92d	-0.027805889
56	0x3cad4b0f	0.021153955
57	0xbcbc9df9	-0.023024546
58	0x3cb3f500	0.021967411
59	0xbd4d0578	-0.050054044
60	0xbd8cb720	-0.06870866
61	0x3b671f2f	0.003526639
62	0xbd176aff	-0.036967274
63	0x3d946237	0.072452955
64	0x3dc932ef	0.09824168
65	0xbcce03e3	-0.025148338
66	0x3c502df2	0.012706267
67	0x3befe0c2	0.0073204944
68	0xbd3e6cab	-0.046490353
69	0x3cd4ee48	0.025992528
70	0xbb54a817	-0.0032448822
71	0x3d393da6	0.04522481
72	0x3d88a0dd	0.06671307
73	0x3bb21433	0.005434537
74	0xbd03ba31	-0.032159988
75	0xbd1782d4	-0.03699
76	0xbba29f38	-0.004962828
77	0x3c39a27b	0.011330242
78	0xbd202a12	-0.03910262
79	0x3c7bff58	0.015380703
80	0x3dbbb332	0.09165038
81	0x3d860918	0.06544703
82	0x3daf56cb	0.08561476
83	0xbd456304	-0.04819013
84	0x3d28034d	0.041018773
85	0x3d71302b	0.058883827
86	0x3daa6289	0.08319575
87	0x3d4b4cb0	0.04963368
88	0x3d867b44	0.0656648
89	0xbd5e7549	-0.05431107
90	0xbd7fa47b	-0.06241272
91	0xb849a86a	-4.8078982e-05
92	0xbc186744	-0.009301964
93	0xba45cd8d	-0.0007545583
94	0xbd2151a7	-0.03938451
95	0x3d8ea1ba	0.06964441
96	0x3cb95f4e	0.022628453
97	0xbcb4de38	-0.022078618
98	0x3dacb448	0.084328234
99	0xbd47f287	-0.048815276
100	0xbd81ac95	-0.063317455
101	0x3d8f3f09	0.06994445
102	0x3d307709	0.04308227
103	0xbda7b77c	-0.08189294
104	0x3d482629	0.048864517
105	0xb13c633c	-2.7414009e-09
106	0xbd101a52	-0.03518135
107	0xbd67b436	-0.056568347
108	0xbd414d87	-0.047193076
109	0x3d787e3c	0.06066726
110	0xbc3d9042	-0.011570038
111	0xbd55f71a	-0.052237608
112	0x3dc028cb	0.09382781
113	0x3d86c33b	0.06580206
114	0xb7c25fc0	-2.317119e-05
115	0x3d0b718a	0.034043826
116	0x3b60539d	0.0034229525
117	0x3d001de1	0.031278495
118	0x3c98ac0e	0.01863673
119	0x3db38ec7	0.08767467
120	0x3d185907	0.037194278
121	0x3d74f852	0.05980713
122	0x3da83c78	0.082146585
123	0x3cfb6ab6	0.030690532
124	0x3cc8561a	0.024455119
125	0x3b87f712	0.004149326
126	0x3d1e2ef2	0.03861899
127	0x3d198667	0.03748169

weight f4 [4, 128]
0	0x3ce50ba6	0.027959656
1	0xbdc13ed5	-0.094358124
2	0x3d8bb04b	0.068207346
3	0xbd3a41f4	-0.045473054
4	0x3d8c239d	0.0684273
5	0xbd014a41	-0.031564955
6	0xbc9751ca	-0.018471617
7	0xbd079a3c	-0.033106074
8	0xbd819c9a	-0.063286975
9	0x80009dbf	-5.6589e-41
10	0x3cdf6744	0.02727092
11	0xbd91b19c	-0.071139544
12	0x3c2f204d	0.010688853
13	0xbca13ddb	-0.019682815
14	0xbd1c106e	-0.038101606
15	0xbcb19c06	-0.021680843
16	0x3d07c951	0.033150975
17	0xbbb08756	-0.005387227
18	0x3cc4f26b	0.024041375
19	0xbc7488b1	-0.014925168
20	0x34363b83	1.6971721e-07
21	0x3d95d3b5	0.073157705
22	0x3d8c712e	0.06857525
23	0xb9a33325	-0.00031127888
24	0x3a719f68	0.0009217174
25	0x3d1f41cc	0.03888111
26	0xbcee2415	-0.02906994
27	0xbda02962	-0.07820393
28	0xa2321158	-2.413268e-18
29	0x395ce873	0.00021067429
30	0x3d08a63b	0.033361655
31	0xbd7beb64	-0.061503783
32	0x3d803d54	0.062616974
33	0xbcd7c1a5	-0.026337454
34	0x3d11e374	0.035617307
35	0x38e0a975	0.00010712716
36	0xbcc90bd2	-0.02454177
37	0x3d4e97f9	0.0504379
38	0xbd2a96af	-0.04164761
39	0x3dbe8b15	0.093038715
40	0xbd8bd446	-0.06827597
41	0x3db35ee6	0.08758335
42	0x3bc99b96	0.0061525805
43	0x9b209915	-1.3284353e-22
44	0xbd9286f6	-0.07154648
45	0x338e3a22	6.6229646e-08
46	0x3d5bf3cb	0.053699296
47	0x3c1de463	0.009636971
48	0xbc2d32f1	-0.010571227
49	0xbd32ae51	-0.043623272
50	0xbce65deb	-0.028120955
51	0xbc8016a4	-0.015635796
52	0x3db5c7a6	0.088759705
53	0x3dd5f176	0.10446446
54	0xba51fb27	-0.0008010142
55	0xbd82d9f2	-0.06389226
56	0x3d9ce831	0.076614745
57	0xbd5d68d1	-0.05405504
58	0xbd923853	-0.07139649
59	0xbda4e228	-0.080509484
60	0x3dc61d58	0.096735656
61	0xbdc1e8dc	-0.094682425
62	0xbd0ec3f6	-0.03485485
63	0x3d33b4ad	0.043873478
64	0xbc7c4118	-0.015396379
65	0xbd1673d3	-0.036731552
66	0xbd9b9af9	-0.07597918
67	0xbdab8b99	-0.083762355
68	0xbd4d08d8	-0.050057262
69	0x3c2cbbe9	0.010542848
70	0x3a4729b3	0.0007597461
71	0xbc9a5343	-0.01883853
72	0x3c505cc1	0.012717427
73	0xbcbbfdab	-0.022948107
74	0x3daa4981	0.08314801
75	0xbdd036ab	-0.10166677
76	0xbbd7c2b0	-0.006584488
77	0x3d99abc5	0.075034656
78	0x3dc42599	0.09577484
79	0x3c762f54	0.015025932
80	0xbcaa407f	-0.020782707
81	0xbcfada90	-0.030621797
82	0x3cdce412	0.026964221
83	0x3d789807	0.06069186
84	0x3b71b025	0.0036878672
85	0x3d9dcaf5	0.077047266
86	0x3da1a3da	0.0789258
87	0x3da7034c	0.08154926
88	0xbd183ea1	-0.037169103
89	0x3dc5bc63	0.096550725
90	0xbc5b7c87	-0.013396389
91	0xb83612e3	-4.340977e-05
92	0x3dadc2d6	0.08484428
93	0x3dca246d	0.09870229
94	0x3db87a88	0.09007746
95	0xbd95cbea	-0.07314284
96	0xbd2b8be7	-0.04188147
97	0x3c80aabc	0.015706412
98	0xbd5da322	-0.054110654
99	0x3d5ec88d	0.05439048
100	0x3d636a7c	0.055521473
101	0xbd487abc	-0.048945174
102	0xbdb6aee2	-0.08920075
103	0xbcfbcc5a	-0.03073709
104	0xbced1476	-0.02894042
105	0xa25a1bc4	-2.9559208e-18
106	0xbd746442	-0.059665926
107	0xbdc5d74e	-0.09660207
108	0xbd8afcd6	-0.06786506
109	0xbdbd3705	-0.0923901
110	0xba0147d1	-0.0004931661
111	0x3d0df764	0.03465976
112	0xbc67bd06	-0.014144188
113	0x3d9dd928	0.07707435
114	0x3d337c3d	0.043819655
115	0xbc987a48	-0.018612996
116	0x3d10058c	0.03516154
117	0xbc93dd5d	-0.01804989
118	0x3d8523f4	0.06500998
119	0xbc11d037	-0.00889974
120	0x3c4bae35	0.012431671
121	0x3c480f95	0.012210746
122	0x3d3f1f45	0.04666068
123	0xbd5b4a7a	-0.053537823
124	0xbbe1cd89	-0.006890957
125	0xb9c6af10	-0.00037895935
126	0x3c4593bc	0.012059148
127	0x3c58b51c	0.013226774
128	0x3d712906	0.058877014
129	0xbdbe9ff3	-0.09307852
130	0x3db159ab	0.08659681
131	0x3dcc7b88	0.09984499
132	0x3dc611d0	0.09671366
133	0xbda2a31a	-0.079412654
134	0xbd46edc3	-0.04856659
135	0x3c1f25a8	0.009713568
136	0xbd2fb243	-0.042894613
137	0x8d0a9dca	-4.2714465e-31
138	0x3d1f8c01	0.038951878
139	0x3d948bfc	0.072532624
140	0x3c0e8186	0.008697873
141	0xbd9dd201	-0.07706071
142	0xbdcc9ab2	-0.09990443
143	0xbc4383bb	-0.011933262
144	0xbc7278a0	-0.014799267
145	0x3cd31057	0.025764627
146	0x3c84b670	0.016200274
147	0xbd6cdb65	-0.05782642
148	0x2ebfb549	8.717877e-11
149	0x3dd1263e	0.10212372
150	0x3d4d6c3f	0.05015206
151	0xb87c977f	-6.0222574e-05
152	0x3a77e084	0.00094557577
153	0x3d47fdef	0.048826154
154	0xbdbac2aa	-0.091191605
155	0xbcba647b	-0.022752991
156	0x984ead3b	-2.6712335e-24
157	0xbda8a3e0	-0.08234382
158	0x3d01f815	0.03173073
159	0x3d845c61	0.064629324
160	0xbca31f4e	-0.019912388
161	0xbcc5e28a	-0.024155874
162	0x3dc86483	0.09784796
163	0x3881e374	6.193566e-05
164	0x3d536ba9	0.051616345
165	0x3db84ce2	0.08999039
166	0xbd037041	-0.032089476
167	0xbd836d66	-0.064173505
168	0x3d3dd641	0.046346907
169	0xbd36bcd7	-0.044613685
170	0x3d01d5d9	0.03169808
171	0x00009e51	5.6793e-41
172	0xbd4879c2	-0.048944242
173	0x00017516	1.33838e-40
174	0x3b0149ff	0.0019727943
175	0x3d611439	0.054950926
176	0xbc51518f	-0.012775793
177	0x3cf2e7d4	0.02965156
178	0x3cf0dfa2	0.029403511
179	0xbce22767	-0.02760668
180	0x3dba97bd	0.09110973
181	0xbae979e1	-0.0017812812
182	0xba3d2ffa	-0.0007216927
183	0xbd8ff906	-0.07029919
184	0x3dc3ad5a	0.095545486
185	0x3db5559e	0.08854221
186	0x3cf9d171	0.030495377
187	0xbdab3c56	-0.083611175
188	0x3d5f92b4	0.054583266
189	0xba8f8883	-0.0010950718
190	0xbd507a86	-0.050898097
191	0x3cc08338	0.02350007
192	0x3cebb798	0.028774068
193	0x3d579316	0.052630506
194	0xbde87580	-0.11350536
195	0x3c57dfe0	0.013175935
196	0xbdf139d2	-0.117786065
197	0xbd923abd	-0.0714011
198	0x3a1c8acf	0.0005971612
199	0xbd8413c4	-0.064490825
200	0x3d469c7d	0.048489083
201	0x3d54dce4	0.05196847
202	0x3d88c7b0	0.06678712
203	0xbc971110	-0.018440753
204	0xbaed775a	-0.0018117235
205	0x3da54cb1	0.08071268
206	0x3da5f977	0.08104222
207	0x3dbb4ec2	0.09145881
208	0x3d12a1b4	0.035798743
209	0x3d303677	0.04302069
210	0x3db5a357	0.08869045
211	0xbcc6f40f	-0.024286298
212	0x3d944302	0.07239343
213	0x3db2a714	0.08723274
214	0xbd544161	-0.051820163
215	0x3d538204	0.051637664
216	0xbd7dd415	-0.061969835
217	0x3c59305f	0.0132561615
218	0xbce9e44a	-0.02855124
219	0x390b9d6e	0.0001331472
220	0x3d783432	0.060596652
221	0xbbf92181	-0.007602871
222	0x3c9f5f71	0.01945469
223	0xbd8a5ce7	-0.06756001
224	0xbdc125b9	-0.09431023
225	0x3d90b63c	0.070660084
226	0xbd003329	-0.03129879
227	0xbd9c6d56	-0.07638042
228	0x3d1a5582	0.037679203
229	0x3d4f4a0e	0.050607733
230	0x3d1b0668	0.037847906
231	0xbb208812	-0.0024495167
232	0x3d2c569c	0.042074785
233	0xaf82cf50	-2.3794167e-10
234	0xbd86c5ee	-0.06580721
235	0xbd1c24b1	-0.03812093
236	0x3db62d6d	0.08895383
237	0xbdacfc95	-0.08446614
238	0xb8522ef8	-5.0111645e-05
239	0xbd448126	-0.047974728
240	0x3d3c7063	0.046005618
241	0xbd776d14	-0.06040676
242	0x3dd11ec5	0.10210947
243	0xbc89c016	-0.016815227
244	0x3d36fa7c	0.044672474
245	0xbd59dfae	-0.053191833
246	0x3c866531	0.016405674
247	0x3dca1c8f	0.09868728
248	0xbc80b65f	-0.015711961
249	0xbda777c3	-0.081771396
250	0x3dcce651	0.10004867
251	0x3d21b218	0.039476484
252	0x3b17c7fe	0.0023159976
253	0xb9a5a248	-0.0003159216
254	0x3d5bf7cf	0.053703126
255	0xbb879a24	-0.004138248

bias f4 [4]
0	0x3929bd96	0.00016187722
1	0xbd5c9ad6	-0.0538586
2	0x3c96ae20	0.018393576
3	0xbd3a85ab	-0.045537632
