c220g2_power_wdram.pt (torch, 172075 bytes, 14 tensors)

WIdle0 f4 [4]
00000000: 734b 4c3f 6513 2f3e 0000 0000 0000 0000
0.79802626 0.17097242 0.0 0.0

WIdle1 f4 [4]
00000000: 57c3 8d3f d424 173f 0961 a53d 3226 503c
1.1075238 0.5904057 0.080751486 0.012704419

weight f4 [128, 7]
00000000: 5f49 553e 3945 36be 0005 8fbd 5bab 993e
00000010: 93f6 9abe 0ac7 a83e 6db4 aebd 4aea 0e3e
00000020: 9c56 643e 1a33 123e 0c65 64be 86f7 0dbe
00000030: 55b7 99be 40d4 cbbd 0232 38be b7cb aabd
00000040: 3c43 b93c 0de9 c13d 9ee0 893e 838f 723e
00000050: 1f7e a3be 40c6 8ebd fcf6 513d 85f6 efbd
00000060: 1866 2cbc 1392 f6bc af9c 1dbe 7d2a a4bc
00000070: aa22 95be 8930 3cbe 25d2 3a3e 7319 85be
00000080: 6b7c 533d b32c 543e 14db 82bd 473d 96be
00000090: 3ba4 43be 44e7 bdbc e317 adbc 1812 cfb9
000000a0: b8f9 003e 6d62 9bbb 8bc4 873e 9dd2 003e
000000b0: 65cb 9abe 1026 073e 8975 aa3e 0406 31be
000000c0: 95f6 83be 1be4 323e 2d55 1d3d 5a6c b13c
000000d0: fe88 f3bd ab3c b93d e65b 47be 858f 1bbe
000000e0: 7e7f a03d eb64 a4be 0fdd 813e 8fb1 b2be
000000f0: ce48 ab3e 8f04 32be 64de a33e da32 9b3e
00000100: 1a95 a13e ee22 ac3e 471a 6e3e c4b0 553c
00000110: 7bab be3d 2783 43be f3c7 723e 709d 583e
00000120: a888 95be dd35 0dbe 2742 6cbd 044a 2c3e
00000130: 11e5 a2bc 81f9 50be 50e2 ba3e 5984 a23e
00000140: 4aa1 a73e e86f 1c3e 4452 aab9 00d9 54be
00000150: d3b4 303d afaa a43e 9ca0 0f3d 5c30 2e3e
00000160: 2eb9 c03d 7843 1d3e 2780 84be 8ee2 67be
00000170: 84ac adbe b78d 363d e341 55bd f87f 2d3e
00000180: d029 16be 0b9d 663e 0f49 c6bd da66 ddbd
00000190: 56a9 61be f17a 55bd a620 11be 441c 7e3e
000001a0: 0c63 62be d7da 8a3e 55a6 233e 8510 c63d
000001b0: de79 83be eb04 56be 807b bf3d b9a2 483d
000001c0: e6ce 023e 05c1 2f3b c5b2 b53e 4db4 813c
000001d0: cf98 993e 9050 84bd 35e9 c6bd 6f4f 88be
000001e0: d243 b9be 6c01 1cbd dd78 5abe c936 64bc
000001f0: 2efc fd3c f7e0 ac3e 80ad b63d 91b6 a6be
00000200: 254f a73e ce87 1b3d f4b3 a7bd dc60 833e
00000210: 2749 553e 7ec2 743e 000c 83be dec4 40be
00000220: 5787 4dbd 4fb7 043e 0ce8 83be 852c ab3e
00000230: 8195 3c3d 7099 42be 58db 963e 9c36 d6bd
00000240: fbe0 853e d1ae 53be b7a9 293e b045 753e
00000250: f951 a93d fd88 bbbe 4e9a 003e c77b a93e
00000260: ce29 73bc c5e7 743e 438b d9bc e645 f43d
00000270: 1fc1 bb3d 66e8 47bc 299d d73d f399 a13e
00000280: 60bf 23bd 48af 82be eb79 603e e0df 383d
00000290: db1f 4cbe 95e3 11be 7d7d 963e 8a22 b0bd
000002a0: 0d3e 2fbe 814d ed3d cc39 413e bdc3 7dbe
000002b0: 0457 cc3e 0fca 4ebe ae1c 57be e6dc a7be
000002c0: 7048 8d3e 313a 3d3e 08e9 62be e6db e1bd
000002d0: e66b a6be bf1a 873e a193 a73d 5b79 b03d
000002e0: 63ba 543e df95 dbbd 6046 8e3c bcb1 753d
000002f0: f63f ffbd e706 1dbe c5d8 a7bd 395c f13b
00000300: fe3f 19be 14c2 112d 7e77 a8bd b55d f72a
00000310: 48b6 123e 3f8c 4fbe 7b57 f03d 2a68 73be
00000320: 1870 c93c cc4c 01bd 29e3 493e 6f25 203e
00000330: f5bb 39bd a739 a83e 66fc 2a3e d162 b73e
00000340: 71be 7a3e 50c2 f0bd 6aa2 a43e de24 683c
00000350: d8ab d5bd 57d0 413e e405 85bd 8293 81be
00000360: f1ce 0cbd ac02 683e b5e3 683e 1ec5 bf3e
00000370: 4007 cf3c f5a7 5c3e 2e30 923e 1ecf 3abe
00000380: cbba 14be 871f b23d 55b9 813e 35a5 843e
00000390: 62cf 2bbd ba41 a33e 29da 853e bcb5 0d3e
000003a0: fa44 fdbd 7e80 c3bb 4361 98bd 714f 01be
000003b0: ce26 f196 3821 b23b acbd 48be b59e b43d
000003c0: 5cb0 16be 87f3 bd3e acc1 2b3e 4dc8 93bd
000003d0: 2f9c 6c3e 19ae f73c c952 43be 897f 9cbe
000003e0: 8c7e f53d 225c 563e 25e4 c63e a48e 993e
000003f0: ef38 d0bd b35f f0bd 98ed 9b3e 9fe4 cc3e
0.2082877 -0.17799844 -0.069833755 0.30013546 -0.30266246 0.32964355 -0.08530507 0.13956562
0.22298664 0.14277306 -0.22304171 -0.13863954 -0.30022684 -0.09952593 -0.17987826 -0.08339637
0.022615068 0.09468279 0.26929182 0.23687558 -0.3193216 -0.06971407 0.051260933 -0.11716942
-0.010522388 -0.03009895 -0.15391801 -0.020039791 -0.2912801 -0.1837789 0.18244226 -0.2599598
0.051632326 0.20720176 -0.06389442 -0.29343626 -0.19105618 -0.023181565 -0.021129554 -0.00039495598
0.1259526 -0.004741958 0.26517138 0.12580343 -0.30233303 0.13198113 0.33292797 -0.17287451
-0.25774065 0.17469828 0.038411308 0.021658111 -0.118913636 0.090447746 -0.1946865 -0.15191467
0.07836817 -0.32108244 0.25363967 -0.3490109 0.33453983 -0.17384551 0.32005608 0.30312234
0.31559068 0.336204 0.23252212 0.0130426325 0.09310051 -0.19093 0.23709087 0.21153808
-0.29205823 -0.13790078 -0.057680275 0.1682511 -0.019884618 -0.20407678 0.36500788 0.31741598
0.3274024 0.15277064 -0.0003248622 -0.20785904 0.043141197 0.3216147 0.03506528 0.17010635
0.0941032 0.15357769 -0.25879022 -0.22645018 -0.3392068 0.044568744 -0.052064788 0.16943347
-0.14664388 0.22520845 -0.096819036 -0.10810633 -0.22037253 -0.0521192 -0.1417261 0.2481547
-0.22108096 0.27120087 0.1598142 0.096711196 -0.25678915 -0.20900314 0.09349728 0.04898331
0.12774238 0.002681793 0.35487953 0.015833044 0.29999396 -0.064606786 -0.097124495 -0.26623103
-0.36184555 -0.038087294 -0.21335168 -0.013929077 0.031004038 0.33765385 0.08919811 -0.32561162
0.3267757 0.03797131 -0.0818862 0.25659835 0.20828687 0.23902318 -0.25595093 -0.18825099
-0.0501779 0.12960552 -0.25762975 0.33432403 0.046041016 -0.19003844 0.2946422 -0.10459635
0.2614821 -0.20672156 0.16568647 0.23952365 0.08267588 -0.3662795 0.12558863 0.33102247
-0.01484151 0.23916538 -0.026555663 0.119273946 0.09167694 -0.012201404 0.10528023 0.31562766
-0.03997743 -0.25524354 0.21921508 0.04513538 -0.19934027 -0.14246972 0.29392615 -0.08600338
-0.17113514 0.11587048 0.18869704 -0.247817 0.39910138 -0.20194267 -0.21007034 -0.3278572
0.27594328 0.1847923 -0.22159207 -0.110282704 -0.32504195 0.26387593 0.08182455 0.08616897
0.20774226 -0.10721945 0.017367542 0.059983954 -0.124633715 -0.15334664 -0.081956424 0.00736573
-0.14965817 8.28539e-12 -0.08225916 4.3941036e-13 0.14327347 -0.20268343 0.117354356 -0.23770204
0.024589583 -0.03156738 0.19715561 0.1563928 -0.045345265 0.32856485 0.16697845 0.35817578
0.2448671 -0.11755812 0.32155162 0.014168946 -0.10433167 0.18927132 -0.06495264 -0.25307852
-0.034377042 0.22657269 0.22743113 0.37455076 0.025272012 0.21548446 0.28552383 -0.18243071
-0.14524381 0.086974196 0.2533671 0.25907293 -0.041945823 0.31886083 0.26143005 0.13838857
-0.12366672 -0.005966245 -0.07440426 -0.1262796 -3.896014e-25 0.005436089 -0.19603604 0.088193335
-0.14715713 0.3709986 0.16773099 -0.07215939 0.23106454 0.030234383 -0.19074549 -0.30566052
0.119870275 0.20933583 0.38845935 0.2999164 -0.10167109 -0.11737003 0.30454707 0.40018174

bias f4 [128]
00000000: 45f3 d93d 833a acbd a74b 943e 900f d13e
00000010: 2a51 813e 58fa 50bc 2274 653d 14be 7b3e
00000020: 158f acbb 17fc a8be bdf5 be3d e884 ce3e
00000030: 5017 abbe 35cf 863e aa17 203c ac0e cf3e
00000040: d37d 55be a338 153d b3ec a03e f7f9 bd3d
00000050: 67e1 7cbd 8735 c73d bbd4 abbe 5300 8cbe
00000060: f45c f63c f994 91be 1a37 a9be d113 14bd
00000070: 41ae 3fbe 0f94 89be 098a 08bd c498 be3d
00000080: 538b 93be c503 b6bd 9dbb 56be f81d d33e
00000090: ae5a 93be 7f6a acbe 08d8 60bd 8d92 babe
000000a0: 6c71 13be 6d63 be3e 2a0e b33e 7388 a73e
000000b0: 1c88 093d 1035 a13c c78a 643e 1c4c 603e
000000c0: 7a25 6f3e eb7f 413e ea84 79b8 7ccc 48be
000000d0: dffd adbd b14b 33be d2a4 013e b068 91bc
000000e0: cacc 65be a0d3 923d 0897 53be d0d1 c13e
000000f0: 3797 843e cbda 843c 4918 213e d005 533e
00000100: 6fe4 11be 6fe1 afbd 27ec a83e fbff 8dbe
00000110: 2163 8a3e a048 c53e 85ed 40be 9868 6b3e
00000120: 028f a63d 6f6c 153e 6bef 2b3e da89 e6bd
00000130: 01db 06be c132 0cbe d01b e23b 6250 a93e
00000140: 6372 95bd 85a0 b63e c9e5 9dbe 4292 0c3d
00000150: 5e27 39be e8a2 6abe 6873 90be b217 d8bd
00000160: e7ef a13d 8a05 9f3e 26c0 2fbd 016c 93be
00000170: 94e6 a73c a0bb c03d e46e 573e 0a83 25be
00000180: abd1 8f3e 2414 a03d 844c 3cba ba8a 93be
00000190: 3dfd 5cbd 7d68 a5be b5a1 a53e 6fc5 373e
000001a0: 6f13 26be d865 b63d 861a 2ebe 0150 94be
000001b0: e452 dc3e fa65 8bbe da89 843d 2155 953e
000001c0: d9d4 30be 2067 6abe 8475 7d3e b001 3d3e
000001d0: 8974 3d3d 6b7f 88be bc1d cd3e 75b9 9ebd
000001e0: 0076 073e 111c 7abc c41f c7bd cdae fbbd
000001f0: 3234 5a3e 4e80 873e 607f 52bd 75b4 ab3e
0.10642103 -0.08409598 0.28963968 0.40832186 0.25257236 -0.012754999 0.056018956 0.24584228
-0.00526608 -0.3300483 0.093242146 0.40335774 -0.33416224 0.2632996 0.009771267 0.4044088
-0.2084878 0.036430966 0.31430587 0.09276193 -0.061738398 0.097270064 -0.33560738 -0.27343997
0.03007362 -0.2843397 -0.33049852 -0.03615171 -0.18718816 -0.26870772 -0.033334766 0.093064815
-0.28817233 -0.08887438 -0.20970006 0.41233802 -0.2878012 -0.33675 -0.054893523 -0.36439934
-0.14398736 0.3718523 0.34971744 0.3272129 0.03357707 0.019678622 0.22318564 0.21904033
0.2335414 0.18896453 -5.9490012e-05 -0.19609255 -0.08495688 -0.17509343 0.1266053 -0.017750114
-0.22441402 0.071692705 -0.20663083 0.37855387 0.25896618 0.01621761 0.1573192 0.20607686
-0.14247297 -0.0858792 0.3299267 -0.2773436 0.27028754 0.3853197 -0.18840607 0.22989118
0.08132745 0.14592145 0.1679055 -0.11256762 -0.13169481 -0.13691236 0.006900288 0.3306914
-0.07297208 0.35669342 -0.30839375 0.03431917 -0.18081424 -0.22913706 -0.28213048 -0.105513945
0.07907086 0.31058913 -0.042907856 -0.28793338 0.02049569 0.09410787 0.21038395 -0.16163269
0.2808965 0.078163415 -0.00071830326 -0.28816777 -0.053952444 -0.3230628 0.32349935 0.17946409
-0.16218351 0.08906144 -0.17002305 -0.28967288 0.4303199 -0.2722624 0.064716056 0.2916651
-0.17268695 -0.22890902 0.2475186 0.18457675 0.046253715 -0.26659712 0.40061748 -0.07750217
0.13228607 -0.015265481 -0.09722856 -0.122892 0.21308973 0.26465076 -0.051391006 0.33536115

weight f4 [128, 128]
00000000: 6de8 103e 3bb3 49bd 1ec9 143d 0431 6ebd
00000010: 702e f53d 75fd 0793 d87d e93d 81cd a73d
00000020: 13f7 3f3d 286d 2fbd 0656 e03d cd52 9dbd
00000030: 5aee 7a3d d004 f03d 6b4a e73c 9655 2c3d
00000040: db75 cdbd 183f aebd ffa9 663d 0ff8 2bbd
00000050: 5982 8a3d 9b77 d93d 3848 1c3d c2b2 fb3d
00000060: b4c1 9b3c 2d10 8e3d b29a 863d 144f e7ba
00000070: 86c9 7b3d bdd4 043d 12b3 0a3d eb8f ba3d
00000080: 5a31 f93c 8d63 4517 6566 b3bc 7a8d c13d
00000090: f33a fe3d 1913 093d 0fb7 27bc b571 01bd
000000a0: a615 7cbd 669f 833d cab1 513d 43f2 9a3d
000000b0: 506a 983d 4558 af3d 648c bf3d 14f9 7b3d
000000c0: b2d4 4a3b f718 9b3c d238 81bc 93f0 e63c
000000d0: 8822 3b3d a682 ccba fe9a 003e f119 c73c
000000e0: 587f d43c 25a8 89bd 17ec a53d b1bf 2e3d
000000f0: 67cc f03d 6492 0f3c c425 843d a947 d93c
00000100: 2e75 9b3d 14be 45bd d06b c43d 1014 e33d
00000110: 725b 193c 27ec 7f3d 8af1 6732 3da0 ff3d
00000120: b1b8 f5bc eaa4 d03c f48a f73c 2c7d 4ebd
00000130: 8d58 713c 3516 f2bb 2431 7f3d 4de8 02bd
00000140: 8145 283d 99f6 1b3c 8a1c 8ab7 309c 7d3d
00000150: ef52 95bd 02fd e5bc cd65 84bc 9c56 8fbd
00000160: 57cf 8c3c 21fa c73d 5450 343d 6f54 89bd
00000170: 8721 1934 4df4 15bd e06d 64bc 0c77 22bc
00000180: 3cfb 34bd f0d6 ca3a fa15 abbc 366a e5ba
00000190: 65fd 2f3b aeb1 02bd d7e7 6bbd 0e2b e73c
000001a0: 757a a53d bc03 ff3d 9c2a 6b3b fc66 f53d
000001b0: 47f4 a33d 12ae 7226 e26f 27bd 3403 36bc
000001c0: 4e79 8da5 0676 8dbd ad37 9ebc 5603 693c
000001d0: 066d 943d b6d9 2cbc 50dd 843d 3503 403d
000001e0: 4302 4fbd a82b 173e 1aa9 bebd 65c9 5cbd
000001f0: 49a2 cf3d a38f 0e3d b725 2dbc f771 de3d
00000200: 94b1 19be 100e 29bc 0e3f 90bd 39fb 1fbd
00000210: 9919 8e3c 334d a336 b209 81bd d039 aebd
00000220: b9fe 483d 65c6 16bd 80f6 00bd 643a 68bd
00000230: b53d 72bd 0259 a3bd a019 8cbc d7f2 d2bc
00000240: 4a65 ac3d b275 01bd 5d2f ad3d eb2d 413c
00000250: f5f5 a53d 57f0 89bc adaf dabd e00b e5bd
00000260: b878 463d 58bd f33c 712c bcbc 5b19 6cb7
00000270: 7188 8e3d 228d 6bbd 0842 d8bd 05af 853d
00000280: de58 b13d fa75 f03b 8533 783d 9fb4 b83b
00000290: 502a b0bc 6f74 c0bc 71b6 a0a4 a79d 573d
000002a0: ca71 1f3d 44d8 c53d ec9d 8d3d e569 4b3d
000002b0: c383 84bd 4184 87bc 49d4 423c 377e 033c
000002c0: 8bf3 823c 3fee a53d 3f72 f630 62e0 43bc
000002d0: 4d15 0e3c cade b5bb 07d1 7b3c 8b23 d33d
000002e0: 8a0b f23c b880 713d 70f1 623d 7057 86bb
000002f0: d1b3 abbd c8f3 313d 3c65 c93d 81d8 c5bb
00000300: 2be9 10be ead6 733d 21f1 3bbd 81e2 1d3c
00000310: 72ee 543d 9d90 e6bd 688c c23c 4265 55bd
00000320: 2931 21bb 7bd8 a8bd e748 57bc 4bb6 953d
00000330: 8145 563d f6c1 65bd b394 b2bc bcdf 323c
00000340: c691 fb3c 19cc 99bc 69be 92bc 60d1 23bd
00000350: 51bf c5bb 3f21 aabc eab1 3b3d f0dd 873d
00000360: 38db 3cbc 7583 5d3c 15c7 b5bd 27a0 8138
00000370: 4fda d237 bc8b db3c eaf3 df3b f0ea d73d
00000380: dc7d 523c daea 453d f89b a13b f4e3 523c
00000390: 5a60 cd3c 91f2 cb3d 4a2f e03d 4747 f2bc
000003a0: 5173 2cbd 933b bdbd 58b8 c53b 4d03 91bd
000003b0: 1758 cb3d 72e4 64bc 4f08 33bd f7ae 903d
000003c0: fac8 e43a a660 a13b a857 50bd 6e87 f2bd
000003d0: 6eea 713d 914a 1c3d 535e cb3d 49bf 8b3d
000003e0: fa7a ad3c 8ee9 9abd bfab c13d 81c1 d53d
000003f0: bf2e f9bd 9ee4 243d d884 da3d fea3 bdbd
0.14151163 -0.049243193 0.036324613 -0.058152214 0.11971748 -1.716436e-27 0.11400956 0.08193494
0.046866488 -0.04282871 0.10953908 -0.076818086 0.061262466 0.11719668 0.028233727 0.04207381
-0.10032245 -0.08508128 0.056314465 -0.041984614 0.06763143 0.10618516 0.03815481 0.12289955
0.019013263 0.06936679 0.065724745 -0.0017647468 0.061471485 0.032429446 0.03386218 0.091094814
0.03041904 6.3779784e-25 -0.021899411 0.09450813 0.124135874 0.03346548 -0.010236516 -0.03160258
-0.061544083 0.06426887 0.051194943 0.07565739 0.074421525 0.08561758 0.09352949 0.061516836
0.003094953 0.018932803 -0.015774164 0.028190887 0.04568723 -0.0015602901 0.12559125 0.024304362
0.025939628 -0.06721524 0.08101671 0.04266328 0.11757737 0.00876293 0.06452516 0.026523428
0.075907096 -0.048276976 0.09590876 0.11087811 0.009360181 0.06248107 1.3500889e-08 0.12481735
-0.029995294 0.025469262 0.030217625 -0.050412342 0.014730585 -0.007387901 0.062302724 -0.03195982
0.04108191 0.009519243 -1.6464171e-05 0.06191653 -0.07291209 -0.028074745 -0.016161824 -0.06998941
0.017188711 0.09764505 0.04402192 -0.067055576 1.4261433e-07 -0.036609937 -0.013942212 -0.009916078
-0.04418491 0.0015475433 -0.020884503 -0.0017502967 0.0026853916 -0.03190773 -0.057594147 0.028218772
0.080799975 0.12451884 0.0035883551 0.11982533 0.080055766 8.4196526e-16 -0.040878184 -0.011109162
-2.45418e-16 -0.06907277 -0.019313658 0.014221987 0.07247357 -0.010549953 0.064875245 0.04687806
-0.050539266 0.14762747 -0.09309597 -0.053903002 0.10138375 0.03480495 -0.010568074 0.10861581
-0.15009147 -0.010318294 -0.07043277 -0.039057944 0.01734619 4.8667657e-06 -0.06300677 -0.085071206
0.049071047 -0.036810298 -0.03148508 -0.05669631 -0.05914088 -0.07975961 -0.017102063 -0.02575056
0.08417757 -0.031606384 0.084562995 0.011790733 0.08103553 -0.016838236 -0.10678039 -0.111839056
0.04845497 0.029753372 -0.02297041 -1.40726e-05 0.06959618 -0.05750764 -0.105594695 0.06527523
0.08659528 0.0073382827 0.060596008 0.005636766 -0.021504551 -0.02349302 -6.969801e-17 0.052640583
0.038926877 0.0966039 0.06914887 0.049661536 -0.06470444 -0.016542556 0.011891433 0.008025697
0.015985271 0.081020825 1.7931326e-09 -0.0119553525 0.008672071 -0.00555024 0.01536966 0.10309514
0.029546518 0.058960646 0.055406034 -0.004099779 -0.08383907 0.04344538 0.09833762 -0.006037772
-0.14151447 0.05953113 -0.045884255 0.009636522 0.05198521 -0.112580515 0.023748592 -0.05209852
-0.0024595952 -0.082444154 -0.01313994 0.0731016 0.052312378 -0.05609318 -0.021799421 0.0109176
0.030709159 -0.01877408 -0.01791306 -0.039994597 -0.0060347696 -0.020767806 0.04582397 0.06634128
-0.011526875 0.013520111 -0.088758625 6.18103e-05 2.5135609e-05 0.026800029 0.0068344967 0.10542858
0.01284739 0.048319675 0.004931923 0.012871731 0.025070358 0.09958375 0.1094652 -0.029575003
-0.04210216 -0.092398785 0.0060339384 -0.07080708 0.09928911 -0.013970481 -0.043709096 0.07064622
0.0017454915 0.0049248515 -0.050864846 -0.118422374 0.05906146 0.03815705 0.099301 0.06823594
0.021176804 -0.07564078 0.09456586 0.104372986 -0.12167119 0.04025709 0.10669869 -0.09259795

bias f4 [128]
00000000: d13f 2b3d c5c0 17bd fb43 ec3d 816e 6aa8
00000010: 40dd 952b 9e34 7c3d fece 663d 3002 13bc
00000020: acc6 603c 9539 343d 9d4e 7dbd 72a9 50bd
00000030: d9d1 b23d 06d5 23b9 4506 2eba e9ef 433d
00000040: 571f 213d e069 583d 8ee9 20bc 84c0 233d
00000050: 35cf a03d d07e f2ba 7355 ab3d 59b1 aebd
00000060: 54da b3bc dc25 a73d 25f4 7abd 7261 d6bd
00000070: 2f75 963d da20 463d 0773 803d 8c87 713d
00000080: e017 c0bc a5e2 fd3c 1da0 4b3c 1282 7ebc
00000090: 760d 3abd 8c7b 92bd e93f 0ebd aefe f4bc
000000a0: 276c 22bd 87db 953d 7fe9 dbbd 1856 6c3d
000000b0: cd9b dbbc 0526 d6bd 99d5 8936 b62c 55bd
000000c0: 717a 17bd 5426 13bc fb84 8f3d 79c6 df3d
000000d0: 0504 6f3b 39e7 a1bb 52d7 343c 5d19 c3bd
000000e0: 41be f83d be0f 863d cc59 5cbc e6fc e03c
000000f0: f848 b33c 2949 7dbc 8420 a23d 6320 d9ba
00000100: 4616 ea3c 2022 b4bc 6498 e43d f5ef 8e3c
00000110: a03e 373b e97e b63c d053 203d b1f6 eabc
00000120: d0dc 4b3d 3153 bfbd 7b44 f13c b625 f03b
00000130: 2c81 643b 906d 963d 2208 263d 5277 a73d
00000140: 22d6 a3bd 820c fbbc 452b c33d 3680 6cbd
00000150: 4b12 9a3d bacd 293b adad 0dbd 9337 aabb
00000160: 06ee 7e9f 3e88 b63b 0628 ae99 7ff6 9d3d
00000170: 65d4 c6bd e3c7 5cbc fcf9 5a3d a7d7 c5bc
00000180: c7b9 433c c933 6fbd c568 a2bc b72e fabc
00000190: 42ab 2d3d 28ff cd3d 2939 a0bc 10c7 b53c
000001a0: 20a2 4a3d e435 523d acc3 21bc c592 bbbd
000001b0: 21c5 9c3d be36 9332 cba2 fabb efa2 833d
000001c0: af93 603d 4767 2b3d 00ac 4a3d fd83 b1bc
000001d0: d082 70bd 6e02 0d3d 7506 673d c738 a3bb
000001e0: b6b5 5ebd 3a45 7c9e b65e 8cba 97e3 b7bc
000001f0: c6b4 bfbc 636b 2d3d f7e4 64bd cba5 0ebb
0.041808907 -0.037049074 0.11536404 -1.3013571e-14 1.0648496e-12 0.061573617 0.056349747 -0.0089726895
0.013719242 0.044000227 -0.06184255 -0.050942846 0.087314315 -0.00015624249 -0.00066385075 0.047836218
0.03933653 0.052835345 -0.009821309 0.03997852 0.078520216 -0.0018500928 0.083659075 -0.0852992
-0.021954693 0.08161518 -0.06126799 -0.10467805 0.0734657 0.048371173 0.0627194 0.05896716
-0.023448884 0.030991862 0.012428311 -0.015533941 -0.045422994 -0.07152471 -0.03472892 -0.029906597
-0.039653923 0.07317262 -0.10737895 0.057699293 -0.02680769 -0.104564704 4.107784e-06 -0.052044593
-0.036982004 -0.008981306 0.07007786 0.109265275 0.0036470902 -0.004940894 0.0110376645 -0.09526322
0.12145663 0.06545971 -0.013449144 0.027464341 0.02188538 -0.015459337 0.07916358 -0.0016565438
0.028575074 -0.021988928 0.11161879 0.017448405 0.0027960911 0.022277312 0.03914243 -0.028682085
0.04977113 -0.093420394 0.0294516 0.0073287142 0.0034867031 0.07345116 0.0405351 0.081770554
-0.07999827 -0.030645613 0.095297374 -0.05773946 0.0752302 0.0025909976 -0.03458946 -0.0051946132
-5.398348e-20 0.0055704406 -1.8007344e-23 0.07713031 -0.0970848 -0.013475391 0.05346106 -0.024150683
0.011946148 -0.058398996 -0.019825349 -0.030539853 0.042399652 0.10058433 -0.019558506 0.022189647
0.04947102 0.051320925 -0.009873312 -0.091588534 0.07654787 1.7137946e-08 -0.007648801 0.064275615
0.054828342 0.04184654 0.04948044 -0.021669382 -0.058718503 0.034426145 0.056402642 -0.0049811336
-0.05437251 -1.3355085e-20 -0.0010709378 -0.02244739 -0.02340163 0.04233874 -0.05588242 -0.00217663

weight f4 [4, 128]
00000000: 797b 69bd f4d8 dabc 1a72 c9bd 8c33 eb3c
00000010: 7d0a 3628 fa3f 75bd bc4e be3c 38cc 243d
00000020: 0aad 8c39 3f8c 82bd cded 573d 0bb4 2f3a
00000030: b561 fcbd 7f19 a63a 53ae 993c 71a3 b53d
00000040: 0006 c4bd 7936 82bd 9d4b 9a3d 8ac1 983d
00000050: 1ad1 4fbd dcde 8e3d 9e2e b9bd a135 22bd
00000060: ca6b babc 0b17 07bd 4a5d a83d 342d d3bd
00000070: 00ba 4abd 2f43 b4bd 3ccd e9bc b8da 31bd
00000080: aa44 2a32 aa87 5f3d f230 0239 a8f9 3cbd
00000090: 28c3 01be 18d4 63bd 94ee 923d b21e 0b3d
000000a0: 14ed 09be d51d ce3c a0e5 a3bd 49a0 aa3d
000000b0: b8c8 05b9 4ad1 c7bd 2a27 933c fe0e c13d
000000c0: 3258 a13d 1c82 2b3d 9e48 6e3d 81bf 88bd
000000d0: ca64 c8bd 79a5 2cbd b76e c7bd b8b0 80bd
000000e0: ed0f 7cbd c531 623d f2a2 713c 2c2b c6bd
000000f0: 6891 123d 0d68 b73b d131 e3bd 1248 bc3b
00000100: bd38 d4bd 6ebf 55bd 48fe 8fbd c9a5 8bbd
00000110: c93a 4bbc d26b 3ebd aca5 c93c 7d2c 9dbc
00000120: 7acd 95bd 0be2 a0bd 7bc2 e7bd f7d1 42bd
00000130: 26ba f2bc 1a26 b43d 4987 f9bc 0833 2cbd
00000140: abe0 c03d afa7 513d 3dc7 57bd 546a ab3d
00000150: 60fd e2bd 928a b13c 0d5e b03d 77fc 753c
00000160: 3143 c03b 5216 023d 4214 99bc 46e3 bcbd
00000170: 6dd1 afbd cbdf f9bd 7ef4 2fbc 3a5c 393d
00000180: ff21 153a 9390 163d c440 083d 9922 793d
00000190: e61d ce3c 983f 68bd d701 8fbd 8fa3 a83d
000001a0: d0f9 643d eced 55bc ed0c aa3d 8d7a a43d
000001b0: adf8 fb3c f25c dc27 f639 f9bd a5b9 94bd
000001c0: 4f4b c1bd e2b1 523c 6a95 173d ab1a 6abd
000001d0: 1b01 cf3d ac29 c2bd f897 9bbd 60ab 03b7
000001e0: 74b7 2b3d ae01 a1b5 9e09 3f2b f06d 3aad
000001f0: 5d33 973c 2bc2 6c3d dee5 2c3c 8388 76bc
00000200: 54e7 263d 5c7b 253d 40c5 01be be4e 573c
00000210: 2b60 9a3c a223 a3bd b49f c63c 0b18 7f3d
00000220: 9fab a63d 7e42 9d3d c1c4 a83d b301 803d
00000230: eaa2 5abd 73dc 56bc 039a 813d e9a2 1ebd
00000240: e05f 8d3c 298a b9bd 0a12 33bd 25c4 c93c
00000250: d27e a8bc eb48 b83d dab6 f1bd 5509 e5bd
00000260: 3df9 b9bd d265 88bd fc5c 393d 316d 41bc
00000270: 90ff c2bd 2051 4bbd f643 82bd 1413 d3bd
00000280: a233 8fbc b349 713d 4f98 5126 50e1 c8bd
00000290: 8081 5b3b 2d9d ddbd 87b8 aa3d de3c 563c
000002a0: 3247 a2bd 57ee 0cbc c3d7 833d 875b b93d
000002b0: 9cf4 dd37 9fa1 9b3c 8c20 0da4 2343 6bbd
000002c0: 9f21 25bd f095 4d3c 9685 5c3d 6282 e3bd
000002d0: 85d6 563d a7b9 d6bd 6bf1 05be c403 3bbd
000002e0: e85d 92bd 4956 673d 4c5b afbc bea7 293b
000002f0: 2d9f 43bc 7130 74bc ffa5 c2bd f8c1 1439
00000300: 4dca 90bc b468 86bd 3147 a23c 4e40 aebd
00000310: a746 133d ecbb 60bd 13e0 89bd 0867 23bd
00000320: c7e3 53bd 5a3c c9bc 7295 b0bd 9038 eabc
00000330: 7fcb 74bc 2171 9e3d f9e6 dcbd 81d8 66bb
00000340: bdef 5fbc 77e2 243b 0ba2 703c 8ecf 313d
00000350: 6f69 0dbc b8fb 8dbd 7c4b a13d bc68 2ebd
00000360: 101f 9b3c e4b1 95bc 440f 8597 2d3e 4dbd
00000370: 2e8f 25bc 4946 69bd 62b3 b03d 2bd7 653d
00000380: bd63 31b8 d1a5 743d 7204 f23c ee5b 793d
00000390: fd12 9ebd 801b 8abd 3ae8 2abc 5bab 51bd
000003a0: 7627 703d a19d 2a3d b041 9abc 7ea5 66bd
000003b0: ec94 43bd cc7f ccba 078b e6bc 5683 9bbc
000003c0: 2f44 fabc f0a8 643c 2e8b 5e3b bd79 56bd
000003d0: ecff a83d e82e 42bd 6750 9c3c bfd8 a5bc
000003e0: 2667 403d acac a1bc 7ad3 8abb 3f7e 9b3c
000003f0: 8e8f 9b19 86af b23c 4fb9 0ebd 81b0 15bd
-0.05700252 -0.02671478 -0.09836216 0.028711103 1.0105304e-14 -0.059875466 0.023230903 0.04023382
0.00026831805 -0.06374406 0.05271702 0.00067025487 -0.12323324 0.0012672393 0.018759882 0.088690646
-0.09571457 -0.06358046 0.07533953 0.0745879 -0.050736524 0.06976101 -0.09042095 -0.039601926
-0.022756476 -0.03298096 0.082209185 -0.10311356 -0.04949379 -0.08801877 -0.028540246 -0.043421477
9.910915e-09 0.05457274 0.00012416 -0.04613653 -0.12672102 -0.05562219 0.071744114 0.03396482
-0.13469344 0.02516071 -0.08002782 0.08331353 -0.00012758642 -0.097567156 0.01796301 0.09426688
0.0787815 0.04187213 0.058174722 -0.066771515 -0.09784849 -0.042149995 -0.09737914 -0.062837064
-0.061538626 0.055223245 0.014748322 -0.09676203 0.0357832 0.0055971206 -0.11093486 0.005745896
-0.103623845 -0.052184515 -0.07030922 -0.068187304 -0.012404152 -0.046489544 0.024615131 -0.019186253
-0.07314582 -0.07855614 -0.11316391 -0.04756352 -0.029629778 0.0879633 -0.030460017 -0.042040855
0.09417852 0.051185306 -0.052680243 0.0836989 -0.11083484 0.02167252 0.08611689 0.015013806
0.005867385 0.031759568 -0.018686417 -0.092230365 -0.08584867 -0.12200888 -0.010739444 0.04525397
0.0005688965 0.03675897 0.03326489 0.06082401 0.025160741 -0.056701273 -0.06982773 0.08234321
0.055902302 -0.013057213 0.08303247 0.08031187 0.030758226 6.1163038e-15 -0.12169258 -0.072619714
-0.09438192 0.012859793 0.037007727 -0.05715434 0.10107633 -0.094806045 -0.07597345 -7.84811e-06
0.041923 -1.1995924e-06 6.787018e-13 -1.0597287e-11 0.01845711 0.05780236 0.0105528515 -0.015047195
0.040747955 0.040400848 -0.12672901 0.013141332 0.018844685 -0.07965781 0.024246074 0.06227879
0.08138203 0.07678698 0.08240653 0.06250324 -0.053378023 -0.013114083 0.063282035 -0.038729582
0.01725763 -0.09059555 -0.043718375 0.024629662 -0.020568285 0.08998283 -0.11802454 -0.111834206
-0.090807416 -0.06660046 0.045254692 -0.011805818 -0.09521401 -0.049637914 -0.06360619 -0.10306373
-0.017480675 0.058908176 7.271786e-16 -0.098086 0.0033493936 -0.108209945 0.08335977 0.013076035
-0.07923736 -0.0086017465 0.06437638 0.090506606 2.6459158e-05 0.018997965 -3.060207e-17 -0.057437073
-0.040315267 0.012547955 0.053838335 -0.11108853 0.052450676 -0.10484629 -0.13080375 -0.045657888
-0.071468174 0.056478772 -0.021405838 0.0025887336 -0.011939806 -0.014904127 -0.095043175 0.00014186639
-0.01767459 -0.06562939 0.019809337 -0.08508359 0.03595605 -0.054866716 -0.06732192 -0.03989318
-0.051730897 -0.02456491 -0.086222544 -0.028591424 -0.014941095 0.077364214 -0.10786242 -0.0035224261
-0.013667998 0.0025159398 0.014687072 0.04341083 -0.008631094 -0.06932777 0.078757256 -0.04258035
0.01893571 -0.018273301 -8.598777e-25 -0.050108124 -0.0101049375 -0.056951795 0.086279646 0.056113403
-4.2292977e-05 0.059728447 0.029543135 0.060878687 -0.077184655 -0.067435265 -0.010431344 -0.051188808
0.058631383 0.041654233 -0.01883015 -0.05631017 -0.047749445 -0.0015602051 -0.028142465 -0.018983524
-0.03055009 0.013956293 0.003395747 -0.052362192 0.08251938 -0.047408015 0.019081308 -0.020244954
0.04697337 -0.019735657 -0.0042366358 0.018981097 1.6084606e-23 0.021812212 -0.034844693 -0.03654528

bias f4 [4]
00000000: 09bb 413d bc0c 76bd 3da7 9e3d 723a 693c
0.04729751 -0.06007074 0.07746742 0.014235126

weight f4 [128, 7]
00000000: 0aa9 f9bd 88e6 963e 9e43 693e 66cf c2bd
00000010: 6f09 383d a3b8 4c3e 397d b13e 31b0 e53d
00000020: 5beb eb3d 27f8 05be f9cf 7a3e f372 9c3d
00000030: 2dbc adbc 6d52 b73e 5804 81be 81d7 c03e
00000040: f1df c1be 2315 5a3c 23ec 7ebe 2c17 d2bd
00000050: e320 0ebe 0a50 a8be a998 723d 92e3 083e
00000060: 5a8c 86be 9440 8d3e 1b5f 38be 223e 0abd
00000070: 9547 883d 2e0c dbbd da61 bd3d 1f24 93be
00000080: 56ee b93e 9301 b7bd e643 b63e eb4c 75be
00000090: e1c9 a23e a9eb afbe e68d 423d a0be d23c
000000a0: 2c2b 613e 652a b53e 4c3c 733e 0751 cebd
000000b0: 5c77 9abe 6f1c 2f3e dcfd 903e 7a84 9d3e
000000c0: fdb4 aa3e 7473 3f3e 8395 753e 2137 623e
000000d0: 1b0c e73d bccd b33e 8862 0abe 9462 033e
000000e0: f0cc 19be 2b75 963e 0cfd 42be 6587 b33e
000000f0: 7045 babd 55cb 903e 4799 95bd 7183 10be
00000100: a793 3f3e 90cb 67be df1a 31be 5bef 99be
00000110: fb2d ffbc 276e 393c 2af2 80bc 6730 6a3e
00000120: 1f45 5abc 7f9a 9abe e074 32bd 93db a0be
00000130: 06b6 4c3e 9175 8c3e f6d9 83be 5398 40be
00000140: df51 6b3e 80da 1c3c f9a3 8c3d dd0f 843e
00000150: 0dda 1ebe 227f 843e bdf5 0cbe 1a6b 473d
00000160: 1543 dd3c a807 ebbd 01ca a1be 76a0 12be
00000170: b197 90be 365c e5bd df4d e8bd c3a4 81bd
00000180: eaaa 773d 3930 773e 303b dbbc cd96 51be
00000190: 9bb9 7a3e a4a2 7f3d d1b5 ea3d 753a 25bc
000001a0: 5acc 68be 5d75 bc3d ccde fc3d ac64 9ebe
000001b0: 2375 983e 9c3d 913e d0ec ad3e e697 6e3d
000001c0: 45e4 7a3b ce65 20be 2f8e 5cbe d0bd 1e3e
000001d0: aa52 57bd c7b9 fcbd e344 0bbe 65fe 123e
000001e0: d3b6 c1bd acc1 e7bd c506 333e 7146 cabd
000001f0: 86f3 813d a19c 913b 7042 6e3e 9e7f 7abe
00000200: bb15 ba3e 338f 72bc 131c 96bd 1f28 8c3e
00000210: 0f17 b13e a76d b53d 4fa6 433e afa5 be3e
00000220: ce2e b13e 28a7 b93e 060d 75bd ac04 ef3d
00000230: 36e0 a4be 8ac6 223e 845f c23e 5b2a a2be
00000240: 1291 b73e 6ccc 3a3e d7c5 5d3e ec55 41be
00000250: 660d b23e 7330 8b3e 761f 413e d0dc 7b3e
00000260: 7b9a 643e 17e1 b7be b0b7 963d 09a9 c83b
00000270: 5ff5 a6be a305 adbe acf9 a13e 18d8 943e
00000280: 3a57 823d a36f a8bd 7c10 eebb a873 7abe
00000290: 4d12 9ebe 197a 46bd 837a 66be c103 f9a3
000002a0: b442 6cbe 8a97 0abe 290f 40bd 374b 0fbe
000002b0: 7863 a33e fa0f 943e 0b2f c13e 2f22 793e
000002c0: 0904 97be 9c8e 87be f9bf 95bc 1c70 803e
000002d0: 87b2 22bd 2154 c33e 516a 8f3e 7027 c0be
000002e0: c654 003e 3d63 d3bd 60da 3a3e ea86 36be
000002f0: 7f6e a53e 76ea 6bbe f3b8 0bbe 022e 79be
00000300: 148a 423e a836 85be d1b0 9eb9 0b41 a63c
00000310: 7333 9f3d f0c7 35be 673b 55be d5e9 fbbd
00000320: 2e5d 1bbe c6f7 bd3d 191b a23e e2f4 5e3c
00000330: bf73 783e 91fb 00be 3e1b 2f3e d0e2 48be
00000340: 25c0 333e 5199 10be 9c9c f43c b428 833e
00000350: 893e c93d 19a5 853e 3c2d f8bb 16ac 24bb
00000360: c130 97be f5d7 c33e ad5d 743e 77d4 0dbe
00000370: 80a4 cb3e 9d50 2d3d 1914 893e a76e 943e
00000380: 9801 d73d 366f 5dbe e9c9 97bd 019c 01be
00000390: aaba 173e 22c0 613e be2e 94be 7a34 52bd
000003a0: 5404 4fbc 9012 67bd 80f3 b03e 8b3e 923e
000003b0: e291 5ebe db18 a8be 1ba9 753e 34d5 923e
000003c0: 2d20 623d ea1d c7be 57bb 813e 251b 3d3e
000003d0: 7ca7 b73e 3f05 643d 623a 09be 3e38 90be
000003e0: d6a4 34bd 3c2d 7abe 9895 9fbe 8e69 27bd
000003f0: ff4b 923e 64d0 72be 37d8 983e 1f92 83be
-0.12190445 0.29472756 0.227797 -0.09512214 0.04493087 0.19992308 0.3466585 0.112152465
0.115195 -0.13082944 0.24493398 0.07639112 -0.021207893 0.35805073 -0.25198627 0.37664416
-0.37866166 0.013310703 -0.24894767 -0.10258326 -0.13879733 -0.32873565 0.05922762 0.13368061
-0.26278955 0.27588332 -0.1800503 -0.03375066 0.06654278 -0.106956825 0.09247179 -0.28738496
0.36314648 -0.08935847 0.35598677 -0.23955123 0.31794646 -0.34359482 0.047498606 0.025725663
0.21989125 0.35383907 0.2375347 -0.100740485 -0.3016919 0.1710069 0.2831868 0.30765134
0.33341208 0.18696386 0.23982815 0.22091343 0.11281606 0.351179 -0.13514149 0.12830573
-0.15019584 0.29386267 -0.19041842 0.35064235 -0.090952754 0.2828013 -0.07304626 -0.14112641
0.18708669 -0.22636247 -0.17295407 -0.30065426 -0.031149855 0.011317766 -0.015740473 0.22870027
-0.013322144 -0.30195996 -0.043568492 -0.31417522 0.19991311 0.27433446 -0.25752228 -0.18808107
0.2298045 0.009573579 0.06867213 0.25793353 -0.15512867 0.25878245 -0.13765617 0.048686124
0.027009526 -0.1147607 -0.3159943 -0.14319023 -0.2824073 -0.111992285 -0.11342978 -0.06330254
0.06046573 0.24139489 -0.026761621 -0.20467682 0.24484865 0.062410966 0.1146046 -0.010084738
-0.22734204 0.09202073 0.12347183 -0.30936182 0.29776868 0.28367317 0.33969736 0.05825033
0.0038283032 -0.15663835 -0.21538614 0.15502095 -0.05256907 -0.12340122 -0.13600497 0.14354856
-0.09458699 -0.11316237 0.17483051 -0.09876717 0.063452765 0.0044437204 0.23267531 -0.24462745
0.36344704 -0.014804649 -0.073295735 0.2737436 0.34587905 0.08858805 0.1910641 0.37235782
0.34606022 0.36260343 -0.059826873 0.11670813 -0.3220231 0.15896049 0.37963498 -0.3167294
0.35852867 0.18242043 0.21657501 -0.18880433 0.34775847 0.271854 0.18859658 0.24595952
0.22324555 -0.35913917 0.07359254 0.006123666 -0.32609078 -0.33793363 0.31635797 0.29071116
0.063642934 -0.08224418 -0.0072651487 -0.24458182 -0.30873337 -0.048456285 -0.22507672 -2.6998224e-17
-0.2307232 -0.1353437 -0.046889458 -0.13993536 0.31911826 0.2891844 0.37731203 0.24329446
-0.29495266 -0.2647599 -0.018280016 0.25085533 -0.03972104 0.38150123 0.280108 -0.37530088
0.12532339 -0.103216626 0.18247366 -0.17824903 0.32310864 -0.23038658 -0.13644771 -0.24333957
0.18997985 -0.26018262 -0.00030267847 0.020294687 0.07773485 -0.17752051 -0.20823441 -0.12300459
-0.15172264 0.09275775 0.316613 0.013608189 0.24262904 -0.12595965 0.17100236 -0.19617772
0.17553766 -0.14120986 0.029859833 0.25616992 0.09826381 0.26102522 -0.0075737517 -0.0025126985
-0.29529384 0.382507 0.2386386 -0.1385058 0.3977394 0.042313207 0.26773146 0.2899067
0.10498351 -0.21624455 -0.07411558 -0.12657167 0.148173 0.22045949 -0.2894191 -0.051319577
-0.012635309 -0.056414187 0.34560776 0.28563341 -0.21735337 -0.32831463 0.2399029 0.28678286
0.055206466 -0.3889001 0.2533824 0.18467386 0.35869968 0.055669066 -0.13401178 -0.2816791
-0.044102512 -0.24431318 -0.31168818 -0.04087215 0.28573605 -0.23712307 0.2985246 -0.2569742

bias f4 [128]
00000000: ac98 0a3e 5bc2 15bd 699b 313d 4329 1f3e
00000010: 5ca9 dc3b 5699 a9be b96f 57be d19a 0d3e
00000020: b6d6 a5be db6b 81be 606c 37be 223a 783e
00000030: fa2b 0f3d c572 5bbe ea84 003e 9f6d 4d3e
00000040: a8c6 24be d1dc 9dbe 260a 03bc 2bd0 a9be
00000050: 30d4 89be 1dbf 2dbe 4227 ac3e c005 8bba
00000060: 9c86 883e 4629 a8be 7fd1 a13e ea7b 8dbe
00000070: b9e8 94bd 7b17 873e 94c2 633e 3dd1 663e
00000080: 977b b53e 5cf8 4b3e 7084 be3e 0263 b33e
00000090: 830b 9f3e 36f1 41be 7c50 8d3d 5320 9d3e
000000a0: d597 ab3d 8ecd 99be cdbd a23e d895 97be
000000b0: 46f8 2a3e c790 17be 428e 0cbd ae7c adbe
000000c0: 2922 c83d 881c c73e b071 df3b 8390 7a3e
000000d0: 55c3 74bd 8d5e 72be d52f c83e f3ec 34be
000000e0: 51b3 8dbe a954 843e 016d 323e 28de 683e
000000f0: e01f 8a3d 922d 6c3d eb1a 3fbe db7a 73bd
00000100: 3f48 35b2 7bec b0be d267 bb3e 05cb 633e
00000110: 916d ef3d d90a 25bd 0815 d03e 643a 9dbe
00000120: 5974 55be 386e 563c b494 29be 9500 913d
00000130: f4aa 8e3e 4244 92be bceb b43e a91b c43a
00000140: ba01 1bbe 2424 89be c5e3 e7bc 42a3 07be
00000150: 0c96 943e ac11 8bbe ca4f 4a3e 2c68 133e
00000160: a912 0ebe f71a fdbd fb93 fdbd 8f5e b2bd
00000170: 8c1e 8338 2600 2e3e edf3 bd3e 9686 7e3e
00000180: 37bc a03c 48c4 a93e 200f 3e3e 2f79 7dbe
00000190: 6aec a4be 4f8f 723e a562 e93d 0b3b 6d3e
000001a0: a18c 3ebd 4db2 ea3d 3dd5 8f3e 0eee ac3e
000001b0: a249 1dbe 1fb8 8a38 dad2 a4bd 9ead 1bbe
000001c0: 3d7d 97be 6f6e d3bb af85 4fbe bcc4 b83e
000001d0: 1b8f a3be 39ca 7cbe 0a63 ae3e 5d38 763e
000001e0: c906 70be a3d1 43be 296d 6e3d fc8d 7ebe
000001f0: 4765 42be 7433 8e3e ca7b 103e 344a bdbe
0.13534802 -0.036562305 0.0433611 0.15543084 0.0067340564 -0.331248 -0.21038713 0.13828589
-0.32390374 -0.252776 -0.17912436 0.24240926 0.03495405 -0.214305 0.12550703 0.20061348
-0.16091406 -0.30832532 -0.007998025 -0.33166632 -0.269197 -0.16967435 0.336237 -0.0010606572
0.266652 -0.3284399 0.31605145 -0.276336 -0.07270951 0.26385102 0.22242194 0.22540756
0.35445854 0.1991896 0.37210417 0.35036474 0.3106347 -0.18939671 0.06900117 0.30688724
0.08378569 -0.30039638 0.31785432 -0.2960651 0.16696271 -0.14801322 -0.034315355 -0.33884186
0.097721405 0.38888955 0.0068189725 0.2446919 -0.059756596 -0.23668881 0.39098993 -0.17668514
-0.2767587 0.2584584 0.17424394 0.22740996 0.06744361 0.057660647 -0.18662612 -0.059443336
-1.05520135e-08 -0.3455542 0.36602646 0.22245415 0.1169082 -0.04029355 0.40641046 -0.3070861
-0.20845164 0.013087802 -0.16560632 0.07080189 0.27864802 -0.28567702 0.353361 0.0014961857
-0.15137377 -0.26785386 -0.028306851 -0.13245872 0.29020727 -0.2716192 0.19757 0.14395207
-0.13874306 -0.12358659 -0.12381741 -0.08709442 6.2522566e-05 0.16992244 0.37100163 0.24856028
0.019620998 0.33157563 0.18560457 -0.24753259 -0.3221162 0.2368748 0.11395768 0.23167054
-0.046520833 0.114597894 0.28092375 0.3377537 -0.1536012 6.614648e-05 -0.08048029 -0.15202948
-0.29587737 -0.0064523737 -0.2026584 0.36087596 -0.31945118 -0.24686517 0.34059936 0.24044938
-0.23440088 -0.19122939 0.058209572 -0.2485885 -0.18983947 0.2777363 0.14109722 -0.36970675

weight f4 [128, 128]
00000000: 84fd bdbc 7c21 803b 001e 0ebd 62d0 9bbc
00000010: fd57 adbd 430d 94bd 986a c7bd ca40 42bd
00000020: 3dad 32bd 2578 18ba 4b13 89bd 1460 ae3b
00000030: e880 a23a ea66 ffbc 7532 f0bd 2584 97bd
00000040: 0646 c33b d939 8090 4674 923d aa00 67bd
00000050: 5ba3 413d d48b b03a 1239 0d3d 8c63 1936
00000060: 5db6 8b3d 4b00 22bd 0c51 483d d827 a419
00000070: 60b7 2f3d c3f2 58bd dc66 78bd 5b09 283d
00000080: 4b07 483d 648d bb3c fe6a 36bd 8065 90bc
00000090: ae81 0ebd c4dc 37bd 3ee3 0fbd a8f8 76bd
000000a0: d7f7 7c3d d668 143b d61d 1b3d beaa b7bc
000000b0: f961 a4bd 6a9b 8f3d 5530 86bd 5206 5bbb
000000c0: d76c 9ebd ed5e 0e3d 9c20 953c b0f1 59bd
000000d0: 96d8 743d f0f1 6fb0 1c77 bb3c fd8e 9f3d
000000e0: 844d 9a3d d598 913d 07f6 ce3c 65d3 a2bb
000000f0: 495f 7f3d 2a11 13bd d44b 983d 5ffd a93c
00000100: fe9c fdba c587 a1bc bde9 edbc b7dc cf3c
00000110: 344a a33b 0fee b23d 15ef 1a3d fc60 303d
00000120: 1626 1b3d 2232 65bd 55a5 dfbc 7dc9 28bd
00000130: 0fd3 5f3d 3685 2a3a a9b0 df3c 367c 893d
00000140: 7542 08bd 49f1 dfbc 9bd4 8dbd 61b9 a23d
00000150: 7f94 823d b18e bc3d 5907 92bd 9ce8 a5bd
00000160: c8ba 8bbc 4bf5 a83c ab3c 66bd 1395 9b3d
00000170: 0911 083c 5471 1a3d ec38 83bc c8d9 2c3d
00000180: d2d9 703d df11 073d e566 dc3c 8918 3ebc
00000190: 995e 03be 4fe6 00bd 3994 db3c 55a1 213d
000001a0: 856b 02bd 405c 77bd 37d5 b6bc 61c3 1f3b
000001b0: 775f 1eb9 a48a 77bd f493 1d3d 2cb5 473d
000001c0: d462 ddbd 27bb e13c 9720 243d 10fb fa3c
000001d0: 2873 9bbd 7dfc 1e96 6766 f3bc 4596 d7bd
000001e0: 37af a03c 1bd7 783d 0f37 4f3d 69e2 a73d
000001f0: a73b 0d3d e2f4 babd 346a 8a3c 76ef 99bd
00000200: 81fd 2934 4422 0133 0b79 1838 957e 0636
00000210: 31fa 4d3c 80a0 093c 5261 0837 9f7f 2abc
00000220: 854c 6fbb 366f 9935 0b57 0c38 5a88 de22
00000230: c064 77b8 635a 7db9 d48f 89bb 2329 a4b4
00000240: 2628 5cbb 2f1e 95bc e161 ab3b 4f22 59bc
00000250: 8bbf c626 1432 731b 3dcd c5bb 5b8b 20bc
00000260: 16cb 84b8 f7e8 ebbc 29c4 edbc e0ba 223c
00000270: 08b3 bf3c 4b6c c7bb 2732 55bb 61c4 293b
00000280: f91d 0139 694c b8b5 a220 49bc 739b 882d
00000290: 01c8 83bb 6757 8f97 a0e3 1933 962d a2bc
000002a0: ad84 8039 dedc df3b 968c 91bc e345 4a3c
000002b0: 8ac0 a828 926c 9cbc e693 86bc 0c99 f916
000002c0: 9621 06b5 3672 c33b 2055 1c3c b040 0ebb
000002d0: 5bf8 293c 5ad1 97bc 62e2 2db9 8552 6cb5
000002e0: 2ea9 66b5 568c 4a3c a1f6 ed3a f91f 98bc
000002f0: 1d19 acbb bc7e a737 b25c 8fbc c432 8b3b
00000300: f4d0 c43c 81a2 ba26 391f f2bb f47d bfaf
00000310: 8227 4731 306a 67bc 5f1c 7ebb abcc d73c
00000320: 09e1 703c 4b00 7eb0 0e40 7c1f 5238 863b
00000330: 6237 f638 c57d 7b3c 999f d235 3a22 5f3c
00000340: 6891 ea3c fa40 93bc f929 2b98 6a64 4abc
00000350: 600a 2db8 0d2e f13c b2fc 863c be84 d43c
00000360: 4f66 99b0 86e5 22bc 0786 b2b5 0bd4 f4b9
00000370: a423 08b0 3d2f a4b8 c268 30bb 6d3f 113a
00000380: 890c 7835 16ca db35 c878 80b7 feb1 5cbc
00000390: 24f3 08b3 d479 c5bc f49b a0a9 2984 72bc
000003a0: bb97 0e3c 80c0 d633 e003 e33b b77d 0abb
000003b0: 5f57 0dbb 84a1 9339 b480 a3bc 9951 132c
000003c0: 171e 83bc bf72 8997 c55c deba 8365 9bbc
000003d0: c208 75aa 789c 6cb7 0b66 47bb 2c39 70bc
000003e0: 68e2 aa3c 5c6c e82b fd96 d33c f68e 8aba
000003f0: b502 a0b7 3561 1d33 122e fdbb 8a17 36ba
-0.023192175 0.0039102416 -0.03469658 -0.019020263 -0.08464048 -0.07229092 -0.09737128 -0.04742507
-0.043622244 -0.0005816243 -0.06693133 0.005321512 0.0012398036 -0.031177003 -0.11728374 -0.073982514
0.005959275 -5.0576226e-29 0.07151084 -0.056397118 0.04727493 0.0013469406 0.034478255 2.285672e-06
0.068218924 -0.03955106 0.048905417 1.6973295e-23 0.04289949 -0.05296589 -0.06064497 0.041024547
0.04883508 0.022894569 -0.04453563 -0.017626524 -0.03479164 -0.044888273 -0.035128824 -0.06029573
0.061759796 0.0022645495 0.03787025 -0.022420283 -0.08026499 0.07012065 -0.06552187 -0.0033420515
-0.07735603 0.034758497 0.018204026 -0.053209007 0.059776865 -8.729151e-10 0.022883944 0.07790945
0.07534316 0.071092285 0.0252638 -0.004969048 0.06234673 -0.03590504 0.07436338 0.0207507
-0.0019349155 -0.01971806 -0.02904212 0.0253738 0.004983211 0.08736812 0.037825663 0.04306124
0.03787812 -0.055956014 -0.027300516 -0.04120778 0.05464464 0.00065048353 0.027305918 0.067131445
-0.033266503 -0.027336733 -0.06925317 0.079455145 0.0637598 0.09206904 -0.07130308 -0.08101007
-0.017056838 0.020624777 -0.0562102 0.07596793 0.008304843 0.037705734 -0.016018353 0.04219988
0.05880148 0.032976028 0.026904533 -0.011602529 -0.12829055 -0.03146964 0.026804077 0.0394605
-0.03184082 -0.06039071 -0.022318466 0.002437793 -0.00015103618 -0.060434952 0.038471177 0.048756763
-0.108098656 0.027555062 0.040070143 0.030637294 -0.07590324 -1.284281e-25 -0.029711915 -0.105267085
0.019614799 0.060752016 0.050589617 0.08197481 0.034480717 -0.09128739 0.016896345 -0.07516377
1.5831576e-07 3.0066317e-08 3.6352354e-05 2.0041236e-06 0.012571857 0.008400083 8.128891e-06 -0.010406404
-0.0036514115 1.1431755e-06 3.3459666e-05 6.031759e-18 -5.898322e-05 -0.00024161632 -0.004198054 -3.057731e-07
-0.0033593266 -0.01820287 0.005230174 -0.013252809 1.3790928e-15 2.011667e-22 -0.006036429 -0.00979885
-6.332078e-05 -0.02879761 -0.0290242 0.00993225 0.023400798 -0.0060859076 -0.0032531114 0.0025904404
0.00012313564 -1.3731307e-06 -0.012275847 1.5530443e-11 -0.004021645 -9.263222e-25 3.5830112e-08 -0.019797128
0.00024512914 0.0068317493 -0.017767232 0.012345764 1.8735247e-14 -0.01909474 -0.016427945 4.0324706e-25
-4.9967764e-07 0.0059645427 0.00954178 -0.0021706037 0.010374154 -0.018532444 -0.000165829 -8.803693e-07
-8.5927866e-07 0.01236256 0.0018155166 -0.018569933 -0.005252017 1.9966967e-05 -0.017500255 0.004247995
0.024025418 1.2950389e-15 -0.007388976 -3.4832193e-10 2.898077e-09 -0.014124438 -0.0038774235 0.02634271
0.01470209 -9.240508e-10 5.341606e-20 0.0040960694 0.0001174051 0.01534981 1.5692668e-06 0.013619
0.028633788 -0.01797532 -2.2122423e-24 -0.012353042 -4.1256077e-05 0.029440904 0.016477916 0.025942203
-1.1161293e-09 -0.009942418 -1.330104e-06 -0.0004669729 -4.952716e-10 -7.828928e-05 -0.002691791 0.0005540762
9.240544e-07 1.6375586e-06 -1.5315032e-05 -0.013470171 -3.1886103e-08 -0.024105944 -7.132481e-14 -0.014802017
0.008703168 1.0000167e-07 0.006927952 -0.002113206 -0.002156697 0.00028158363 -0.019958831 2.0935252e-12
-0.016005559 -8.882383e-25 -0.0016964903 -0.018969303 -2.176341e-13 -1.4103127e-05 -0.0030425813 -0.014662068
0.020859912 1.6514667e-12 0.025828833 -0.001057117 -1.9074747e-05 3.664282e-08 -0.0077264393 -0.00069462566

bias f4 [128]
00000000: 3171 f53a c8d6 513c bd92 2fbd da59 ddbc
00000010: 5e45 b5bc 89d5 ecbc 9390 c53d 8a4c b1bb
00000020: 6ed9 3c38 604c e53c 8654 b8bc 9c89 2e3d
00000030: 08af d1bd 5283 7cbc 8416 683d 4ded 103c
00000040: a29e c13d 1ff2 b13d 6364 293d 3ceb f23c
00000050: 8ba3 943a 6f8f a7bd de16 58bd 0416 793b
00000060: f780 b03c 76f8 b43d 032f b93d a26b 0abd
00000070: 48eb 723d 8846 7ebd 22a2 18bd c53f 4abd
00000080: d3fe a63d b8c5 90bd cde6 b23c 196e 5ebd
00000090: ec5f a83c ce75 aebc f181 13bd 97cc 4f3d
000000a0: 5b27 8ebd 3b07 ef3c 3723 9ebc a3eb 68bc
000000b0: 986f 89bd c30b d1bc 2083 f83c 8957 85bb
000000c0: 2dd2 693d f221 2f32 55b9 de3c bf6c d1bc
000000d0: e4a5 61bd dc90 963c 72cd 643d 1d17 c93d
000000e0: 5c94 69bc 45b8 6bbd aaa3 3fbd 2188 d53d
000000f0: 8820 9cbd cd55 d6bc 1190 cc3c 9237 2c3d
00000100: 0ae7 cebc 9be2 8a3d 3689 3ebd c98d c3b9
00000110: 478d d4bc 0a2e a8bc 6168 6d3d dcad 233c
00000120: b6f7 97bd 72b4 b43d eb93 0fbb 11dc bb3d
00000130: 9170 3d3c be2a b83c ba0b 62bd cf8e e030
00000140: 3aab 61bc 0262 a63d f8dc a333 2de0 58bc
00000150: d693 ab39 bcce ecbc 4aa4 46bc ab8c e33c
00000160: 2982 a63d cc53 803d 545e a5bb ea95 443d
00000170: 53cc bc3d b6c0 403d 5957 76ba 7206 03bd
00000180: 32db b63c 558d 1abd ae37 dc3c 2a85 0fbd
00000190: e53e c7bc 2a87 aa3c 8e2d 9dbd fecb 763c
000001a0: 330b 00bc c890 3838 ba06 689b 68d2 00bd
000001b0: aa9d 4a3d 1956 58ba dbd3 853c 5892 b8bd
000001c0: 2c1d 4cbd 7a9c f93a efb7 8d3d 183f 4ebd
000001d0: 7583 86bd 9a7d 283d 5642 8cbd 9553 50bd
000001e0: e8d5 41bc 564f efb2 638d dabc 5b4e 76b1
000001f0: 8499 0c22 20ca 44bd b5e7 91bd eae7 37bd
0.001872575 0.0128075555 -0.04286455 -0.027020384 -0.022127803 -0.028910415 0.09646716 -0.0054107355
4.502519e-05 0.02799052 -0.022501241 0.042611703 -0.10238463 -0.015412169 0.056662098 0.008845639
0.09454085 0.08688759 0.0413555 0.029653184 0.0011340244 -0.08181655 -0.052756183 0.0038007507
0.02154587 0.08836453 0.0904217 -0.033794053 0.059306413 -0.062078983 -0.037263997 -0.04937722
0.081540726 -0.07068962 0.02183857 -0.054304216 0.020553552 -0.021296408 -0.036012594 0.05073222
-0.069411 0.029178252 -0.019303901 -0.014216336 -0.06710738 -0.025518304 0.030335963 -0.004069273
0.057085205 1.0194059e-08 0.027187983 -0.02556455 -0.055089846 0.018379621 0.05585999 0.09818862
-0.014256563 -0.05754878 -0.04678694 0.10426355 -0.07623392 -0.02616396 0.02497104 0.042045183
-0.025256652 0.06781503 -0.046517573 -0.00037298937 -0.025946273 -0.020529766 0.05796087 0.009990182
-0.07420294 0.0882348 -0.0021908234 0.09172834 0.011562482 0.022481319 -0.055186965 1.6338734e-09
-0.013773734 0.08124162 7.630473e-08 -0.013237041 0.00032725808 -0.028907172 -0.0121241305 0.027777037
0.08130295 0.06265983 -0.005046645 0.04799453 0.09218659 0.047058783 -0.0009397171 -0.03198857
0.022321317 -0.03773244 0.026882019 -0.035039105 -0.024321983 0.020816404 -0.076747045 0.015063284
-0.00781517 4.4003857e-05 -1.9192764e-22 -0.03145066 0.049466766 -0.00082525756 0.016336372 -0.09012288
-0.049832508 0.0019043826 0.06919848 -0.05035314 -0.06568042 0.041135408 -0.0684859 -0.05086096
-0.011830784 -2.785934e-08 -0.026678747 -3.5842251e-09 1.9054809e-18 -0.048044324 -0.07124273 -0.044898905
