c220g2_bips_wdram.pt (torch, 23370 bytes, 6 tensors)

weight f4 [32, 5]
00000000: 373a 75be 9a33 e4be 5965 bcbe 13cd 4abf
00000010: 20d5 c83e d7af fabd a6d2 2c3e 6ddf c9bd
00000020: 0e6f ce3e da0a 69be b0c9 c63d 2b2c 2e3e
00000030: feff eebd 509e e93d 5158 e2be 3c74 503e
00000040: cf25 d5be 79aa 553d 9eb3 21bf 018e 603e
00000050: 32c6 3a3e d2f8 433e 3408 a43d 9fe4 14be
00000060: 8a67 75be 5c2d 203e bc9d a33e 618f 6fbc
00000070: 1926 ac3d 2583 553e b9af 3cbe 55d9 2b3e
00000080: 40f2 97be 15fc 643e 88b9 ebbd c7ff 84a9
00000090: 18e5 492e 0913 0080 c001 0080 5b93 8eb5
000000a0: 0695 6f3e ac3f 1ebf 4f89 e1bc 7b2a 85bd
000000b0: e4de b83e e5a4 d43b af98 4fbf fc06 1ebe
000000c0: 7772 53be 4892 033d 05c0 593e cc94 973e
000000d0: b286 9b3e eae5 c53e 8816 893c d410 44bc
000000e0: f3c2 f33d 9def a5bd 274e 573e eb4e 70be
000000f0: 23cc a6bc 6d9e 3ebf c92d adbd ca52 67bf
00000100: 5067 9f3e e813 ec3e e817 25be 4f30 24bd
00000110: 6fcf 2dbf f468 a53e 4200 97be f005 e8bd
00000120: c50c 6cbe 9911 59bf 16b7 863e 90f4 77be
00000130: 8202 9dbe 96eb d4bc ae6c 0fbf 6174 a33e
00000140: d6a3 313d e775 c4be 0ddd bebc 8842 64bf
00000150: 30d5 843e 9c42 753e 5228 23bf 29c7 b4bd
00000160: fb66 b2be 29c3 d03e a023 0080 430b 0000
00000170: dec6 0bad fa1f 2b83 0c5a 60af d810 0080
00000180: 1f1d 0080 cb19 0080 e451 663b 5937 8fba
00000190: 74d1 8e3c 865a 2d3e cedb e4bd 5656 703e
000001a0: 6db8 48be a559 d63e 832d 183e 1546 8e3d
000001b0: 3c43 20be 14a9 cfbe ce5a f39a a010 0000
000001c0: 611d 0000 d709 77ba 2205 0000 3dc6 543e
000001d0: 2175 59be 79b2 cabd 2d45 06bf c5e2 b43d
000001e0: 05fd 25be 5b15 76bc 88c1 84bd be09 383e
000001f0: 4444 89be c60c 57be 8e84 153d f908 51be
00000200: 89c5 04bf b9d9 813e 746f ec3e 1225 673e
00000210: 070c 493e a096 30bf 98ad 93be dbd5 543e
00000220: c189 50bd 11a2 62bd e5ad 2dbf 3c0d afbc
00000230: b447 123d f651 1f3e a432 f0bc de54 1fbf
00000240: fa7e 933e 2d6f a0be 0557 093e f41e d2bd
00000250: 764f 0c3f 9ec2 8cbd 7e18 bd3e 0453 07bf
00000260: ca1f df3d 7a57 55bd 834b ce3e 0ac8 16be
00000270: 7dab a13e 75e2 24be 7bcc 6d3f 3b2d 20bd
-0.23947988 -0.4457062 -0.36796072 -0.7921917 0.392251 -0.1224057 0.16877231 -0.09857068
0.40319103 -0.22758046 0.097064376 0.17009036 -0.116699204 0.11407149 -0.44208005 0.2035684
-0.41630408 0.05216453 -0.631647 0.2192917 0.18239668 0.19137886 0.08009377 -0.14540337
-0.23965278 0.15642303 0.3195628 -0.014621587 0.08405704 0.20850809 -0.18426408 0.16782124
-0.2967701 0.22361787 -0.11509997 -5.906348e-14 4.5905585e-11 -6.829e-42 -6.28e-43 -1.062271e-06
0.23396692 -0.61815906 -0.027531294 -0.06502243 0.36107552 0.0064893835 -0.8109235 -0.15432352
-0.20649134 0.032121927 0.21264656 0.2960571 0.30376202 0.38651973 0.016734377 -0.011966903
0.11902418 -0.08102343 0.21025907 -0.23467605 -0.020361012 -0.7446049 -0.084559985 -0.903607
0.3113351 0.46108937 -0.16122401 -0.040085133 -0.67894644 0.32306635 -0.29492384 -0.113292575
-0.23051746 -0.84792477 0.26311558 -0.24214387 -0.30665976 -0.025991242 -0.5602521 0.31924728
0.043369137 -0.38371202 -0.023298765 -0.8916402 0.259439 0.2395119 -0.637334 -0.08827049
-0.34844193 0.40773895 -1.278e-41 4.04e-42 -7.945393e-12 -5.028909e-37 -2.0404672e-10 -6.042e-42
-1.0447e-41 -9.253e-42 0.0035144025 -0.0010926529 0.01743386 0.16929063 -0.11174737 0.23470435
-0.19601603 0.41865268 0.14861111 0.06946961 -0.15650648 -0.40558684 -1.0064915e-22 5.964e-42
1.0539e-41 -0.00094237685 1.841e-42 0.20778747 -0.21236087 -0.09897322 -0.52449304 0.08832315
-0.162098 -0.01501974 -0.06482226 0.17972466 -0.26809895 -0.21000966 0.036503367 -0.20413579
-0.51863915 0.25361422 0.46178782 0.22572735 0.19633494 -0.68979836 -0.2884338 0.20784704
-0.050912622 -0.05533034 -0.67843467 -0.021368615 0.035712913 0.1555861 -0.029321022 -0.6223887
0.28807813 -0.3133482 0.13412102 -0.1025981 0.5480875 -0.06873058 0.3693275 -0.52861047
0.10894735 -0.052085377 0.40291986 -0.14724746 0.31576148 -0.16102012 0.9289014 -0.039105635

bias f4 [32]
00000000: 0c27 94be 33ed c33e 3a83 223e 9445 03be
00000010: 7d7b be3e fceb 4bbd 006a ee3e 6e1c 0080
00000020: 825d 37be 7e44 a13e 62f2 e6be e740 1e3e
00000030: 9b91 6abc b401 ecbc 0e7a b83e 89b4 c33e
00000040: 6e8a 0f3d 5505 c43e cb0c 0080 f465 1d9e
00000050: 49d5 d43d 9003 7c3e 92f2 8ab6 8a70 123f
00000060: a877 a43e 6608 133f f618 8abd f03c ca3e
00000070: 760c 023f 1d7f 143f 6d4d 6abe 1626 893e
-0.2893604 0.38266906 0.15870371 -0.1281951 0.3720359 -0.0497856 0.46565247 -1.0199e-41
-0.17906764 0.31497568 -0.45106798 0.15454446 -0.014316942 -0.028809406 0.3603062 0.38223675
0.035044126 0.38285318 -4.589e-42 -8.332594e-21 0.103922434 0.24610734 -4.1409594e-06 0.5720297
0.3212254 0.5743469 -0.06743042 0.39499617 0.50800264 0.5800646 -0.22881098 0.2678687

weight f4 [32, 32]
00000000: 65b7 1b3e 7f0b ec3b 6b45 99be b81e 133e
00000010: 9383 893d 01b6 443e 63fc 94be 8c20 0000
00000020: 7d1f 983d 2539 333e f771 acbe 3c99 33be
00000030: ae60 e1bd 308a e0bd 5ab3 b43d 5ad6 213d
00000040: c839 fbbd fcc6 d0bb e301 0080 4f14 0000
00000050: 0d96 27be 0979 b3bd 4c11 0000 f89d cfbc
00000060: bff1 01be 67c5 193e 6382 623e 3cf4 983d
00000070: 79f2 403e 93d9 88bd 7470 863d adc1 9cbe
00000080: 3d6f dbbd ec8a 053e f155 853e 8d24 123e
00000090: 2a4f 1e3e 7abc e93d be33 6d3d e613 0080
000000a0: f4fd 343d 4470 2fbe 2c3d a73e f491 133e
000000b0: 3ef2 22bc df06 df3d 1217 0a3d f1a9 1dbe
000000c0: d272 76bd de23 a43d 000e 0080 e219 0080
000000d0: a4c9 2b3e 0f8e aabd e914 0080 613a b13d
000000e0: 4c71 2b3d 8c1d f3bd 93ea 213d f41b 23be
000000f0: 1fe6 ecbc e25e ec3d 26dc b33d 7cb8 883e
00000100: ae09 1e3e e416 25be 7b42 e1bd ab99 18be
00000110: 1b13 8d3d 3c10 c13d c662 85be 2025 0080
00000120: 7fb1 963d c398 9a3e 1f2e c2be 92ba 39be
00000130: 6b24 bb3c 5653 e03d 927d 7c3e 13f6 723d
00000140: 41d0 2f3e 1610 86bd 9f22 0000 b025 0000
00000150: cbc0 4abe d474 423e 340e 0000 17a2 3c3d
00000160: b6b9 a0be f88a b3bc bff5 6c3e 2649 1bbd
00000170: 6681 2bbd dc18 95be dc8b cebd 0143 acbe
00000180: 66ae 0c3e 8615 883c 84e7 88bd 5b49 bd3b
00000190: f400 163c a9f4 963c 7913 3cbe ce0f 0000
000001a0: f45c f63d ac12 3e3e 2228 91be fbcd c3bd
000001b0: f459 173e 1a2f 443e 7a8e c9bd 2509 b6bd
000001c0: 38f8 573e 18f7 043d 550f 0000 ec0d 0080
000001d0: 1c63 06be e2f8 a5bd 0d08 0080 8bc1 3d3e
000001e0: c476 3cbe 55af d93b ce8a b3bc 6a4c e53d
000001f0: 3f9e 113d 8922 9bbb 5f98 f13d 575b 63be
00000200: c2d7 2d3e 4d91 f7bb 860c 7abe 27fe 963d
00000210: 7645 b4bd 9586 d13d 4b0f f1bd 3810 0000
00000220: 6600 babc 600d 073e 936f c6be 7180 29be
00000230: 7559 3d3e 349f 1c3e 3f6a 043e 5130 613e
00000240: bec1 64bd 6d38 03bd 7726 0000 4021 0000
00000250: e99c 22be 4d94 ee3d 6b14 0080 f8c7 643e
00000260: f45b 8ebe a245 73bd 870f de3d f074 d63d
00000270: 1ff3 68bd 8b24 ccbd 0bd2 083e 21e6 8abe
00000280: 0f6d b93d e2cb 76be e21e 50be b1ff d13d
00000290: b32c 2e3d 5caf 3b3e 37fb 773c 170c 0080
000002a0: 4858 193a 9090 123e 4143 c3be 1b4d 45be
000002b0: dac3 333b 68c2 1a3e 2294 b5bc 7c1d 05be
000002c0: 761d 383e 0c93 3b3e 1b0a 0080 e709 0000
000002d0: 7da2 1cbe ec42 1ebd 4519 0080 a40a 98bd
000002e0: 3287 a5bd 77b9 f13d 35d5 26bd b105 03be
000002f0: 782c 2d3c e455 db3c dbc7 003e 40fd 6abd
00000300: 5b83 fa3c 86c1 36bd d9d6 d6bd ccb0 d73b
00000310: 725c f13d e0a9 9bbc 2328 b5bc 2e15 0080
00000320: 2c4f 02bc 6a17 07bd 11c5 1bbe 9bda fdbd
00000330: 8c1f 733d 5657 b5bd 9479 eb3d b0bf f4bd
00000340: 5370 41bd 674b fd3d 79c1 58b8 c316 0080
00000350: 0762 09be 2843 01bd 7d1d 0080 8eec 0fbd
00000360: 8f01 0dbc 3a82 5bbd 188a 013d dac8 ecbd
00000370: ff4d 403d cc62 363c 69e8 7d3c 199a d4bd
00000380: 680c d63d effd b3bd 500d a13c 821c 353e
00000390: 0eda 72bc ee7a 2d3e d235 0bbe 690e 0080
000003a0: b986 2c3c d651 2abc b805 9d3e 5f6d 2e3e
000003b0: 4d5d d9bd dc37 d2bc 524f e7bd ad8d afbc
000003c0: c0d3 933d c712 7c3d d00b 0080 8b20 0080
000003d0: 60d3 493e b5e8 26bd 6920 0080 4b8e df3d
000003e0: e8fa b33b 8f4c 023c 6f33 783e 9117 d43d
000003f0: 3997 85bd 1c85 23be fb78 c73c 1417 98be
0.15206678 0.007203519 -0.29935774 0.14367187 0.06714549 0.19210054 -0.29098806 1.1676e-41
0.07427881 0.17502268 -0.33680698 -0.17538923 -0.11004768 -0.10963857 0.08823271 0.039511062
-0.1226688 -0.006371377 -6.77e-43 7.285e-42 -0.16365834 -0.0876332 6.205e-42 -0.02534388
-0.12689875 0.1501671 0.22120051 0.07468459 0.18842496 -0.06682124 0.065644175 -0.30616513
-0.107145764 0.13041276 0.2604213 0.14271756 0.15459886 0.11412902 0.057910673 -7.138e-42
0.0441875 -0.1713267 0.32663858 0.14411145 -0.00994545 0.108899824 0.033713408 -0.15396859
-0.060168095 0.080146536 -5.022e-42 -9.285e-42 0.16776139 -0.08327877 -7.501e-42 0.08653713
0.041856095 -0.1187087 0.039530348 -0.15928632 -0.028918324 0.11541535 0.08782224 0.2670325
0.1543338 -0.16122013 -0.10999008 -0.1490237 0.0688841 0.094269246 -0.2605192 -1.3318e-41
0.073580734 0.30194673 -0.37925813 -0.18137577 0.022844514 0.10953395 0.24657276 0.059316706
0.17169286 -0.06546037 1.242e-41 1.352e-41 -0.19800107 0.18989879 5.095e-42 0.04605302
-0.31391686 -0.021916851 0.2314062 -0.037911557 -0.04187145 -0.2912053 -0.1008527 -0.3364487
0.13738403 0.016611826 -0.06684783 0.005776567 0.009155501 0.01842721 -0.18366803 5.67e-42
0.12029448 0.1856181 -0.2835093 -0.09560772 0.14780408 0.19158593 -0.098416284 -0.08888463
0.21090782 0.03246221 5.5e-42 -4.994e-42 -0.13123745 -0.08104111 -2.888e-42 0.18530862
-0.1840468 0.0066432157 -0.021916773 0.111962155 0.035551306 -0.0047343415 0.117966406 -0.22202812
0.16976836 -0.007555163 -0.2441884 0.073726945 -0.08802311 0.102307476 -0.11770495 5.818e-42
-0.022705268 0.13188696 -0.38757 -0.16552903 0.18491156 0.15295106 0.12931155 0.21991087
-0.05584883 -0.032036234 1.3799e-41 1.1928e-41 -0.15880169 0.1164938 -7.325e-42 0.22341907
-0.2780453 -0.05939258 0.10842805 0.10471523 -0.056872483 -0.099679075 0.13361375 -0.271287
0.090540044 -0.24101213 -0.20324281 0.102538474 0.042523097 0.18328613 0.015135578 -4.337e-42
0.0005849642 0.14312959 -0.38137248 -0.19267695 0.002742997 0.15113223 -0.022165362 -0.12999529
0.17979988 0.18317813 -3.625e-42 3.552e-42 -0.1529636 -0.03863804 -9.065e-42 -0.074239045
-0.08082427 0.11802953 -0.040730674 -0.1279514 0.010569684 0.026774354 0.12576239 -0.057370424
0.030580213 -0.044618152 -0.10490198 0.006582355 0.11785211 -0.019001901 -0.022113865 -7.598e-42
-0.007953446 -0.032981314 -0.15211894 -0.12395211 0.059356257 -0.08854549 0.114977986 -0.11950624
-0.04722626 0.123678975 -5.16786e-05 -8.165e-42 -0.134163 -0.031558186 -1.0578e-41 -0.035137706
-0.008606329 -0.05359099 0.031625837 -0.11561747 0.046949383 0.011131953 0.015497305 -0.10380954
0.10451585 -0.08788668 0.019659668 0.17686656 -0.014822496 0.16941425 -0.1359475 -5.17e-42
0.010530167 -0.010395488 0.30668426 0.1703391 -0.10613499 -0.025661401 -0.11294426 -0.021429861
0.072181225 0.061541345 -4.238e-42 -1.1674e-41 0.1970954 -0.04074927 -1.1627e-41 0.10915812
0.005492557 0.007952823 0.2423837 0.103560574 -0.06522984 -0.15968746 0.02434968 -0.29705107

bias f4 [32]
00000000: 40db 0e3e e443 a73d 7790 843e d259 b6bc
00000010: 4a0c 91ba 023a e03d 14a8 4a3d 4159 a8be
00000020: c081 823e 4e70 6e3e 3f76 3b3e ebd5 823e
00000030: bdf4 443e 365f aabc d8d5 d93d 1f38 623e
00000040: d7bf 3dbe 8271 d53d fca3 c83d 213d 4d3e
00000050: e842 093e be4b b2bd 1405 e6bb 7f8d 3d3e
00000060: 3d9a 943e d17c 903d c28a 9fbd 3176 9a3e
00000070: c67b 4c3d e611 273e 0557 753e 65ba 523d
0.13950825 0.08167246 0.25891468 -0.022259627 -0.0011066284 0.10948564 0.049476698 -0.32880595
0.25489616 0.23285028 0.18306826 0.2555383 0.19233985 -0.020797353 0.106364906 0.22091721
-0.18530212 0.104220405 0.097969025 0.2004285 0.13404429 -0.08705853 -0.0070196483 0.18511008
0.29023924 0.07055057 -0.07790138 0.30168298 0.049922727 0.16315421 0.23958977 0.05144729

weight f4 [2, 32]
00000000: 75b6 1d3e e8eb fdbd 53f9 273e 8f3b 5c3c
00000010: e49f 923d aa71 193e ee52 813e dde0 9bbe
00000020: 8f73 8fbe 20a5 7abe 369b 62be e8d9 5c3e
00000030: bec7 463e 9c85 6ebe 2b55 913e 88fd 193e
00000040: ca6b 01be aaa1 2f3e d71e a2be a65b 483e
00000050: 09c3 003e 8fcc 38be bee6 593e e0e6 193e
00000060: ec18 36be f52a 8c3d 99ee 85bd 6662 7fbe
00000070: 5c6b 0bbe cdad 03bc c4f3 073e 2493 663b
00000080: 8098 1abc c76c aebb b6e4 093e db00 483e
00000090: 2100 553e b2bd 363e 2439 893d ca70 443d
000000a0: 5dbb b5be 5dd7 ebbd 4949 61bd 2377 5abd
000000b0: 8c05 063e 86b8 74be d833 453e e57d 403d
000000c0: 19f9 9bbe 3ffd 003e 2947 f8bd 6f6c de3d
000000d0: 41ee 573e 304e 0cbe f7c6 8abc b43f 343e
000000e0: 89c1 d7be 83f5 3a3e 8a41 6bbe 9f5f 95be
000000f0: ea57 96be 0754 343e 0f5a 593e 4e10 333e
0.15401633 -0.12398511 0.16403703 0.013441934 0.07159403 0.14984766 0.25258583 -0.30444995
-0.28017852 -0.24477053 -0.22129521 0.215675 0.19412133 -0.23293155 0.2838529 0.15038121
-0.12638775 0.17151514 -0.31664154 0.19566211 0.125744 -0.18046783 0.21279427 0.15029478
-0.17782944 0.06844131 -0.065396495 -0.2493988 -0.13615173 -0.008037043 0.13276583 0.0035182917
-0.009435773 -0.005323026 0.13466153 0.19531576 0.2080083 0.178458 0.06700352 0.047959127
-0.3549451 -0.11515687 -0.05500153 -0.053336274 0.13088053 -0.23898515 0.19258058 0.046995062
-0.30463484 0.12596606 -0.12122948 0.10860526 0.2108698 -0.13701701 -0.016940577 0.17602426
-0.42139843 0.18257718 -0.2297422 -0.29174516 -0.29363948 0.17610179 0.21225761 0.17486688

bias f4 [2]
00000000: f692 483e f189 92bc
0.19587311 -0.017888041
