c220g2_bips.pt (torch, 84298 bytes, 6 tensors)

weight f4 [128, 6]
00000000: 343e 513e 2605 273e 407f 6ebe f749 9a3e
00000010: 043f f5bd 5f1c a13d c9e6 7bbe 119f a43e
00000020: 57b5 19be 75b0 803e 3342 84be 378b 773e
00000030: 2b38 c03e c33a 563e 5ee0 183e 39c7 08be
00000040: 18bc 35bd cfc6 cb3e bfc7 6cbe 345f a63e
00000050: 0690 96be 5082 493e 6898 cbbd 6cc3 433e
00000060: 64b9 cb3e b4c0 c0bd e5fc ffbd fca0 353e
00000070: cb6f b0bb 7bf9 2c3e a468 6bbe 2fe0 7fbe
00000080: 6225 33be 35ef 803e ef98 c03d 807b b43e
00000090: 063b 38be ce29 c8be fcca 04bc c44b f3bc
000000a0: 2c87 9abb bbee c5be 27fa 07be 7a78 a8be
000000b0: 55dc 1e3e af8a 1cbe ca6e 44be eb09 61be
000000c0: ea92 5d3e fb2c a7be e007 bfbe d819 75be
000000d0: 5f97 2c3a 7e38 913e b192 e9bd 8111 c73d
000000e0: d3cb 923e b71a 1abc f41b 84bd 9418 be3e
000000f0: 7ece c5bc cc0f a1be df8f 7ebe 5cc9 883c
00000100: 92ff 1b3d eb82 303e cda0 55bd bc4f a73e
00000110: 6479 99bd 8956 293d 113f 953d f75f 7c3e
00000120: 1196 973e d299 91be 0aaf c43e 786d 1fbe
00000130: 6e65 f9bd c433 6cbd 55be 55be 46ea c93e
00000140: a372 253e f842 393e db16 a0be 7495 f63d
00000150: 79b2 a23e 158d 87bd 8a44 5ebe 921b 27be
00000160: acae d3bd e880 ae3d 25e3 46be 83bd ac3e
00000170: 2f51 cf3e 2983 8ebe eac6 f83c 300a a7bd
00000180: 00d7 ce3e 79cf a33e 1b92 15be 516e 45be
00000190: 4ca9 4a3b 5ef6 b13e 23e5 f33d 9065 8b3e
000001a0: 146f 9b3e ec67 743e e7ea 3cbe 6567 663c
000001b0: 8613 253e ce0b 6f3e 20c7 67bd 298e 1fbe
000001c0: 4630 91bd 3bfb 9e3e 2127 e3bc b829 6abd
000001d0: 1da4 5e36 1c71 b83d 5fc4 292b b999 fcb7
000001e0: 62c7 8c3e 8fb4 bdbe dc28 61be 4ee0 5dbe
000001f0: 7b02 35bc df23 c13c 006b af3e 8169 943e
00000200: 355c 27be 94c0 913d 801b 393e a918 babe
00000210: 428c 89bc 56f9 ab3e a3e4 92bc 0a4f 693e
00000220: b7b0 3d3e 3556 abbe 3249 cd3e eec8 5f3c
00000230: 7b0c e13e ae4f 913e 5cb7 203e 430c a0be
00000240: d10f 2d3e 7085 43be 7686 57bd b0f3 f83b
00000250: fc31 263e 64d1 babe f18e d43e b705 013d
00000260: 532b 21be b479 19be 9f48 013e 96b5 4abe
00000270: d617 463b dafb 3cb8 6313 8e33 9e8a b43c
00000280: b677 693e 7739 71bd 8286 f6bd 390c bf3e
00000290: a73e c43e 4a08 7f3e bb56 49bc 1db2 82be
000002a0: bceb b7be 2987 e3bd cdf4 4b3e 2d64 8ebe
000002b0: eb5a 363e b141 983e 0214 77be 2c88 9abd
000002c0: 2fe5 743e 5ef6 fe39 7771 b83d ccb2 f73c
000002d0: e8a2 af3e 29f3 673e 6839 c13e e963 7e3e
000002e0: e99d 083e 2b1d 2bbe b451 ad3c 7069 96be
000002f0: 3485 c33e 9ce7 0dbe 3c47 3cbe 6a5d 613e
00000300: 1104 efbd 5b23 a63e 0fd2 35be 36fb 67be
00000310: baec e2bd 7571 bdbe a36c 1ebe 0f6f 9f3e
00000320: eb8f 25bb 8eed 24be c078 a4bc c629 de3d
00000330: df89 c03d 8c2c 3a3e 8478 b2be 1106 c23d
00000340: f41f c5be 2281 a43d 26d2 a3bd 5d50 c03e
00000350: 1ad2 903e f7dc 9abe f7ef 8c3e 65d1 55be
00000360: a8ca 5abe 7b4e 893e 6490 333e eeaa 563d
00000370: 8c8b 79be ad85 d13c 420a b73e 2e77 22be
00000380: 6420 683e ea75 36bb 9483 b63e 0080 24bd
00000390: 9a37 1ebe 8aba cbbe a270 89be 4aeb 853e
000003a0: 69af 92bd 4e63 b03e 2951 8cbe 7ea4 943d
000003b0: 03b5 78be bfb2 33be 8796 2b3e fb70 1d3e
000003c0: ada5 a7bd 4b30 b63e a54b c5be c9c7 c93d
000003d0: 3228 003c b6a0 143d ace0 5f3e 55e8 cd3e
000003e0: 81d1 3dbe 23e4 993e 448d 92be 36b0 71be
000003f0: 0d15 183e 1f7e b03c 1672 9f3d 4b64 89bc
0.20433885 0.16310558 -0.2329073 0.30134556 -0.1197491 0.078667395 -0.24599756 0.32152608
-0.15010582 0.25134626 -0.25831756 0.241742 0.37542853 0.20920853 0.1492934 -0.13357247
-0.044368833 0.39800116 -0.23123072 0.3249451 -0.29406756 0.19678617 -0.099411786 0.19117516
0.3978988 -0.09411755 -0.12499408 0.17737192 -0.0053844205 0.16892044 -0.22989136 -0.24987863
-0.17494729 0.251825 0.0940417 0.35250473 -0.17991266 -0.39094394 -0.008105036 -0.029699214
-0.004715821 -0.386587 -0.1327902 -0.32904416 0.15513737 -0.15287279 -0.19182888 -0.2197644
0.21638075 -0.32651505 -0.37310696 -0.2393564 0.00065838353 0.28363413 -0.11404932 0.097201355
0.2867113 -0.009405783 -0.06450644 0.37128127 -0.024146315 -0.31457365 -0.2485957 0.016697578
0.038085528 0.17237441 -0.052155305 0.3267802 -0.074938565 0.041342292 0.072874196 0.24645983
0.2960668 -0.28437668 0.38414794 -0.15569103 -0.12177549 -0.057666555 -0.20873387 0.3943655
0.16157012 0.18091953 -0.31267437 0.12040225 0.3177679 -0.06618706 -0.21705833 -0.16319111
-0.103360504 0.08520681 -0.19422586 0.33738336 0.40491626 -0.27834442 0.030368287 -0.0815624
0.40398407 0.31994227 -0.14606516 -0.19280364 0.0030923663 0.34758276 0.11908939 0.27225924
0.30358183 0.23867768 -0.18448983 0.014062737 0.16120729 0.23344347 -0.056586385 -0.15581574
-0.070892856 0.3105105 -0.027728619 -0.057168692 3.3176104e-06 0.09005949 6.031338e-13 -3.0112324e-05
0.27495867 -0.37051818 -0.21988243 -0.21667597 -0.011047955 0.023576675 0.34261322 0.28986743
-0.16343768 0.071168095 0.18076897 -0.3634694 -0.016790513 0.33588666 -0.017931288 0.22784057
0.18524443 -0.33464208 0.40094906 0.013658745 0.43954834 0.28381103 0.15694946 -0.31259355
0.16900565 -0.19093871 -0.052618466 0.007597409 0.16230005 -0.36487877 0.41515306 0.03149959
-0.15739183 -0.14987832 0.12625359 -0.19795832 0.003022661 -4.5057248e-05 6.615917e-08 0.022038754
0.22799572 -0.058892693 -0.12037374 0.37314013 0.3832905 0.24905506 -0.012288745 -0.25526515
-0.3592204 -0.11109764 0.19917603 -0.27810803 0.1780812 0.2973762 -0.24128726 -0.07545504
0.23915552 0.00048630213 0.09006017 0.030236624 0.34303975 0.22651352 0.3773911 0.248428
0.13341488 -0.16710345 0.021157123 -0.29377317 0.38187563 -0.13857883 -0.18386549 0.22008291
-0.116706975 0.3244885 -0.17755912 -0.22654423 -0.11080308 -0.37000623 -0.15471129 0.31139418
-0.0025262784 -0.16106245 -0.02007711 0.108478114 0.09401297 0.18181056 -0.3485757 0.09473813
-0.3850094 0.08032443 -0.07999067 0.37561312 0.28285295 -0.30246708 0.2752683 -0.20880659
-0.2136637 0.26817688 0.1753555 0.052409105 -0.24369639 0.025576437 0.35750014 -0.15865776
0.22668606 -0.0027841278 0.3564726 -0.040161133 -0.15450898 -0.39790756 -0.26843745 0.26156074
-0.07162363 0.34450763 -0.2740567 0.07257937 -0.242878 -0.17548655 0.1675664 0.1537513
-0.08185897 0.3558372 -0.38534275 0.09852559 0.007822083 0.03628608 0.2186305 0.40216318
-0.1853695 0.30056867 -0.28623402 -0.23602375 0.1485178 0.021544514 0.07785432 -0.016771456

bias f4 [128]
00000000: 2440 b7be 31e1 083e 2835 803e a1ff b0be
00000010: 2f13 9ebe 9ae3 d63e 40af 823e 9fa6 dc3e
00000020: c972 1ebe 0238 2d3e ad1f 22be f0c1 cabe
00000030: ff7f 333b 0e97 c4be 81e7 6abe 44af 96be
00000040: 9a34 bcbe da44 803e 1725 c1be 55b7 67be
00000050: 01ba 30be 5ca5 a43e 5221 d93d edf2 c2be
00000060: e22f 973e a9e1 c93d 7124 cfbd 77a5 c0be
00000070: 3a36 0c3e 1249 23be e00b 613e b00b 3dbe
00000080: d212 f53d ae93 51be 6d4c 1a3e 240f d23e
00000090: ff15 8cbe 6314 393e 2f2e a2be 5f31 863e
000000a0: 7b0a 423d a44e 1cbe 2cef 13be 5238 143e
000000b0: ebe2 36be cbdd 38be 771c c6be 3fe3 b93d
000000c0: 004f 553e 73ae 9d3e 0aba 2d3e 08f6 87bb
000000d0: 1397 a63e 1247 aebe 57f9 e33e 053c a5be
000000e0: ba77 653d 7a52 103e 8db7 70be c5c2 3c3e
000000f0: ee12 913e 6d5d b1be 5a0e b6be 1a87 253e
00000100: 568a 4c3e d9a8 9e3e d786 03be c6e2 883e
00000110: 93d9 a6b0 3b7c e73e cdfb 61bd 46e7 2abe
00000120: fafb bf3e 3c84 5e3e a75d ab3e a908 8b3e
00000130: e3ff 883e 0e13 733d abc8 e6bd 6d83 03be
00000140: 07b5 abbe 82ea 52be c41c c63e 37b5 8f3e
00000150: 41dd 6a3e 4303 e03e 6217 d698 b2b7 c73e
00000160: cd79 2abe 7517 7a3e c807 0fbc 889f 803c
00000170: b571 64be 0382 acbd 35d5 793e c6da 443e
00000180: e05e 3ebe 14f8 9ebc ad92 cb3e dfb9 fabd
00000190: 6af9 a53e ced9 3fbe 756e c9bd 3ecc b3be
000001a0: 68c7 27be 1cb8 0000 75d2 80bd a333 59be
000001b0: a998 b83b c83d b33d fced 7dbe f49b 8886
000001c0: 4d30 74bb dd62 acbe 6ad3 3abe 0848 95b9
000001d0: 8557 05be 0881 5b3d 2412 54be df7b 56be
000001e0: 460c b23e d3e5 af3d 1197 a83e 5a58 783e
000001f0: 76a7 9a3e 594b 2b3e f3f1 76be 6757 fb3d
-0.35791123 0.13367154 0.25040555 -0.3457003 -0.3087401 0.4197052 0.2552433 0.43095872
-0.15473475 0.16915897 -0.15832396 -0.39601088 0.0027389524 -0.38396496 -0.22939874 -0.29430592
-0.36758882 0.2505253 -0.3772361 -0.2262853 -0.17258455 0.3215741 0.106020585 -0.38075963
0.2952872 0.098574944 -0.101143725 -0.3762624 0.13692561 -0.15945843 0.21977186 -0.1846149
0.1196648 -0.20466492 0.15068217 0.41027176 -0.27360532 0.18074183 -0.3167586 0.26209542
0.047373276 -0.15264374 -0.14446706 0.1447461 -0.1786 -0.18053357 -0.38693592 0.09076547
0.20830917 0.30797157 0.169655 -0.0041492023 0.32537135 -0.34038597 0.4452617 -0.32272354
0.056022383 0.14093962 -0.23507519 0.18433674 0.28334755 -0.3464159 -0.35557824 0.16164818
0.19974646 0.30988196 -0.12844406 0.26735514 -1.2139928e-09 0.45211968 -0.055171777 -0.16689786
0.3749693 0.21730131 0.3346989 0.27155045 0.26757726 0.059344344 -0.11268743 -0.12843104
-0.3353655 -0.2059727 0.3869382 0.28067943 0.22935964 0.43752488 -5.5341314e-24 0.39007336
-0.16648026 0.2442301 -0.008729883 0.01570107 -0.22309001 -0.08423235 0.24397738 0.1922408
-0.1859088 -0.019405402 0.39760342 -0.12242483 0.3241685 -0.1873543 -0.09835521 -0.35116762
-0.16384661 6.6046e-41 -0.062901415 -0.21211104 0.005633433 0.08752018 -0.24797815 -5.1386667e-35
-0.0037260235 -0.33669177 -0.1824471 -0.00028473162 -0.13021667 0.05358985 -0.20710045 -0.2094569
0.3477499 0.08588757 0.32927755 0.24252453 0.30205888 0.16727962 -0.24115734 0.1227253

weight f4 [128, 128]
00000000: 18c9 493d 8838 88bb 2c28 a53d 8373 ccbc
00000010: 8646 343c 1c6b 373d 82cb 4ebb 3189 ddbc
00000020: d484 9d3d 3103 4f3c 46d6 083c 87cd 563d
00000030: 9e20 863d 0e5f d6bb a68c 823d e1e4 b9bb
00000040: df02 2dbd 40b0 8b3d 869a 4cbb 74c1 43a9
00000050: 7761 c4bc e29a 90bd 8a46 4cbc d47c 73bc
00000060: d940 90bd fd5c ba3d 6091 0b88 5e78 3ebc
00000070: b792 6ebc d242 e302 3ca6 b63d 6604 723d
00000080: 5cbe 20bd 0749 533d 0013 4a3d e2dd a33d
00000090: e03a 54bb c76c a2bd 90dc 3b3d a3f0 0ebd
000000a0: fc13 37bc ebc7 743d 4eb7 b0bc df0a b73d
000000b0: a402 1f3d 11f9 1a0a c687 30bd 67b6 053c
000000c0: e983 b93a 9008 a73c debb d4bd c85a 793c
000000d0: c589 913d 7869 813d 6ea7 9cbd be86 cb3c
000000e0: 6a03 513c 3dbd c13c 3f0e d83c 3452 7c3d
000000f0: 79a2 77bc bc49 44bd 22ae 823d 6716 b3bd
00000100: 083a 9bbd f81f 23bd 00ab 41bc 4028 353d
00000110: 4a04 8fb0 91ac 5f3d 9e8b c81c 0041 893d
00000120: 9d4f 833d 27b3 9cbd 4924 693d 702f bbbc
00000130: ec70 213d a07b 193c 424a 0c3d 1b16 5bbd
00000140: 6dc1 a5bc 7c9e 8a3d 9b3d b1bc 2808 493d
00000150: 9ed3 113d fdb7 ae3d 60d5 0000 ed07 66bd
00000160: 7cca ab3d cae1 09bd 1fa8 e4ba bb41 ae3b
00000170: b3a4 8e1c 9848 673d 6834 b53d 8281 36ba
00000180: 96c2 2839 4221 0d3d 03bf 5a3d fdc0 8b3d
00000190: 8f1f 233c c8f3 0427 ef99 04bc c2bd e83c
000001a0: 75f0 8517 e4d0 342a 4074 1eb4 5ef0 e13c
000001b0: 7db2 02bd 067a c53d a172 68ad 70ad 0000
000001c0: 26dd 0fbd 8447 af3c ace8 253d 3271 e527
000001d0: 0d3b 1a20 1291 68bd 7e0c 75bd 1640 33bd
000001e0: 438c b0bb 1254 0f3d 9b2a d33d 50e7 bb39
000001f0: 630f 873d 2d24 7a3d 9f8e 96bd 307a 6ebd
00000200: befa bb3d 5485 2bbd 7757 593d 8fa8 f73d
00000210: 0dec 083d fba8 73bd 835b 36b8 6dc4 893a
00000220: 7795 0c3b ca90 25bd 044c c83c a8be d03d
00000230: cb12 49bc 87fd 3e3d 9b95 623d f1c7 86bc
00000240: ed26 a3bc f9ca 723d d10f 023d 8ab1 0000
00000250: 11e4 b9bc 42b0 0fbd 22c1 72bd 6f35 aebc
00000260: 466e a23c 4b81 b03d 1e51 93a9 2df3 1e3c
00000270: 5024 1dbd 90be 0000 5cae 923d 3215 a13d
00000280: 49e6 c1bc c6ff 99bc 4f44 2bbd 28d3 0ebd
00000290: 4dee 213d a002 983d aab5 803c 4ab7 97bd
000002a0: a6f0 973d 3c51 babb cbd3 393c ee16 c2bd
000002b0: aae2 5f3c 40c0 0b17 75f2 da3d e3ec 4b3d
000002c0: a33f ad3d 7655 92bd 0901 fcbb d1c3 0d3c
000002d0: 4927 93bd 5216 923c d08a 5cbd 4a0d da3c
000002e0: 196a 083d 348f 8d3d 6a04 163c a9ba dbbc
000002f0: 9edc 3f3d c0a2 a8ba 5911 cd3b 5797 a6bd
00000300: 9e0f d3bd 4dc8 dbbd ecd0 723d 69d6 693d
00000310: c5b3 57b3 680e 55bc 10b7 0080 55a0 be3d
00000320: 41ac aebd 1686 4ebd ea31 943b 9d9f cebd
00000330: ab23 283d 0130 e9bc 4c2b bf3d 48e5 593d
00000340: 1d0c cb3b 458a 6abd 8fa1 dd3c 9b96 cdba
00000350: 5cf4 2a3c 1c24 d43c a36c be32 6095 dc3c
00000360: db7d 2ebd e097 123d a04b 433c 360b 6dbd
00000370: 9f2f 9323 f1b9 283c a921 8a3d c99e 63bc
00000380: cb39 8736 7535 c43c b121 acbc 5d6d c43d
00000390: fa71 96bd d06e 710a 5973 8abd 408f 62bd
000003a0: 8585 9bb2 e39b 0180 279a a1a7 d709 d23d
000003b0: c381 8f3c 8790 793b 5975 0416 e8a2 2127
000003c0: 897b e5bb a928 733b e108 ad3c b5b2 0000
000003d0: d9a9 ba22 e389 7d3c beba c43d f90f d8bc
000003e0: e747 b03c e557 6ebc ad40 5bbd f321 62bc
000003f0: ff39 5b3d b26b 713d 9b18 1fbd 174f c4bb
0.049264044 -0.0041571297 0.08064303 -0.024957424 0.011003142 0.04477988 -0.0031554406 -0.027042957
0.076913506 0.012635038 0.008351868 0.0524421 0.0654919 -0.006542093 0.06374483 -0.0056730364
-0.042239066 0.068207264 -0.0031220033 -4.3466492e-14 -0.023972256 -0.070607916 -0.01246799 -0.014861304
-0.07043619 0.09099767 -4.199968e-34 -0.011625377 -0.014561347 3.3393005e-37 0.089184254 0.059086226
-0.03924404 0.051583316 0.049334526 0.08001305 -0.0032383725 -0.07930904 0.04586464 -0.034897458
-0.011174198 0.05976097 -0.021571781 0.0893762 0.038820878 7.4616745e-33 -0.043098234 0.008161164
0.0014153692 0.020389825 -0.10387395 0.015219398 0.071063556 0.06318945 -0.07649122 0.024844524
0.012757162 0.023649806 0.02637398 0.061601833 -0.01511442 -0.04792188 0.063808694 -0.08744507
-0.07579428 -0.03982541 -0.011820555 0.04422784 -1.0405838e-09 0.05460793 1.327098e-21 0.06701851
0.064116694 -0.07651358 0.05691937 -0.022849768 0.03941433 0.009367853 0.034250505 -0.05348788
-0.020233834 0.0676851 -0.021635821 0.049080044 0.035602205 0.08531187 7.6545e-41 -0.056159902
0.0838823 -0.033662595 -0.0017445124 0.0053178943 9.439346e-22 0.056465715 0.08847886 -0.0006962047
0.00016094217 0.034455545 0.05340482 0.06823919 0.009956255 1.8450834e-15 -0.008093341 0.028410796
8.655623e-25 1.6059685e-13 -1.4757188e-07 0.027580436 -0.0319085 0.09642415 -1.3213126e-11 6.2218e-41
-0.035123013 0.021396406 0.040505096 6.3682995e-15 1.3063846e-19 -0.056778975 -0.059826367 -0.04376229
-0.0053878142 0.034992285 0.10310861 0.0003583976 0.06594732 0.061069656 -0.073514216 -0.058221996
0.09178685 -0.0418752 0.05306193 0.12092697 0.03342824 -0.059487324 -4.347741e-05 0.001051081
0.0021451393 -0.040421285 0.02445031 0.10192615 -0.012272547 0.0466285 0.055318456 -0.016452761
-0.019916022 0.0592756 0.031753365 6.3689e-41 -0.022691758 -0.035080202 -0.059266217 -0.021265713
0.019827973 0.08618411 -6.542183e-14 0.009701532 -0.03836471 6.8361e-41 0.07162163 0.07865371
-0.023669379 -0.01879872 -0.04181319 -0.034869343 0.039533902 0.07422376 0.015711624 -0.074080065
0.07418947 -0.0056859534 0.011341999 -0.0947703 0.013664881 4.5155976e-25 0.10690776 0.04978646
0.08459403 -0.07145207 -0.007690553 0.008652643 -0.071852274 0.017832909 -0.05384332 0.026617665
0.033304308 0.069120795 0.009156326 -0.026822405 0.046841256 -0.0012865886 0.0062581715 -0.081343345
-0.10305713 -0.10731564 0.059281275 0.057089243 -5.0222088e-08 -0.013003923 -6.567e-41 0.09307925
-0.085289486 -0.050420843 0.004522552 -0.100890376 0.04104964 -0.028465273 0.0933443 0.053197175
0.0061965124 -0.05726077 0.027054576 -0.0015685143 0.010434236 0.025896125 2.2168313e-08 0.026926696
-0.042600494 0.03578937 0.011919886 -0.05787202 1.595794e-17 0.010298238 0.067447014 -0.013892838
4.0300415e-06 0.023951272 -0.021012159 0.09591172 -0.07345958 1.16245694e-32 -0.06760282 -0.055312395
-1.8105093e-08 -1.47757e-40 -4.485361e-15 0.10255783 0.01751793 0.003808053 1.0699903e-25 2.243155e-15
-0.007003252 0.0037103093 0.021122398 6.4108e-41 5.0595234e-18 0.015474769 0.09605931 -0.026374804
0.02151866 -0.014547323 -0.053528477 -0.013802039 0.053522106 0.058940597 -0.038841825 -0.0059908736

bias f4 [128]
00000000: ffa7 953d fcf5 d4bd 570f 173e e993 bd3b
00000010: 1c51 4f3d 9937 aabc b7c4 90ba 03dc fe3d
00000020: ae3d 76bd 3255 5cbc 5603 b4bd 78f4 81bc
00000030: 5b5c d939 1854 b93c 7c4f f63d 5569 8cbc
00000040: a308 2bbc 85b2 133d 722d e3bd cce2 633d
00000050: d74b e7bc 8d7f 973d 8e6f 83bd 533a 543d
00000060: 8853 9e3c 60d3 a53d fa21 c5bd dcb0 bc3d
00000070: 3037 c73c 6ea1 5abd 99b1 4abc 5e5b 683d
00000080: eb8a 04bd 0fc6 e33d d372 5cbc 1048 e73c
00000090: 7d4b af3b f16d 0abc 05d0 e63d 4803 ff3d
000000a0: 68fb af3c d1f2 dcbb a38a 9abd f21f c33d
000000b0: 8015 53bc 49a0 043e 91b1 9cbd d930 893d
000000c0: 2804 8e3d 64c6 9e3b 26d9 cabd b747 fb3d
000000d0: 4fac ee3c d014 5cbb 2bde 5e3d 0d90 32bc
000000e0: 5ed5 0d3c 2d56 9f3b 5d86 f23d f364 873d
000000f0: ef1e 5fbc 4b13 e83c 3e88 bd3a 93e5 bf3d
00000100: e298 a33d 96b8 023e ce23 ea3d e789 c5bc
00000110: b086 1f3d 507a d63b 0682 bbbd afef 56bc
00000120: c25e 3f3d b34b 593d c713 833d 0271 e1bd
00000130: 7953 273c 51cd 96ba 4595 38bd 2935 a93d
00000140: 22d6 47bd c7ab 873d 7521 b8ba 196b 92bc
00000150: 4737 ba3b 904e 87bc 5d7b 8abb 16db 033e
00000160: 034d 813d 4f3b 5ebb a016 79bc 4b78 c3bc
00000170: 4ebf e6b9 ba36 8dbc 47fe dd3d 1075 463c
00000180: b4f0 533d 3c41 78bc 9e7d e93d 8ea8 913d
00000190: 2441 773c c5a3 523d c4d2 233c 8671 97bd
000001a0: 1b54 d73a 8448 fe3b 2235 f53d 97ec e43d
000001b0: 033c 55bd fd99 bdbd 44c7 643d 1b12 c83d
000001c0: 2a46 663d 38ec 8a3d a3f1 d33d 5254 8d3d
000001d0: 47ea b53d 494e 65bd 8877 603c 0172 b93d
000001e0: da2b 87bc fde1 863d a09f 34bd eadd a0bd
000001f0: cc27 753d 2a79 81bd 5021 0cbe 59a5 a43d
0.07307433 -0.1039848 0.14751945 0.0057854545 0.05061446 -0.020778464 -0.0011044954 0.12444308
-0.060117416 -0.0134480465 -0.08789699 -0.015863642 0.00041458276 0.022623107 0.12026879 -0.01714007
-0.010439071 0.03605892 -0.110926524 0.055636212 -0.028234405 0.07397375 -0.06417762 0.051813435
0.01932694 0.08096957 -0.09625621 0.09213421 0.024318308 -0.053376608 -0.012371444 0.05672776
-0.032359045 0.11121761 -0.013455111 0.028232604 0.005349575 -0.008449064 0.11270145 0.12451798
0.021482185 -0.006742813 -0.07545974 0.095275775 -0.012883544 0.12951769 -0.076510556 0.0669877
0.069343865 0.0048454273 -0.09904699 0.12269538 0.029134898 -0.003358174 0.054411095 -0.010898602
0.008656828 0.004862568 0.11842034 0.066110514 -0.013618215 0.028329512 0.0014460159 0.0936996
0.079881445 0.12765726 0.114326105 -0.024113609 0.038946807 0.0065453425 -0.091556594 -0.013118668
0.046721227 0.053050708 0.064002566 -0.11007883 0.0102127725 -0.0011505281 -0.04506423 0.082620926
-0.048788197 0.06624561 -0.0014048057 -0.017873334 0.005682859 -0.016516954 -0.004226132 0.12876543
0.06313517 -0.0033909862 -0.015203148 -0.023861071 -0.00044011552 -0.01723801 0.10839515 0.012112871
0.051743224 -0.015152272 0.11400913 0.071122274 0.015091214 0.051425714 0.009998981 -0.073947
0.0016428264 0.0077601094 0.11973025 0.111779384 -0.052059185 -0.092578866 0.055854097 0.09769078
0.056219257 0.067833364 0.10348823 0.069008484 0.088825755 -0.05598286 0.0137003735 0.09054948
-0.016500402 0.065860726 -0.044097543 -0.07854827 0.059852406 -0.06321938 -0.13684583 0.0803935

weight f4 [2, 128]
00000000: 2f40 c13d fb66 41bd 2966 a23d e29b 94bd
00000010: b4f3 e7bb 2ba5 b9bd fea4 503d f3da cf3d
00000020: 75af 5bbd a275 bc3d 0769 98bd df51 2d3c
00000030: abb5 e43b b4ea c4bb 837d 4f3d 79ee 9b3d
00000040: 126b 4abd 760e b33d 92f4 71bd 87ab 4d3d
00000050: 5057 52bd 3fd0 533d 5250 01bd 2a9e 01be
00000060: 50b2 b23d ddf6 a6bd 8e2d 6fbd 75df 233d
00000070: abda 5d3c 4927 8abc 82dd d4ba 1d44 4c3d
00000080: 4714 dd3d f31f 823d 0efa 523d c8f2 113e
00000090: 992d ba3d ea90 6ebc 3fc7 a6bd 4a39 db3d
000000a0: cfb6 4abc 6a55 033d 89d8 5dbd e479 933d
000000b0: 1856 e23d 74b4 dbbd 3b4f a3bd 932e 7cbd
000000c0: 7d9e 343d ad81 783d e5aa 2cbd 18a2 93bd
000000d0: 68c9 45bd ae4f c8bd 3b3f 5abd 4731 c5bb
000000e0: d585 4d3d 7357 1f3d 32fb a93d 1448 0a3b
000000f0: 99d8 793d dd34 c83c 8624 e1b9 6a23 583d
00000100: 0e9e 90bd 2a34 413d 2752 313d dfa9 a0bd
00000110: 482e a63d 30b1 46bd 0041 8abd ec6e 953d
00000120: 1f4f 11be fa99 abbc a047 b83d 3b2f c7bd
00000130: f62f 093d a95d eabc 2518 94bc ab29 9d3d
00000140: 5b4c 81bd 42ba c73d 806a 92bc d79e 023e
00000150: d3fe 193d 44da 743d bc95 07bc b35e 5d3d
00000160: 2f95 f73d 60ec 9ebd 5d49 0c3d 69de 99bd
00000170: fc67 063c cd02 f03d d853 e53c 99da dd3c
00000180: e58d 8a3d f8b6 ccbc 1573 cc3d ed99 bd3d
00000190: 729a a83d 248e aebd e9e9 9e3d 1427 20bb
000001a0: 7ecf 643d 67a5 8e3d cdbe 003d 3d49 673d
000001b0: 8434 95bd e96f cebb d9b6 28bd 4107 c13d
000001c0: 7dba 323d 665e d23d 1d49 383d 2302 c43d
000001d0: 73ec e43d b99a bfbd 64ca 4fbd 5f5f a93d
000001e0: 1cf7 963d bcdf af3c c4d1 ba3d c212 95bd
000001f0: bf29 193e be3c 6ebd d75a 74bd 1f36 72bd
00000200: fe7f 2abd cadd a03d a63a 47bd b811 00bc
00000210: 027b 52bd 6079 c0bd e05b c43d 4e47 9a3d
00000220: c1cb 3b3d a137 48bd 96cf 63bd 0896 cd3d
00000230: 1560 673d 18b9 90bd 5dd4 4dbd bef8 faba
00000240: cbf8 0ebd a66a 89bd 3974 89bd 9418 5bbc
00000250: d856 5f3c 0715 5abc 6372 85bb 143e 053d
00000260: df3c 80bd 3353 8abd 933b 7bbd 7e2b afbd
00000270: 2dba 3a3d e3c1 bebc 8f3c 2ebd 5e7d ba3d
00000280: d2a8 5bb9 bc88 033d 42fb 2b3d af21 cc3d
00000290: 3a90 883d b049 b53d a5ad ebbd 6ff7 40bd
000002a0: 9e10 0dbd 07e9 a33d 44e0 7ebd b7e6 d7bc
000002b0: 72dc 52bc a390 4ebd cfcc 963c 014e 8fbd
000002c0: 356d 4e3b fad9 2f3d 9e08 8abd 03b4 d7bd
000002d0: 7a53 0334 3898 413d 3ed1 74bd fa92 93bd
000002e0: 6f7c 90bd fc17 b83d 057d 383d 89a8 b63c
000002f0: 5af4 463c 3fd2 903d 551b 943a fc6c bf3c
00000300: e3b9 3d3a 49ae 08bd c66f 00bb 014a 3f3d
00000310: e2b8 b03d 64f9 1e3d a515 77bd 42c9 49bd
00000320: ebbb a4bd 8945 17bc 7240 b23d fe93 673c
00000330: aead 71bc cfe5 4cbd 3383 fe3d 6a96 a83d
00000340: 86f4 ff3c 52be d63c ed48 cb3d 5f30 573d
00000350: 186b 0e3d 6aae a33d 7541 ccbb 0096 273b
00000360: fa11 27bd 58bb 923c edae 813d 9ccc 243d
00000370: 0c12 1f3d be0a b43d 96d3 7e3d b34b 71bb
00000380: aaf4 9c3d 64a7 86bc e812 523d 373c 09bc
00000390: a039 e2bc 0be7 503d f6d5 b33c 3c2b 9bbd
000003a0: d4c0 783d c378 a73d 9de6 bf3c 4443 a93c
000003b0: eec6 1d3c 2e88 a8bd dbda 9e3d 85b6 0f3c
000003c0: a16b d23d caa3 02bc 2762 313d 8201 ca3d
000003d0: 3609 eb3c 54e5 e03c c9e6 ae3a c512 a73d
000003e0: 2916 703d c0aa 923d fdf0 4ebd bb90 833d
000003f0: 584c 063c b0a4 103d 516b f1bd 733f 40bd
0.0943607 -0.04721735 0.07929642 -0.07256295 -0.007078612 -0.090647064 0.0509386 0.10149183
-0.053634126 0.09202124 -0.074419074 0.010578602 0.0069796643 -0.006009424 0.050656807 0.076138444
-0.049418516 0.087429926 -0.05907113 0.05021241 -0.0513528 0.05171227 -0.03157074 -0.12657991
0.08725417 -0.08152554 -0.058393054 0.040008027 0.013540904 -0.016864436 -0.0016240331 0.049869645
0.10794883 0.0635375 0.051508002 0.1425277 0.09090728 -0.014560917 -0.08143472 0.107042864
-0.0123726865 0.03206388 -0.054161582 0.07200983 0.11051577 -0.10727778 -0.079740964 -0.061567854
0.04409646 0.060670543 -0.042155165 -0.07208651 -0.04828778 -0.09780823 -0.053282958 -0.006017837
0.05017646 0.038901757 0.08299865 0.002110009 0.06099758 0.02443927 -0.00042942556 0.05276815
-0.070613965 0.04716889 0.043291237 -0.078449 0.08114296 -0.048508823 -0.06750679 0.07296547
-0.14190339 -0.020947445 0.089980364 -0.09725805 0.033493005 -0.028609114 -0.01807792 0.07673963
-0.06313392 0.09752323 -0.017873049 0.12755905 0.037596535 0.059778467 -0.008275446 0.05404539
0.120890014 -0.07759929 0.034249652 -0.075131245 0.008203503 0.11719284 0.027994081 0.027081775
0.067653455 -0.02498959 0.09982888 0.09257875 0.08232583 -0.08523205 0.077594586 -0.0024437355
0.055861942 0.06965142 0.03143196 0.05646633 -0.07285407 -0.006299962 -0.041190002 0.09425212
0.04363488 0.10271911 0.0449916 0.0957072 0.111779116 -0.09355683 -0.050730124 0.08270144
0.07371351 0.02146899 0.09122041 -0.072789684 0.14957331 -0.058163397 -0.059656944 -0.059133645
-0.04162597 0.07854803 -0.048639916 -0.0078167245 -0.05138684 -0.093981504 0.09587836 0.075331315
0.04584861 -0.048881177 -0.05561789 0.10038382 0.056488115 -0.07066554 -0.050251354 -0.0019147617
-0.034905236 -0.06709795 -0.06711621 -0.013372559 0.013631545 -0.013310677 -0.004072474 0.032529905
-0.0626161 -0.0675415 -0.06133611 -0.08553217 0.045587707 -0.023285812 -0.042538222 0.09105943
-0.00020948358 0.032112822 0.041987665 0.09967362 0.06668134 0.088519454 -0.115077294 -0.04711097
-0.034439676 0.08003431 -0.062225595 -0.02635513 -0.012869941 -0.050430905 0.018408207 -0.069973
0.0031498198 0.042932488 -0.06739925 -0.105323814 1.2230694e-07 0.047264308 -0.05976986 -0.07205768
-0.07054984 0.0898895 0.045041103 0.02229716 0.012143219 0.07071351 0.001129965 0.023367397
0.0007237477 -0.033369336 -0.0019597872 0.046701435 0.086290136 0.038812056 -0.060323376 -0.0492642
-0.08043655 -0.009232887 0.08703698 0.014134405 -0.014750881 -0.05002385 0.12427368 0.08231814
0.031244528 0.026213799 0.09926019 0.052536365 0.0347701 0.07992251 -0.006233389 0.0025571585
-0.04078863 0.017911598 0.063321926 0.040234193 0.03883557 0.087911114 0.062213503 -0.0036818802
0.076638535 -0.01643724 0.05128756 -0.008376173 -0.027615368 0.05100159 0.02195261 -0.07576606
0.06073077 0.0817733 0.023425395 0.020661958 0.009629948 -0.08229099 0.07756587 0.008771543
0.10274435 -0.007973621 0.043306496 0.09863569 0.028690916 0.027453102 0.0013343926 0.08157877
0.058614884 0.07161474 -0.050522793 0.064240895 0.008196913 0.03531331 -0.11788047 -0.04693551

bias f4 [2]
00000000: 574f b2bb 53dc 1a3d
-0.005441587 0.037807774
