c220g2_bips.pt (torch, 87964 bytes, 6 tensors)

weight f4 [128, 5]
000000 09 74 0e be e3 1e 06 3e eb 6e 89 b1 6f cf 13 b1
       -0.13911451 0.1309772 -3.9998347e-09 -2.1509228e-09
000010 4f 70 34 b5 b4 90 39 3e 7b 86 98 3d 36 3d 32 3d
       -6.7218656e-07 0.18121606 0.07447525 0.043515407
000020 0e b7 d6 3d 5b ff 9f be c4 d9 9a bb 9d 1c 53 bd
       0.10484134 -0.31249508 -0.0047256667 -0.05154096
000030 f2 39 cd 3d 6b ac 9f 3d 60 54 0f be 22 b3 2d 3d
       0.10020818 0.07796558 -0.1399703 0.042407162
000040 e2 4b b6 be 33 bb 64 be 38 f3 48 be 62 62 18 3e
       -0.3560477 -0.22337036 -0.1962403 0.1488128
000050 df 57 be 3e e9 d1 f1 be e7 ca 4b bd 4d 82 a2 be
       0.37176415 -0.4723046 -0.04975405 -0.31740037
000060 e7 64 d0 3e dd 37 a9 be ab 81 f8 bd 9b 43 6d 3d
       0.40701982 -0.33050433 -0.12134107 0.0579258
000070 be a5 a6 bc 69 7a 82 3d d8 ff 92 3d 76 9c f1 bd
       -0.020342704 0.06371004 0.071777046 -0.11797421
000080 32 65 53 be d4 25 15 bf 19 42 d9 bc 20 33 e6 3e
       -0.20644072 -0.58260846 -0.026520776 0.4496088
000090 d6 d2 56 3e 0d b8 ba 3d 53 fb 91 be c7 b2 80 3d
       0.20978865 0.09117136 -0.28512058 0.06284099
0000a0 46 91 a6 3e 51 3f 73 3e b8 09 93 3d d6 87 a7 3e
       0.3253271 0.23754622 0.07179588 0.32720822
0000b0 b7 40 b9 be ae fd a4 3d f7 f4 27 bd 82 0e 01 be
       -0.36182186 0.08056198 -0.0410051 -0.1260319
0000c0 69 53 f2 be 29 d6 15 3d 51 fb 58 3e b0 59 ec be
       -0.47329262 0.036581192 0.2118962 -0.46162176
0000d0 6a dd bb 3e ec 51 0e bf dd 91 58 bc 85 f0 1f 3e
       0.36692363 -0.5559375 -0.01321837 0.15619095
0000e0 eb e4 75 3e cb 8e 34 3d 55 ec 6b be 7f 12 a6 3e
       0.24013107 0.04408149 -0.23039372 0.32435986
0000f0 f2 a1 00 80 31 d5 35 b3 27 af 00 00 9f ac 00 80
       -5.8095e-41 -4.2336243e-08 6.2833e-41 -6.1925e-41
000100 ec d9 73 bc 2e 1b 62 be ad 3e 3e bd df e4 88 3e
       -0.0148835 -0.2208068 -0.04644649 0.26737115
000110 9b c3 20 3c a2 fd 5b 3e 51 8a 86 3e 06 68 81 be
       0.009812261 0.21483472 0.26277402 -0.25274676
000120 66 7d 2c 3e 89 a0 ab 3d 31 f2 cf bb 36 6e 5c be
       0.1684471 0.08380229 -0.00634601 -0.21526417
000130 59 d4 a6 be 79 51 a0 3e 0b 06 53 3d ab c7 b0 3e
       -0.32583883 0.3131216 0.051519435 0.34527335
000140 60 b3 00 80 43 98 d3 b9 ed aa 00 00 61 c1 7d 2f
       -6.4348e-41 -0.000403585 6.1317e-41 2.3078918e-10
000150 8a a2 00 80 5c 5e d3 3e ba fb 61 be b2 a0 dc 3d
       -5.8308e-41 0.41282928 -0.22068682 0.10772838
000160 1d 23 6f bd 53 d4 a0 be 91 fb 2c be 12 1a f5 bd
       -0.058383096 -0.3141199 -0.1689284 -0.11967863
000170 b9 a2 37 3d 21 56 06 3c 6b 40 30 3e 31 a5 ba be
       0.04483292 0.008199246 0.17212074 -0.36454156
000180 cb 4a 39 3e 66 20 67 3e 45 2c 03 3d 98 d0 9e 3e
       0.18094938 0.22570953 0.03202464 0.3101852
000190 1b ee a9 3e ac 66 16 3e d1 dd bd 3d 1b 8b 31 3e
       0.33189473 0.14687604 0.09270824 0.17338221
0001a0 f9 60 54 3e 7d b7 0e 3e 70 9e 59 3e 1c 42 07 3e
       0.20740117 0.13937183 0.21251845 0.13208812
0001b0 c0 b0 13 be 8c 5e 7e 3d 5b f9 4f 3e e7 30 49 be
       -0.14422894 0.062101886 0.20309965 -0.19647561
0001c0 2d b8 ec bd c1 da 5e 3e 59 1e c3 bd 2a 82 7c be
       -0.11558566 0.21763135 -0.09527273 -0.24659029
0001d0 e1 8a 19 be fe 37 c7 bb cb 52 20 be 3d 5d 8d be
       -0.14994384 -0.006079673 -0.15656583 -0.27610198
0001e0 01 c2 00 00 4a b9 00 80 a4 8b 8e 2f d8 c2 00 00
       6.9595e-41 -6.6469e-41 2.592887e-10 6.9897e-41
0001f0 55 07 e7 9c 7f ac 00 80 23 0f ba 14 7a 9d 35 b8
       -1.5288193e-21 -6.188e-41 1.8787171e-26 -4.3300424e-05
000200 1e 25 81 bd e7 9f 9b bc ed a9 00 80 18 b9 00 80
       -0.06305908 -0.018997146 -6.0958e-41 -6.6399e-41
000210 19 fe 05 be 05 a1 00 80 75 ae 00 80 f6 84 b5 be
       -0.13085212 -5.7763e-41 -6.2583e-41 -0.35453004
000220 70 44 c4 3e 1b 11 5f bc 3c ec 13 be fc 9c 91 be
       0.38333464 -0.013614918 -0.14445585 -0.28440082
000230 ec 62 47 be 74 8f 96 3d 4d e7 c0 3d 51 b6 d8 bd
       -0.1947133 0.0735158 0.09419117 -0.10581649
000240 39 e2 82 3e 5d 25 ab 3e e5 ca 52 3e 66 4e c5 3d
       0.2556322 0.33426943 0.2058521 0.09634094
000250 69 c7 23 3e 71 8b 3a be c5 f3 f6 bd 8e ac 00 00
       0.15994038 -0.18217255 -0.12058214 6.1901e-41
000260 77 ac 00 80 20 3e b3 3d 8c 85 13 be 81 3e c2 3e
       -6.1869e-41 0.08752084 -0.14406413 0.37938312
000270 17 5a cc be 5f 1b 2a 3e 9c 84 8b 3c 71 b2 a4 3e
       -0.39912483 0.16612004 0.017031007 0.3216739
000280 01 57 ca be be 37 b8 3e e4 7f 9f be 2d 78 72 be
       -0.39519504 0.35980028 -0.3115226 -0.23678656
000290 c9 7d 03 3e 5c dc f9 bd d0 83 db be 80 f0 62 3e
       0.12840952 -0.12200233 -0.42874002 0.22162056
0002a0 5a ad 38 be 9c f5 b0 3e 00 11 b6 be 88 2b 86 3e
       -0.18034878 0.34562385 -0.35559845 0.26205087
0002b0 cc 96 61 3d 8e 85 8a 3d a5 7a 8d bd 6a 8f e4 bd
       0.05507545 0.06763755 -0.06908158 -0.111601666
0002c0 c3 e8 7b 26 6f fa 12 3e a7 0e a2 3d 62 b0 00 80
       8.739857e-16 0.14353345 0.07912951 -6.3274e-41
0002d0 b4 b7 eb 3e 1b 23 51 be e8 d9 a9 3e 53 db 8f 3d
       0.46038592 -0.20423548 0.33174062 0.07024255
0002e0 a3 e2 75 be 3a 74 d3 3c 40 62 a1 3e d6 42 b4 bd
       -0.24012236 0.025812257 0.3152027 -0.088018104
0002f0 2e 58 51 3e b0 81 89 be 5e 6a e3 bd 06 19 04 3e
       0.20443794 -0.26856756 -0.11104272 0.1290017
000300 2a ad 00 80 ac ac 00 00 e4 bc 00 80 77 b5 b6 3e
       -6.212e-41 6.1943e-41 -6.7761e-41 0.35685322
000310 d2 89 2b 3e 89 5b c2 3e 48 0d e0 be 5b 48 41 bc
       0.16751793 0.3796046 -0.43760133 -0.011797036
000320 de 66 1e a1 df 88 33 bd 37 b9 00 80 5d be 00 80
       -5.3668626e-19 -0.043831702 -6.6443e-41 -6.829e-41
000330 00 05 ed bd 29 b5 68 3e a0 ac 8e be 0b e3 b8 bd
       -0.11573219 0.22725357 -0.27866077 -0.0902768
000340 24 ce b3 be db 37 48 3e f2 9f d2 3d 24 ce cf be
       -0.3511821 0.19552557 0.102844134 -0.4058696
000350 55 a5 fc 3e 64 4d 01 be e3 18 25 3e bf 02 84 be
       0.49344888 -0.12627178 0.16122775 -0.25783345
000360 fc 47 35 3c 37 ac d7 3d 4a 7d c9 be cb 77 7c 3e
       0.011064526 0.10530894 -0.393534 0.24655072
000370 aa 22 2d 3e 38 e6 02 3e 70 d4 80 3d c2 3d dd 3d
       0.16907755 0.12783134 0.06290519 0.10802795
000380 3f ac 99 be c3 92 d7 3c bd d3 cd 3d 12 aa 28 3d
       -0.30014226 0.026315099 0.100501515 0.041177817
000390 a4 77 4a bd 31 29 a7 be cc b6 00 80 ec ac 00 00
       -0.049430504 -0.32648614 -6.5575e-41 6.2033e-41
0003a0 b6 4d 08 be f0 cf 9c bd 41 7a 96 b4 b5 6c 0d 3e
       -0.13310894 -0.076568484 -2.802863e-07 0.13811
0003b0 c9 1c 1c bd 95 b3 63 be c1 4f 23 bf d7 4d 5e 3e
       -0.03811339 -0.22236474 -0.6379357 0.21709381
0003c0 63 d4 38 be 97 51 2f 3e 27 8c 97 3e 45 34 c4 3d
       -0.18049769 0.17120968 0.29599115 0.09580282
0003d0 94 f8 11 3e 31 ac 00 00 e5 da 33 ab ff b3 be bd
       0.14254981 6.177e-41 -6.389735e-13 -0.09311675
0003e0 af 71 80 2a 4d 1d 8b 97 0b 75 96 3e c0 76 22 3e
       2.2816251e-13 -8.990061e-25 0.29386172 0.15865612
0003f0 0c 36 9d 3d 5d 11 c3 bb 4c 42 61 bd 16 d1 e2 bd
       0.07676324 -0.0059529976 -0.054994866 -0.11075036

bias f4 [128]
000000 d7 1c 01 b7 04 09 fc bd d9 b3 a7 3e 86 05 c0 bd
       -7.695714e-06 -0.12306407 0.327544 -0.093760535
000010 61 ac cd 3c 9f ae be 3e 2f ce 28 3c 00 03 1c 3e
       0.02510661 0.372426 0.010303064 0.1523552
000020 4c 6b 47 3d 38 2c 3c 3c f3 69 e2 3e d0 7e ad be
       0.04868631 0.011485152 0.44221458 -0.33885813
000030 5a 2d 92 ba 53 10 0c be 13 13 0e 3d 78 41 d1 bc
       -0.0011152432 -0.13678102 0.03468616 -0.025543913
000040 19 cc bf b6 56 be 98 bd 48 b9 39 3e b6 5a d9 3e
       -5.7160037e-06 -0.07458179 0.18137085 0.4245202
000050 5b 06 de 3e 8c 2c d2 3e 87 10 4d bd e9 f8 6b 3e
       0.43364224 0.41049612 -0.05006459 0.2304417
000060 d5 22 1b be 6a a5 91 bd 48 b1 00 80 a5 3f 06 3e
       -0.15150006 -0.07111628 -6.3597e-41 0.13110216
000070 53 03 00 3f 78 6b e1 3e 09 92 58 bd d6 3c 3f 3e
       0.5000507 0.44027305 -0.052873645 0.18675551
000080 a3 6e bd 3e 11 72 6d bd 83 09 94 3e 21 ae 96 bd
       0.36998472 -0.05797011 0.28913507 -0.07357431
000090 30 dd 05 be 0f f4 8f 3e 73 7b e6 bd e0 dd af 3e
       -0.13072658 0.2811589 -0.11254015 0.34348965
0000a0 e7 45 2b b8 69 cb cd be ad 54 68 be c2 e6 2c 3e
       -4.083468e-05 -0.40194252 -0.22688551 0.16884902
0000b0 dc 54 cf 3d 63 35 f1 3e d0 46 86 bc 82 59 70 be
       0.101236075 0.47111043 -0.016391188 -0.23471645
0000c0 7b 83 89 bd 2c 16 c1 bd 8a 65 e1 be 59 eb e9 3d
       -0.06714531 -0.09428057 -0.4402278 0.11421842
0000d0 ec a3 e5 3c 6c 92 67 3c df 8a c5 be 3b 08 61 3e
       0.028032266 0.014134031 -0.38582513 0.21975796
0000e0 1e 79 e6 3d dd 7f 99 3e dd 2c 0f 3c fc 25 91 bd
       0.1125357 0.29980364 0.008738724 -0.07087323
0000f0 9e a5 bd be c8 dc 8a be ca 02 c1 3e 9a d9 c7 be
       -0.37040418 -0.27121568 0.3769744 -0.39033204
000100 bb 1b e6 3e 6f e3 72 3e 6a 38 9e bc b2 96 84 3e
       0.44943032 0.23719572 -0.01931401 0.2589622
000110 82 9d ca be 08 f7 bf 3d 77 1b 9d be a4 6d 0c 3d
       -0.39573294 0.09373289 -0.30685017 0.03428425
000120 e6 97 af be d6 f4 c5 3d 45 68 e6 b5 d4 76 b4 be
       -0.34295577 0.096658394 -1.7166682e-06 -0.3524691
000130 6d c7 94 3e 34 ca 31 be 49 12 7c 3d 86 a2 00 80
       0.290584 -0.1736229 0.061540876 -5.8302e-41
000140 c5 7b 46 be fd d6 09 be 80 fb 60 3e 9e cb 36 3e
       -0.19383152 -0.13460918 0.2197094 0.17851111
000150 97 e4 48 3e 3e a4 11 bd 44 f0 44 3e 23 b6 3b bd
       0.1961845 -0.035557024 0.19232279 -0.045827996
000160 f0 0b 44 3e 9f 8a 1a bc 35 5f e9 3e 96 9d 50 be
       0.19145179 -0.009432464 0.4558045 -0.20372614
000170 af 44 ea 3e 78 fc 9d 3e 17 0b 1c bd bd c0 1f ba
       0.45755526 0.3085668 -0.038096514 -0.0006094089
000180 98 5c 9f 3d f9 07 a9 3e 54 19 dd 3e 46 0f 89 bd
       0.07781333 0.33013895 0.43183386 -0.06692366
000190 c3 3c a0 3e be 66 9b be 1b ea 29 be 12 0e 9a be
       0.31296358 -0.30351824 -0.1659321 -0.3008886
0001a0 d6 6e 82 be 82 3d 52 bd 53 61 09 be 5a 63 d3 bd
       -0.25475186 -0.05132819 -0.13416032 -0.10321684
0001b0 6f 00 aa be d9 f3 b1 be 87 f6 4f 9f 4a 25 20 be
       -0.33203456 -0.34756353 -4.4037878e-20 -0.15639225
0001c0 78 27 c3 3c 9b 95 dd bd a8 3a 71 3e 44 12 46 3e
       0.023822531 -0.108195506 0.23557532 0.19342905
0001d0 eb db 4f bc df c0 df 3c 3d 07 2e be 61 41 ab ba
       -0.01268671 0.027313648 -0.16994949 -0.0013065749
0001e0 cc 50 5f 3e 06 2c df 3e de ab 99 3e 8b e8 b5 bc
       0.21808165 0.43588275 0.30013937 -0.022205612
0001f0 af a6 00 80 07 0e a1 bd 04 c2 b4 3e c0 c9 40 be
       -5.9795e-41 -0.07864004 0.35304272 -0.18826962

weight f4 [128, 128]
000000 a5 9a 0b 36 32 6d 33 bc 9b 7f c0 3a c5 65 c4 3d
       2.080263e-06 -0.010951327 0.0014686467 0.095897235
000010 7d 54 8e bd 1a a2 c5 bd 60 b5 8d 3d 3c a3 e8 3c
       -0.069497086 -0.09650059 0.0691936 0.028398149
000020 a8 0a 05 bd 03 00 8f ba de d2 a9 3b 48 8a 2d bd
       -0.032480866 -0.0010910038 0.005182608 -0.042368203
000030 4a b2 00 80 4b ef 7d 3d 4b c7 70 3d 7b 7a 2e 3d
       -6.3958e-41 0.061995786 0.05878381 0.042597275
000040 1f c1 00 80 55 d6 57 3d 27 47 f6 bb 85 c0 3f 3d
       -6.9279e-41 0.052694637 -0.0075158062 0.04681446
000050 0c 84 c6 3d ef 5b e2 bb 7b 2d a3 bc c0 7b 0a 3d
       0.09693155 -0.006907932 -0.019919148 0.033809423
000060 3b a2 00 00 97 9e 00 00 9c b6 00 80 0c ec 90 bc
       5.8197e-41 5.6891e-41 -6.5508e-41 -0.01769068
000070 5f cb de 3c bc 50 04 bc d3 b0 00 80 61 49 5a 3d
       0.027196584 -0.008075889 -6.3433e-41 0.053292636
000080 82 1b 4b 3c 53 db 31 bd a9 ae 2f 3d fd ac 00 80
       0.012396695 -0.043422054 0.04289118 -6.2057e-41
000090 b9 4e 9e 3d 20 a1 40 3d ac ba 00 80 74 e5 94 bd
       0.07729859 0.04702866 -6.6965e-41 -0.07270327
0000a0 ca a2 00 00 f3 a1 c9 3c 5b 7c 1e 3d fe 14 55 bd
       5.8398e-41 0.024613356 0.038692813 -0.052021973
0000b0 e2 14 1b 3d 1b e2 33 3d 28 b2 00 80 e0 ce 23 3c
       0.037861712 0.043916803 -6.391e-41 0.009998053
0000c0 27 38 42 3d 84 a9 00 80 56 1e d1 bd 96 0f 0d 3d
       0.047416832 -6.0811e-41 -0.10210864 0.034438692
0000d0 ae 4d 84 bc c1 ea a3 3d 83 75 4b 3d c8 d1 82 3d
       -0.016150322 0.0800376 0.049672615 0.06387669
0000e0 ee 0f 71 3d 73 e2 2d bc 3b 44 5d bc 3e aa 00 00
       0.058853082 -0.010613072 -0.013505037 6.1071e-41
0000f0 8d e6 00 be 3a d3 71 bd b9 0c 86 3d a2 09 f7 bd
       -0.12587948 -0.059039332 0.065453954 -0.12062384
000100 46 c0 09 3c 57 ea dc 3d 1c 1d 6b 3c 30 ed 9e 3d
       0.008407658 0.10786884 0.014350202 0.07760084
000110 ee dc 25 3d f8 2d a2 3d 63 26 90 bd c9 de 97 bd
       0.040493898 0.07918924 -0.07038572 -0.0741554
000120 71 3d 89 bc fe 8f b7 3c d1 b9 00 00 59 62 b8 3d
       -0.01675293 0.022407528 6.6658e-41 0.09003133
000130 81 ea e8 3c 1b 61 b3 bc 8b 0c 79 bd cf c0 00 80
       0.028432133 -0.02189689 -0.060802978 -6.9167e-41
000140 8f 76 b1 bd ec 9c 00 80 bc 93 c8 bc 3a de b2 3d
       -0.086651914 -5.6293e-41 -0.024484508 0.087337926
000150 05 60 7c 3d ab b9 00 80 eb a4 eb 3d 6b 46 60 3d
       0.06161501 -6.6605e-41 0.11506065 0.054754656
000160 72 4d aa 3d 4c 93 ab 3d ef f2 57 3d 9f eb 7a 3d
       0.08315553 0.08377704 0.052721914 0.061259862
000170 11 fc 29 bd 44 4f 9c bd 69 a2 d4 3d 00 c2 00 80
       -0.041500155 -0.07632306 0.1038254 -6.9594e-41
000180 eb d2 25 3d 97 44 b2 3b 3b 28 67 bd 13 a0 e5 3c
       0.04048435 0.0054403055 -0.05643485 0.02803043
000190 ad 08 eb bc b6 f9 06 be f2 b0 09 3e dd e4 2f bd
       -0.02869066 -0.13181195 0.13446406 -0.04294287
0001a0 a3 94 53 bd cb 3c 43 3d 42 6d b2 bc 95 ba f8 bc
       -0.051655423 0.0476654 -0.021780614 -0.030362407
0001b0 33 a3 6d 3c ea cd 0e be 6a a7 00 80 0e b5 00 80
       0.014504242 -0.13945737 -6.0057e-41 -6.495e-41
0001c0 f4 05 e8 3c ca 41 2f 3d ed a2 93 bc 16 8f 86 3d
       0.028323151 0.04278735 -0.018022025 0.0657026
0001d0 bb 82 50 3d 86 90 da bc 33 69 5f bc 54 4d 79 bd
       0.050905924 -0.026680242 -0.013635921 -0.06086476
0001e0 a0 bf 02 be d3 bb 6d 3d a0 8d dc 3d e5 87 8b 3c
       -0.12768412 0.05804045 0.107692 0.017032573
0001f0 1c a5 00 80 28 ae 32 bd 62 46 69 bd 4c a2 60 3d
       -5.923e-41 -0.04362312 -0.056951888 0.05484228
000200 6f 68 8b b5 c3 81 c5 3c cd 9b ae bd f4 4e 92 3c
       -1.0386701e-06 0.024109727 -0.085258104 0.017859913
000210 a6 cb 04 3d b0 7c 0d be f0 ed 8a 3d 29 59 eb bc
       0.032420777 -0.13817096 0.06783664 -0.028729038
000220 f7 0e dc bd 62 11 59 3d 30 95 04 3d 2e c1 73 bd
       -0.10745042 0.052995093 0.03236884 -0.059510402
000230 4c a4 00 00 8b b6 7c 3d 3e e2 1f bd 87 ad 2a bd
       5.8939e-41 0.061697524 -0.03903412 -0.041669395
000240 dc af 00 00 78 c3 80 3d 44 4c 7a 3c 90 ec 83 bd
       6.3086e-41 0.06287283 0.015276972 -0.06441605
000250 56 2f 1a bd 2e 3e 41 bd 59 99 d3 3d c3 7e e6 bd
       -0.0376428 -0.04717844 0.10331983 -0.11254647
000260 71 a3 00 00 a0 af 00 80 99 bd 00 80 1f cb 43 be
       5.8632e-41 -6.3002e-41 -6.8015e-41 -0.19120453
000270 ea cd a8 3d 9f be 76 3d e4 a1 00 00 f6 3d ad 3d
       0.082424 0.060240384 5.8075e-41 0.08459084
000280 c8 d3 b4 ba f4 59 b0 ba f7 f9 b1 bd 14 a7 00 00
       -0.0013796026 -0.0013454542 -0.08690255 5.9936e-41
000290 0b 9b a4 3c 36 bd 88 3a 07 ad 00 80 f8 6a 31 3d
       0.020093461 0.0010432366 -6.207e-41 0.043314904
0002a0 7d bd 00 00 7b d5 84 3d 25 03 9b 3b e5 97 a6 3d
       6.7976e-41 0.06486031 0.0047305995 0.0813444
0002b0 8c 41 b9 3c 36 55 9d bd 93 b8 00 80 01 fb 38 3d
       0.022614263 -0.07682268 -6.6213e-41 0.04516125
0002c0 00 91 9c bd a2 a9 00 80 91 47 b7 bd 27 df 90 3d
       -0.07644844 -6.0853e-41 -0.08949197 0.07073813
0002d0 79 4d 82 3d 35 7e 42 bd 67 03 9f bc b3 33 db 3c
       0.06362433 -0.04748364 -0.019410802 0.02675805
0002e0 d1 f2 34 3d 26 05 37 3a bd 3f 12 3e 60 bc 00 00
       0.04417688 0.0006981663 0.14282127 6.7576e-41
0002f0 20 a9 8a bd 06 85 87 bd 25 a9 4d bc cc 37 b5 bd
       -0.06770539 -0.06617169 -0.012552534 -0.08848533
000300 78 eb 02 bd c9 89 fc bc e0 a5 31 bc 90 0e 95 3d
       -0.03196284 -0.03082742 -0.01084277 0.07278168
000310 68 56 89 bd 2c 48 24 bd e2 21 4a 3d 4a 42 25 bd
       -0.06705934 -0.04010789 0.04934872 -0.04034642
000320 fe 30 de bc 73 8d c3 3d 54 bc 00 80 10 17 3e bd
       -0.02712297 0.09548464 -6.756e-41 -0.046408713
000330 ee ec 8a bd db cc a3 bd b7 d3 26 bd fc a2 00 80
       -0.06783472 -0.079980575 -0.04072925 -5.8468e-41
000340 39 99 6e bd 31 bc 00 00 9e 15 0b 3d f2 0f e0 3c
       -0.058251593 6.751e-41 0.033956163 0.027351353
000350 c6 12 a8 3d 12 a4 00 00 9e 9d b6 3d d5 f8 23 bd
       0.08206706 5.8857e-41 0.08916782 -0.040032227
000360 ee 6f c6 3d d9 ed 0a 3e e2 cc c3 3d a2 56 fd 3a
       0.09689318 0.13567294 0.09560563 0.0019328187
000370 9e 19 f0 3a 12 dd 6a bc 7c 08 d8 3d 1a af 00 00
       0.0018318181 -0.014334934 0.10548493 6.2815e-41
000380 96 e6 61 3d 23 1e 2f bd 27 cc 1a 3c a7 73 06 bd
       0.055151545 -0.04275335 0.009448088 -0.03282514
000390 84 57 a1 3d c5 e8 02 be d7 d2 01 3e 60 24 01 bd
       0.078780204 -0.12784107 0.12678085 -0.03152883
0003a0 47 7c cc bc 12 cf 92 3d 56 9a 0f ba 55 0d 3d bd
       -0.024961604 0.07168402 -0.0005478015 -0.046155293
0003b0 fd 34 3a bd 9e fa 72 bd 14 c1 00 80 04 ab 00 80
       -0.04546069 -0.05932104 -6.9263e-41 -6.1349e-41
0003c0 ea eb a1 3c 0d ac 40 bc 6f f5 95 bd a3 22 d0 bd
       0.019765813 -0.01175977 -0.07322203 -0.101628564
0003d0 07 d4 e4 3c 4f 2b 36 bd c8 89 31 bd 24 c2 60 3d
       0.027933134 -0.044474896 -0.04334429 0.054872647
0003e0 e8 cd 01 be 66 c5 3c 3d 42 a4 eb bc 70 96 c9 bd
       -0.12676203 0.04608669 -0.028764848 -0.09843147
0003f0 86 ad 00 80 f0 91 13 bd 02 3b 88 3c 5d a2 0d bd
       -6.2248e-41 -0.03602785 0.0166297 -0.03457867

bias f4 [128]
000000 30 69 a8 3d e2 ce 58 bd 38 fb 34 bc 71 dd aa bc
       0.08223188 -0.052931674 -0.011046223 -0.020857545
000010 dd 02 e7 bb 65 51 3b bb e6 0d 96 3d 89 54 b8 bc
       -0.007049902 -0.002858245 0.0732687 -0.022501247
000020 bf 5e 24 bd 5d 6c 14 bd 50 fe 26 3d db de 06 ba
       -0.04012942 -0.036236156 0.040769875 -0.00051449024
000030 7c d4 47 bc 01 f0 c3 bd e9 49 b7 3d d2 6a bd 3c
       -0.012196656 -0.095672615 0.08949644 0.023122225
000040 b5 ab 2c 3d 66 63 63 bd 34 cb ab bc 0e 1d b8 3d
       0.04215594 -0.055514716 -0.020970918 0.08989917
000050 19 d9 aa 3d 91 de 01 bd ef ef e2 bd d7 02 e7 3c
       0.08342189 -0.031706396 -0.1108092 0.028199596
000060 58 b3 e9 bc d8 24 b4 3d 2d 55 e4 3d 6b 8a 40 3d
       -0.0285279 0.0879609 0.111490585 0.047007006
000070 45 a7 a6 3d 1a 19 89 bc 59 0a ad 3d c5 b3 73 3d
       0.08137373 -0.016735602 0.08449239 0.059497613
000080 0c 04 08 bc 09 75 94 3c 68 c5 39 3d 88 98 30 3d
       -0.008301746 0.018122213 0.045354277 0.043114215
000090 3b 61 41 3c 74 0e e6 3d db ab 31 3d fe 22 94 3d
       0.011802967 0.112332255 0.043376785 0.07233237
0000a0 3c 30 82 3d 68 95 55 bc 90 28 60 bd 9f 08 5b 3d
       0.06356856 -0.0130361095 -0.054726183 0.05347502
0000b0 36 82 df 3d 60 37 50 3c bd 19 77 3d b3 db 69 3d
       0.10913508 0.012708515 0.06032728 0.057094287
0000c0 43 9e 89 bc 99 6d 15 3c 35 0b 4b bc 9c 5d d5 3c
       -0.016799098 0.009120368 -0.012392809 0.026045613
0000d0 c5 5e 2d 3d 87 0b cd 3d 23 6b 90 bc 6f 94 86 3d
       0.042326707 0.10011964 -0.017629212 0.0657128
0000e0 98 7b 29 bd 55 78 39 bd 86 f2 2f 3d db 55 75 bd
       -0.041377634 -0.045280773 0.042955898 -0.05989633
0000f0 49 3a 9b 3c eb 7f 39 bd fc 30 c2 3d 8a e6 9d bd
       0.018948691 -0.045288008 0.09481999 -0.077099875
000100 8a 50 ea 3c 58 ff ad bc 9d 03 11 bd 79 08 52 3d
       0.028602857 -0.021239921 -0.035403837 0.05127761
000110 9d d8 81 3c 07 02 b3 3d 5d f9 b2 3d fe c1 f9 ad
       0.01585036 0.08740621 0.087389685 -2.8394172e-11
000120 1a 2d 80 bd 50 de 9a 3b fd 23 93 3d b8 a0 42 3d
       -0.062586024 0.0047262087 0.071845986 0.047516555
000130 52 80 9d bb f5 4a c0 3d 53 e1 50 3d df 22 e4 3c
       -0.0048065567 0.09389297 0.050996136 0.02784866
000140 b3 ae df 3d a6 b0 1c bd 79 70 cb 3d 13 10 15 3c
       0.10921993 -0.038254403 0.09933562 0.009098071
000150 af 0d ed 3c dc 16 e0 3d ba 3a 94 3d e3 79 64 3c
       0.028937189 0.1094186 0.07237764 0.013945076
000160 5a 23 a7 bc ec 51 5a 3d 19 94 84 3d 50 fd 60 3c
       -0.0204026 0.053300783 0.0647356 0.013732269
000170 f1 93 c6 3c 66 52 06 bd 16 e6 ae bc d6 9b 2c 3d
       0.024240466 -0.032793425 -0.021349948 0.042140804
000180 19 9c 26 3d b7 d5 95 3d 7e 4c 4f bd bb 30 f3 3c
       0.04067621 0.073161535 -0.050610058 0.029686322
000190 59 23 b2 3c ce 8c 16 bd 6c fb 13 3b fd 54 af 3d
       0.02174537 -0.036755376 0.002258028 0.08561132
0001a0 c7 5f 4b bd 6c 48 89 bd 72 f0 ce bb ae e8 1f bc
       -0.049651887 -0.067032665 -0.0063152844 -0.009760065
0001b0 97 e8 3a 3d 68 79 bb 3d 6a 33 a4 3d e5 ca 08 9a
       0.04563197 0.09154016 0.08017619 -2.8288038e-23
0001c0 aa e6 4c bd de 10 45 3d cd e4 35 bc 78 8b 86 bd
       -0.050024666 0.04811179 -0.011101914 -0.0656957
0001d0 07 b2 85 3d f9 a1 d0 3d 20 c4 ed ba aa 9c 93 3c
       0.06528097 0.10187144 -0.0018140115 0.01801904
0001e0 28 45 16 3d 63 56 b7 3b cb ef 1e bc c1 71 fd bc
       0.036687046 0.005595015 -0.009700726 -0.030938031
0001f0 97 08 e9 bc 4a 3e 5f 3d 6e 4f f6 3b 0b a2 b1 3c
       -0.028446479 0.054502763 0.007516793 0.021683713

weight f4 [2, 128]
000000 2e 35 11 3d a1 75 8e 3d f4 70 0b 3d 04 6b 50 bd
       0.035451107 0.0695603 0.034043267 -0.050883308
000010 b6 f4 ce 3d 9e 25 71 3d ee ce aa bd 17 0b c3 bd
       0.10105269 0.058873765 -0.0834025 -0.095235996
000020 a6 78 cd 3d 74 2b 40 3d 5f b2 c2 3d 1c ac 5c 3b
       0.100327775 0.04691644 0.09506678 0.003367192
000030 1d 24 a9 3d 6a 6e e2 bc d7 08 96 3d 62 9f 8f bd
       0.08258841 -0.02764054 0.07325905 -0.07012822
000040 f4 1e c6 3d 36 1e cf 3d 3f 8b a9 3d 1f 9f 96 3d
       0.096738726 0.10113184 0.08278512 0.07354569
000050 f2 a7 96 3d 28 12 20 3d bd 2c 83 bd 17 61 d7 3d
       0.07356252 0.039079815 -0.064050175 0.10516565
000060 22 58 11 3d db 1a 24 3c 70 ad 96 3d 16 eb c6 bd
       0.03548444 0.0100161685 0.07357299 -0.09712808
000070 5f f9 be 3d d5 97 8a bd e4 da 9a 3d 66 a9 58 3c
       0.093249075 -0.06767241 0.07561281 0.0132239815
000080 99 80 cb 3d 52 28 bd bd 9a f5 80 3c 48 c8 8a 3d
       0.099366374 -0.09236206 0.015742112 0.06776482
000090 64 b8 05 3e cd be a9 3c 80 d2 24 3d a6 40 14 3d
       0.1305862 0.020720864 0.04023981 0.036194466
0000a0 ef b0 cc 3d e4 b4 9d bd f0 ab ab 3d 6f c7 a7 bd
       0.09994685 -0.07700518 0.08382404 -0.08192336
0000b0 aa 81 c3 3d 57 ec 9a 3d 7d b5 9b bd 71 b7 89 3c
       0.09546216 0.075646095 -0.076029755 0.016811104
0000c0 90 01 e4 bb 49 8b 2f 3d 64 15 c5 bd cc ef d1 3c
       -0.006958194 0.042857442 -0.096232206 0.02562704
0000d0 74 9e 04 bb be 22 67 3d 34 82 7c 3c c7 85 f0 bd
       -0.0020236047 0.056429617 0.015411902 -0.11744266
0000e0 c9 97 93 3d c7 f1 c4 3d dd 6d 23 bb e9 70 45 3d
       0.07206685 0.09616428 -0.002493731 0.048203383
0000f0 85 fe c6 3d 77 2f ec bc f6 cd 86 3d 91 17 e2 bd
       0.097165145 -0.028831227 0.06582253 -0.11039651
000100 f6 24 32 3d d8 4a 55 3d fc 8d 9c bc f2 c1 8c bd
       0.04349228 0.05207333 -0.019110672 -0.0687293
000110 18 b8 7c bd b2 49 3d 3c 13 03 3f bd 80 a1 02 31
       -0.061699003 0.011553215 -0.04663379 1.9009292e-09
000120 9d 4b 5e bd 00 1d b3 3d 35 4e 19 bd 1f c0 ef 3c
       -0.05427133 0.08745766 -0.0374281 0.029266415
000130 f1 59 8d ba e8 cd a9 3d f9 75 67 3c e6 5a 54 3d
       -0.0010784251 0.082912266 0.014127248 0.0518445
000140 18 e8 48 3d 95 35 ca bd 66 34 8d 3d a2 4e 51 3d
       0.049049467 -0.09873501 0.0689476 0.05110038
000150 c7 2d b6 3d 69 2c 04 be 64 0b c7 bd c6 7f d3 3c
       0.0889545 -0.12907566 -0.097189695 0.025817763
000160 d6 27 b3 3d f7 71 1b 3d c2 b0 b1 bd 8e 28 9f 3d
       0.087478325 0.037950482 -0.08676292 0.07771407
000170 79 a4 30 bd 31 3b dc 3c b4 15 52 3d 33 a7 84 3d
       -0.043125603 0.026883693 0.05129023 0.06477203
000180 6c 0b 8e 3d 77 2c 2f 3d c8 9b a4 3c a9 f9 24 3d
       0.06935772 0.042767014 0.020093814 0.040277157
000190 b0 1b f5 ba db 27 c8 3d 75 ae 9a 3d d6 20 6a bd
       -0.0018700268 0.09773227 0.07552806 -0.05716022
0001a0 71 0c 41 bd 4f e0 73 bd 90 b7 45 3d 26 26 b2 bc
       -0.047131006 -0.05954009 0.048270762 -0.021746706
0001b0 1f f7 54 3d d7 bb 40 bd 21 8b 8d 3d dc 1d 6f 34
       0.051993486 -0.047054138 0.06911302 2.2269472e-07
0001c0 70 06 ab 3d 4f 50 11 3d 95 20 74 3d 9e 24 c1 bd
       0.08350837 0.03547698 0.059601385 -0.09430812
0001d0 82 5c d8 3a af dd 98 3c 92 34 3c bc fd 1f e6 3c
       0.0016507062 0.018660394 -0.011487143 0.028091425
0001e0 af 78 02 3d be 53 ad 3c 23 50 b4 bd c5 01 52 bd
       0.031853374 0.021158095 -0.08804347 -0.05127122
0001f0 72 fd ce bd 36 08 ea bc 05 b0 f8 bd 94 38 83 3d
       -0.101069346 -0.028568368 -0.12142948 0.06407276
000200 8c 29 40 bb 23 33 bf 3d f2 05 b7 3c 77 fa 58 3d
       -0.002932164 0.093359254 0.022341702 0.052973237
000210 10 ab 3c bd 56 38 5b bb 8e f5 c6 bd 1d 99 c5 bd
       -0.046061575 -0.0033450327 -0.097148046 -0.09648345
000220 7c b3 6d 3d cf ef 44 3d 3c 93 09 3d d6 11 d9 bb
       0.058032498 0.04808026 0.03358768 -0.0066244407
000230 5b e0 00 bd c2 04 c0 bc ad 5a 91 bc 4b b6 e7 3c
       -0.031463962 -0.023439769 -0.017743433 0.028285166
000240 31 e7 bd 3d f0 ec 5a 3c 54 40 f0 3c 66 15 5c bd
       0.09272612 0.013362154 0.029327549 -0.053731345
000250 28 df 16 3d b6 b5 0b 3e 6a 65 bb 3c 85 4c 15 3e
       0.036833912 0.13643536 0.022875506 0.14579971
000260 16 38 94 3c 33 98 37 3d 01 4e 2c bd 6f 34 f9 bd
       0.01809315 0.044822883 -0.042066578 -0.12168204
000270 9c 15 30 3d 7d 0e 99 bd 9a 71 a5 3d d4 42 14 3d
       0.04298936 -0.074734665 0.080783084 0.036196545
000280 b0 bf 3d 3d 6a b7 20 be 0d 1f 6a 3d 69 d7 8b bd
       0.046325386 -0.15694967 0.05715852 -0.068281956
000290 0f 25 93 3d 48 ca 6a bc e3 9f 6b bb cf 9c 93 3d
       0.07184803 -0.014330454 -0.0035953454 0.07207643
0002a0 0e e5 97 3d 0e 79 85 bd bf 79 aa bb 05 46 a8 bd
       0.074167356 -0.0651723 -0.0052025015 -0.0821648
0002b0 bc 3d 47 bd 80 44 05 bd 35 bd 2d 3d 1d 78 b9 3d
       -0.04864286 -0.03253603 0.04241677 0.09056113
0002c0 49 4e 31 bd 60 e1 15 3d 2a 64 16 be da fb 54 3d
       -0.04328755 0.036591887 -0.14686647 0.051997997
0002d0 b0 39 35 3d 14 98 cb bc 18 19 68 3d 6d 1c a9 bd
       0.04424447 -0.02485279 0.056664556 -0.08257375
0002e0 2d 60 26 3d 77 42 6c bc ae 5d 9e bd 44 c1 96 3d
       0.040619064 -0.014420143 -0.07732712 0.07361081
0002f0 27 4d 62 bd 51 8f ba bd 4a e1 81 bc 2b e1 73 bc
       -0.05524936 -0.09109367 -0.015854497 -0.014885227
000300 98 01 69 3d d7 6a 63 3c f8 8c 96 bc 2a 0a ee bd
       0.056886286 0.013880453 -0.018377766 -0.116230324
000310 53 61 31 bc f6 2c aa 3d 57 2c 6d bd 95 03 19 30
       -0.010826427 0.08309357 -0.057903614 5.5666166e-10
000320 7b 93 ea 3c d6 c1 9b 3d 06 d8 04 3d c1 ba 09 3e
       0.028634777 0.07605331 0.03243258 0.13450147
000330 ce 2f 81 b9 b6 bf ba 3a e5 d2 38 3d 83 e7 8e 3c
       -0.00024640415 0.0014247808 0.045123 0.017444378
000340 01 c4 a7 3c 86 d9 9c 3c 52 60 8c bd 01 a9 ac ba
       0.020479204 0.019146692 -0.06854309 -0.0013172926
000350 6f 0e 40 3d 51 23 35 3c 79 b2 93 bd 88 38 c5 3d
       0.046888765 0.011055783 -0.07211775 0.09629923
000360 d1 34 74 bd 56 93 e2 3c 33 22 e5 bc 29 d4 b5 3d
       -0.059620682 0.027658146 -0.027970409 0.08878357
000370 e7 9f f7 bd ea 2e 41 3d 83 9a a9 3d 0d 35 9b 3d
       -0.12091046 0.04716388 0.08281424 0.07578478
000380 1f 22 38 bd 71 95 c7 3d 56 f5 8c 3d 2b 9e 3c bc
       -0.044954415 0.097453006 0.068827316 -0.01151232
000390 b4 7f bd 3d 3d 0a 8c 3d 90 3d 47 3d 4d 87 82 3d
       0.09252873 0.0683789 0.048642695 0.06373463
0003a0 4d d8 b9 ba c5 7a 99 bd 3e 94 59 3d b3 d3 10 3d
       -0.0014178843 -0.074941196 0.05311989 0.035358142
0003b0 3b fc d3 3c 98 52 11 be 95 14 b4 ba 3a 44 60 32
       0.025877109 -0.14191663 -0.0013739044 1.3054029e-08
0003c0 0c 6b 08 3d ec 63 95 bb 26 ab a1 bc e3 52 5b 3d
       0.033305213 -0.0045590308 -0.01973493 0.053545844
0003d0 3d 2d 74 3d 8d fb 30 3d 26 f2 8d 3c c9 4b d4 3c
       0.059613455 0.043208648 0.01732738 0.025915043
0003e0 1b 7a 32 3d 36 41 77 bb 1f 27 7f 3d 95 eb 38 bd
       0.04357348 -0.0037728078 0.06229317 -0.045146544
0003f0 06 df 62 bd e5 74 31 be bf 1e 80 bd ab 55 ef 3d
       -0.055388473 -0.17329748 -0.06255864 0.11686262

bias f4 [2]
000000 b5 77 d2 3d fc 4e c9 3d
       0.102767386 0.09829518
