c220g2_power.pt (torch, 88556 bytes, 7 tensors)

pkg_bias f4 [2]
000000 66 53 e9 3d ca 4f bc bd
       0.1139286 -0.09194906

weight f4 [128, 7]
000000 5c 71 ad bd b2 45 89 bd e4 59 c6 3e 3f 2c cb bd
       -0.08468887 -0.067027465 0.38740456 -0.09920549
000010 9f 8c bf 3e 36 69 18 3e 03 6b 81 bc 60 c7 86 3c
       0.37411973 0.14883885 -0.015798097 0.016452491
000020 05 8b 80 bc 03 73 6d bd 6c ca e6 3d 55 77 9b bb
       -0.01569129 -0.05797101 0.11269078 -0.00474445
000030 0e b0 c4 3c 1d 5a 82 3b 84 9e a2 3e af 0a 97 3e
       0.02400973 0.0039780275 0.31761563 0.29500338
000040 9f 61 8a 3e 47 4c d9 3d 51 9b 15 3e e4 79 8b 3d
       0.27027604 0.10610252 0.1461003 0.06810358
000050 cb 78 7a be ca 84 45 3e 6e 21 b7 3c 09 e3 a5 3e
       -0.24460141 0.19288936 0.022354808 0.32399777
000060 bb 39 e3 3d c3 fa e3 bc a3 bf 71 3e 8e 94 b7 3e
       0.110949956 -0.027829533 0.2360826 0.35855526
000070 a2 4d 69 3e 49 e2 a3 3c 0c 22 7c be dd ed d8 be
       0.22783521 0.020005362 -0.24622363 -0.42368975
000080 fe 82 b1 be 04 03 0b be 4c 89 d3 3d e6 93 c4 3e
       -0.34670252 -0.13575369 0.10328922 0.38394088
000090 5a 43 a3 bd da be 59 3d c8 ab f6 3d e8 ba 42 3e
       -0.07971831 0.053160526 0.120444834 0.19016612
0000a0 95 3b ba 3e de 5f ac 3e 3f b9 9b 3e bd 85 53 be
       0.36373582 0.3366689 0.3041477 -0.20656486
0000b0 1d 54 0f 3e 64 fe d8 3d 5b 8c 8e 3e 7b c1 75 be
       0.1399693 0.10595396 0.27841458 -0.23999588
0000c0 ab 4d 14 bd 3c 7a d4 bc 10 b5 be 3e f9 b0 80 bd
       -0.036206882 -0.025937192 0.37247515 -0.06283755
0000d0 95 86 af bc c4 07 99 3e 99 22 e3 3e c9 e6 98 3d
       -0.021426478 0.29888737 0.44362333 0.07465894
0000e0 5c 03 e7 3d 27 66 96 3e 32 42 8d 3d db 2a d1 3d
       0.112799376 0.2937481 0.068973914 0.10213252
0000f0 9e 5f 0f 3e 7d 22 92 3e 6a 06 82 bd 8e 4b b2 be
       0.14001319 0.28541937 -0.0634888 -0.3482327
000100 37 8d 44 3d 94 47 c4 3d 82 63 11 bc b6 b4 1b bd
       0.047986235 0.09583965 -0.008873822 -0.038014136
000110 8b bc e0 bd 37 de 5d 3e 92 78 5b a1 e3 56 a4 bd
       -0.10973462 0.216668 -7.435966e-19 -0.08024385
000120 3a 9b c2 bc 1e 8b c3 33 d6 ad 00 00 67 e5 82 bc
       -0.023755658 9.1057004e-08 6.236e-41 -0.015978528
000130 cc 45 0a 31 f6 ab 00 00 2d be db bb a9 a1 00 00
       2.0121318e-09 6.1688e-41 -0.0067060203 5.7993e-41
000140 3b c3 00 80 83 9f 00 80 20 bb 00 00 22 ed 98 b4
       -7.0035e-41 -5.7222e-41 6.7128e-41 -2.8484743e-07
000150 1a 06 c1 3e 15 11 24 3e 55 b9 25 be 3d 5f 08 3e
       0.37699968 0.16022141 -0.1618398 0.1331758
000160 7c 91 ff bd b7 6b 83 bd 67 cb cc 3d 9e 6e 9a 3d
       -0.12478921 -0.06417029 0.099997334 0.0754063
000170 85 10 8d 3e 7f e1 98 3e d6 4b 99 be b4 55 b0 3e
       0.27551666 0.2985954 -0.2994067 0.34440386
000180 c7 2a 59 be b8 6a 14 3e 30 2b 1f 3d 60 28 c0 3c
       -0.21207725 0.14493835 0.038859546 0.023456752
000190 0b 81 0d 3e e5 30 6a 3e 94 ac 20 be 30 8d 13 be
       0.13818757 0.22870214 -0.15690833 -0.14409328
0001a0 68 e5 fe bd 91 3c a9 3e 56 66 a9 be 5c dc 94 3e
       -0.124460995 0.3305402 -0.3308589 0.2907437
0001b0 95 a8 ad be 1a 48 ec 3d 7a 4c 2c 3d 26 ab bb 3e
       -0.3391768 0.1153719 0.04206512 0.36654013
0001c0 b5 ec 0c 3e d7 18 59 be ff 42 8d 3d b4 b4 44 bd
       0.13762172 -0.21200882 0.06897544 -0.048023894
0001d0 d7 62 54 3e ba 77 4f be 2b 67 9e 3e e6 8f 88 bd
       0.2074083 -0.20260516 0.30938086 -0.066680714
0001e0 14 17 c9 3e 08 fe 84 be 49 4d 06 be e3 d5 98 3e
       0.3927542 -0.2597506 -0.1311542 0.29850683
0001f0 51 4f be bd 2e 18 8d be 9f 6d 9c 3c de 94 86 3e
       -0.09292472 -0.2755751 0.01909524 0.26285452
000200 f5 30 40 3e 76 a7 8a be f6 9f e2 3d 7f b9 8f 3e
       0.18768676 -0.27080888 0.110656664 0.2807121
000210 79 82 d5 bd dd 22 29 be 92 8e 3a 3d 17 b8 9e bc
       -0.10425276 -0.16517206 0.045546122 -0.01937489
000220 eb 11 cb bd 1f 91 cd be 91 e0 a1 3e 38 87 4b 3e
       -0.09915527 -0.4014978 0.31616643 0.198758
000230 19 99 8b 3d e7 59 5c 3e 8a ee 2b 3e 0d d5 bb 3e
       0.068163104 0.2151867 0.16790214 0.36685982
000240 96 6f a1 3e 84 e3 38 3e ce 0b 49 be ab 09 9a 3e
       0.31530446 0.1805554 -0.1963341 0.300855
000250 aa 09 c0 3d 22 1c 58 3e 23 cf 08 3e 63 de 92 be
       0.09376843 0.21104482 0.13360266 -0.28685293
000260 05 bd 14 bc 01 bb a6 be 63 d3 c3 3e 92 6a a1 3c
       -0.009078269 -0.32564548 0.38247213 0.019704137
000270 2e 3d 16 be 25 31 29 be 62 01 6d 3e c9 9d ab be
       -0.14671776 -0.16522653 0.23145059 -0.33518818
000280 27 90 9f 3e 90 b2 d4 3d dc 42 a2 3e 52 e2 49 3e
       0.31164667 0.103856206 0.31691635 0.1971524
000290 a2 6c 83 bd 86 58 ae bc 56 b7 cd 3c 15 82 b8 3d
       -0.064172044 -0.021282446 0.025111835 0.09009186
0002a0 fe 10 63 be b2 6b d5 3e b8 39 6c be a1 18 02 3d
       -0.22174451 0.41683728 -0.23068893 0.03176177
0002b0 a3 3a aa 3e 20 6b 49 be 4c 85 6e be 86 f0 ac 3e
       0.3324786 -0.19669771 -0.23293036 0.33777255
0002c0 26 e1 73 3e 1c bb a0 3d 1b ac 0c 3b 2b f3 d8 be
       0.23816356 0.07848188 0.0021464888 -0.42373022
0002d0 d5 c6 7d bd b5 f2 97 3e e2 96 46 3d c6 28 c3 3e
       -0.0619572 0.29677358 0.048483737 0.38117045
0002e0 28 64 8d be 4b c7 a0 3d 53 d3 b4 be bc 5f 3b be
       -0.27615476 0.07850512 -0.35317478 -0.18298239
0002f0 59 29 e8 bc b3 26 8a 3d a7 72 73 be 7d 27 bc 3d
       -0.028340029 0.067456625 -0.23774205 0.09187219
000300 f7 8a 2f 3c 0b 4a 92 3e 2d bc aa be 4f 8d 02 3e
       0.010714284 0.28572115 -0.33346692 0.12749217
000310 ac fc 63 be 62 50 2f be 19 cc a0 3e a2 41 d5 bd
       -0.22264355 -0.17120507 0.31405714 -0.10412909
000320 a4 60 51 be f6 14 98 3e d6 d3 9b 3e 3c 7c ca 3d
       -0.20447022 0.29703492 0.30435055 0.09886977
000330 a8 0f 73 bd b4 77 7a be 66 06 15 3e 0f 3b b3 3d
       -0.059341103 -0.24459726 0.14553222 0.08751499
000340 05 81 8b 3e 61 00 26 3e 36 13 cd 3e 91 f1 b2 3e
       0.27246872 0.16211082 0.4005372 0.34949926
000350 2e 71 4e bd af 35 3a bd 9c 27 41 3d 72 ea b7 3e
       -0.050400905 -0.045461353 0.047156915 0.35921055
000360 84 fa 9c be 45 6f b0 3e a7 ac c1 3e 62 9f 89 be
       -0.30659878 0.34459892 0.37827036 -0.26879412
000370 79 c5 a1 be 7e 5c fb bd 87 40 b0 be 90 c1 c5 3d
       -0.31595972 -0.12273501 -0.3442423 0.0965606
000380 e2 63 39 3d 81 09 66 3d 2b 94 31 be 49 10 8e 3e
       0.04526127 0.056161407 -0.17341678 0.277468
000390 78 41 9f 3e 2c a6 97 be e3 64 2c 3c 2e 86 04 bd
       0.31104636 -0.29618967 0.0105221 -0.032354526
0003a0 0a 86 24 bd fc c1 00 80 d8 b4 00 80 84 a7 00 80
       -0.040166892 -6.9588e-41 -6.4875e-41 -6.0093e-41
0003b0 2b 86 66 3d 48 c0 00 00 d9 6b ab 3e 61 c2 26 3b
       0.056280296 6.8978e-41 0.3348072 0.0025445449
0003c0 bd ff 80 be cd be d8 3d 5c a3 03 bd 33 ce 09 bd
       -0.25195113 0.10583267 -0.032138214 -0.033643913
0003d0 c2 e1 de 3c 47 e1 b4 3c 13 d7 c2 3e 29 fe 31 3e
       0.02720726 0.022080077 0.38054714 0.1738211
0003e0 df b4 0d be 11 bf 05 be 9d 76 43 3e 78 cf a7 3e
       -0.13838528 -0.13061167 0.19088216 0.32775474
0003f0 07 8e 50 3e 3f 2c 7c 3e 41 9b 70 be ad 1d 80 bc
       0.20366679 0.24626254 -0.23496725 -0.01563915

bias f4 [128]
000000 bb 42 b9 bc d5 42 35 3c c4 2c 81 3c d1 1a 85 3d
       -0.022614827 0.011063297 0.015768416 0.064992554
000010 92 30 96 3d 8a 6f 20 be 77 f9 25 bd ad 02 ce 3d
       0.07333483 -0.15667549 -0.04052111 0.10059104
000020 0b be 42 3d 1b df 26 3e a7 aa 00 80 b5 14 01 80
       0.04754452 0.16296045 -6.1219e-41 -9.9264e-41
000030 ec b2 99 bd aa 2a ae 3e 3e a8 76 be 0c f6 36 3e
       -0.0750483 0.34016925 -0.24087617 0.17867297
000040 ac 43 d5 bd d0 5c d7 3e d4 73 b5 bd b2 50 03 be
       -0.10413298 0.42062998 -0.08859983 -0.12823752
000050 bf ad be be c0 da ad be 1d 88 d0 3e 60 bd 7f be
       -0.37241933 -0.33955956 0.40728846 -0.24974585
000060 a9 2b 5c be 36 e9 ad be c6 b5 06 be d8 2a d8 3e
       -0.2150103 -0.33966988 -0.13155279 0.42220187
000070 89 4f 6d bc 2a 72 ba 3e 66 59 00 bd 30 28 b2 bd
       -0.014484295 0.36415225 -0.031335257 -0.086990714
000080 c7 bd d0 3e 6a a8 00 80 42 db 6e bd 74 39 ae 3d
       0.4076979 -6.0416e-41 -0.05831457 0.08507052
000090 01 c0 89 3e f9 c3 13 3c 3d 4b 97 3e e3 72 cb 3e
       0.269043 0.0090188915 0.2954959 0.3973609
0000a0 a2 de 1c 3e 21 12 c1 bc 1d 1f 4a 3d 63 0d 01 3e
       0.15319303 -0.023568215 0.04934608 0.12602763
0000b0 48 d8 8f aa 3d fc ab 3e 25 7e be be 6c 2b 8a bd
       -2.5551978e-13 0.3359088 -0.37205616 -0.06746563
0000c0 be bb a5 3e f3 dd 6c bc 62 c1 a0 3c 8e 14 b2 be
       0.32369798 -0.014457214 0.019623462 -0.34781307
0000d0 f4 57 8b 3e ac d7 a3 3e d4 c0 ba 3e af 2d 14 bd
       0.2721554 0.32000482 0.3647524 -0.03617638
0000e0 1a c2 74 be 16 94 54 bc dc 6c b1 3e 0a 4b f0 bd
       -0.23902169 -0.01297476 0.34653366 -0.117330626
0000f0 0b a1 0a 3e d3 1a d0 3e 6e c9 8e 3e 63 86 54 3e
       0.13537996 0.40645465 0.27888054 0.2075439
000100 d7 df 89 bd 21 ca d9 bd 83 5e 98 bd 63 df bb bd
       -0.06732147 -0.10634256 -0.07439902 -0.09173467
000110 15 ad eb 3d 5c af c9 3d ef b2 a4 be 96 95 2f 3e
       0.11507622 0.098479 -0.32167765 0.17146906
000120 d3 2d 8a be 9d 7b af be 9b bb 07 3e 3e 69 4f 3d
       -0.26988086 -0.34273997 0.1325516 0.050637476
000130 bc 44 cd bd 21 43 4b bd 2b 2f 8b 3e df 0b 62 3c
       -0.10022876 -0.049624566 0.27184424 0.013796776
000140 2e 28 b3 3e 86 8e 0e 3e 60 42 93 be 70 c0 44 be
       0.34991592 0.13921556 -0.28761578 -0.19214034
000150 96 a8 04 3e 22 5f af bd 4f 59 31 3e 1a 0b 02 3e
       0.12954935 -0.08563067 0.17319225 0.12699547
000160 30 58 2c be 52 64 43 bd 45 ba b0 bd fb 0f 84 3e
       -0.16830516 -0.047703095 -0.08629278 0.25793442
000170 e7 06 68 be 58 ed d8 bc b7 94 56 3b 01 99 1d 3e
       -0.22658883 -0.026480362 0.003274245 0.15390398
000180 85 f9 1a 3e bd 99 8b bc 42 11 47 83 47 98 fc bd
       0.15134247 -0.017041082 -5.8500655e-37 -0.12333732
000190 0e 34 09 3e 70 1d 0e 3d f4 dd 5c be 2c 45 86 3e
       0.13398764 0.034696043 -0.21569043 0.2622465
0001a0 49 24 b4 bd d1 b1 c5 be af 82 95 3e 0d 0a 8f be
       -0.08795983 -0.38612226 0.29201266 -0.27937356
0001b0 d3 21 99 bd 32 58 8a 3e 45 14 ff bd 9e 66 2b 3d
       -0.074771546 0.27020413 -0.12455038 0.04184591
0001c0 23 2f ed bd 7e f9 28 be 61 b0 4f be 76 76 60 97
       -0.11581256 -0.16501424 -0.20282127 -7.252782e-25
0001d0 b6 26 8a 3e 68 52 77 3e 8c aa 90 be 4c c0 9a bc
       0.2698266 0.24152529 -0.28255117 -0.018890522
0001e0 ea e4 88 3e 82 9c 19 3e c6 5d a4 be 94 f1 9b 3e
       0.26737148 0.15001109 -0.32102793 0.30457747
0001f0 3f b6 a8 be b4 35 42 bd 2f d2 15 3e b1 db 74 3e
       -0.32951543 -0.047414497 0.1463096 0.2391193

weight f4 [128, 128]
000000 d7 79 79 bd 84 ee 3c bd 6d a5 29 3d b1 45 40 bd
       -0.06090721 -0.046125904 0.041417528 -0.046941463
000010 c0 d1 21 bd ad a1 2b 3c 38 3f 31 bc 97 58 b2 3d
       -0.039506674 0.010475558 -0.010818295 0.087083034
000020 e7 60 bf bc 48 05 22 3d 2a be 00 00 39 b8 00 80
       -0.023361636 0.039555818 6.8218e-41 -6.6087e-41
000030 ab f1 e8 bc 43 8f 5b 3d 03 9c d9 bd 0e 11 46 bd
       -0.028435549 0.053603422 -0.1062546 -0.04835611
000040 31 c7 8c bb a2 00 a1 3c b7 b6 36 bd 47 31 6f ba
       -0.0042962064 0.019653622 -0.044607844 -0.00091244694
000050 cd d1 8a bd 88 ca 88 3d d7 02 a9 3d 1b e9 2a 3d
       -0.067782976 0.06679255 0.08252495 0.041726213
000060 0a 28 62 bd 7f 9d 48 3c 5e c3 1f bd a3 c0 09 3d
       -0.055213965 0.012244581 -0.039004676 0.03363098
000070 e9 b3 81 bd 43 f2 7b 3c b1 74 4d bd e7 c5 c5 3b
       -0.06333143 0.015377584 -0.050160114 0.0060355547
000080 92 06 97 3d a7 bb 00 80 f5 35 90 3d 59 91 fc 3c
       0.073743 -6.7317e-41 0.070415415 0.030831026
000090 8e 29 00 bd f2 39 a1 3d bd 32 a1 3d 76 5b 96 3d
       -0.03128963 0.0787238 0.07871006 0.073416635
0000a0 88 ea a0 bd 13 3b fe 3c 6c 34 97 bc cb c8 16 3d
       -0.07857233 0.031034028 -0.018457614 0.036812585
0000b0 0d bf 00 80 38 c6 90 3b d8 ab 3a 3c 81 c1 00 00
       -6.8536e-41 0.0044181608 0.01139351 6.9416e-41
0000c0 94 fa c5 3d 2f 4c a1 3c 0d c0 0d 3d c6 77 c0 bd
       0.096669346 0.019689647 0.034606982 -0.09397845
0000d0 7d 80 6e 3d 45 7e 50 3d bd 76 4e bd 33 91 ad 3c
       0.058228005 0.05090167 -0.050406206 0.0211874
0000e0 a9 5f ae bc f2 e9 b7 bc 13 90 e3 bd a7 4c 78 bd
       -0.021285849 -0.022450421 -0.11111464 -0.060619976
0000f0 49 e3 20 be cd 17 de 3b df d3 84 bd 56 cc 57 bd
       -0.15711702 0.0067777396 -0.06485724 -0.052685104
000100 f0 3d d5 bc d3 68 94 3d 1c 4e 5d 3b 49 03 a8 bd
       -0.02603051 0.07246556 0.003376848 -0.082037516
000110 e7 71 d7 bd d6 59 a1 bd 72 a1 cd bc aa 32 f4 bd
       -0.10519772 -0.07878463 -0.025101397 -0.11923726
000120 da 19 b4 3d ce 36 db bc 79 90 ac 3d 8f 42 65 3d
       0.08793993 -0.026759531 0.084259935 0.05597168
000130 c7 ee 94 3d 3d fb a7 bb 45 39 e4 3c e8 66 ca bd
       0.07272106 -0.0051263855 0.02785934 -0.09882909
000140 e6 24 0d 3c aa ca 3f bd ba 98 e2 3b 8c 94 90 3c
       0.008614754 -0.046824135 0.006915179 0.017648958
000150 38 68 99 bd c7 9c 04 bd 2e e7 78 3d 4d 39 1a be
       -0.07490581 -0.032376077 0.060767345 -0.15060921
000160 52 63 24 3d 25 a6 00 00 51 31 c2 3c d7 4d 32 bc
       0.04013378 5.9601e-41 0.023705157 -0.010882816
000170 d9 00 09 bd b5 00 97 b9 ca 55 51 bd 5c fd c8 bc
       -0.033448074 -0.0002880149 -0.051107205 -0.024534874
000180 15 58 1a 3d a0 b6 73 bd 85 be 00 00 a8 12 09 3d
       0.037681658 -0.059500337 6.8346e-41 0.033465058
000190 63 40 d5 3d c5 f8 28 bd f7 8d 71 3d 13 51 01 3d
       0.104126714 -0.04125287 0.05897328 0.03157146
0001a0 4c ad 50 bd 8e c3 20 3d ba 78 29 3d 11 c7 86 3d
       -0.05094652 0.039248995 0.0413749 0.06580938
0001b0 20 ad 00 80 5a 87 a1 bd 5a cd 11 3d 3d 22 ca 3d
       -6.2106e-41 -0.078871444 0.03559623 0.09869812
0001c0 83 bf c2 3d 20 0a 08 3b ee a0 63 3d 3e af 00 00
       0.09509184 0.0020757988 0.055573396 6.2865e-41
0001d0 cd 56 0e be f5 b7 68 bd df f2 81 3c 78 c2 00 00
       -0.139003 -0.05681606 0.01586288 6.9762e-41
0001e0 b0 01 c7 bd 4d 2f 75 bd 57 46 49 bd 6a 8b 5a 3c
       -0.09717119 -0.059859563 -0.049139347 0.013338903
0001f0 8a 7d 5e 3c 6d eb 56 3d 6a 5b bb 3d 1d 2f ae 3a
       0.0135797355 0.052470613 0.09148295 0.0013289187
000200 a4 04 cc 3b 71 16 ec bc 6e 6e 89 3c 7d 4b 41 bd
       0.006226139 -0.028819295 0.01677629 -0.04719113
000210 83 43 9e 3d 83 4a 95 bd 76 25 04 3d d5 c5 27 bd
       0.077277206 -0.072896026 0.032262288 -0.04096015
000220 1d b8 be 3d dc 03 9f bc 60 a7 00 80 30 ae 00 80
       0.093124606 -0.01941102 -6.0043e-41 -6.2487e-41
000230 2e 88 49 3d 49 d9 ab 3d b7 c9 8a bd 55 df 7e 3d
       0.049202137 0.08391053 -0.06776755 0.062224705
000240 89 ac 93 bd 47 44 b2 bc ac 51 9a bd eb 9d 9b 3c
       -0.07210643 -0.021761073 -0.07535109 0.0189962
000250 30 53 dd bd 35 f0 4d bd 35 b1 2a 3d 53 42 ab bd
       -0.108068824 -0.050277907 0.041672904 -0.0836226
000260 b1 09 36 3b d9 ed 92 3a 0a 5c 76 bd cf c9 c0 3d
       0.0027776773 0.00112098 -0.06014637 0.09413492
000270 1c 84 a3 3d 6b 16 7e 3c 13 e0 ee 3d 63 8a a7 bd
       0.07984182 0.015508275 0.116638325 -0.08180692
000280 b7 0a dd 3d c5 c2 00 00 3e 00 a8 3c f5 de 86 bd
       0.10793059 6.987e-41 0.020507928 -0.065854944
000290 17 ec 27 3d 9a bd cc 3c 9a ba 19 3d 55 1d 3f 3d
       0.040996637 0.024992753 0.037531473 0.046658833
0002a0 48 2a de 3c 87 93 5b 3c 65 95 d3 3c bb f7 a4 bb
       0.02711977 0.0134018725 0.025828073 -0.0050344146
0002b0 06 b8 00 00 d4 80 2c bd 34 83 c0 bd 23 a7 00 00
       6.6015e-41 -0.042115048 -0.09400025 5.9957e-41
0002c0 af ae fd bc af b8 77 bd a3 f0 a5 bd 09 97 1f bd
       -0.030967085 -0.060478862 -0.081025384 -0.038962398
0002d0 bb 1e 33 3d 6f 23 81 bc 29 ff 89 3d 4c ff 5e bc
       0.04373048 -0.015763966 0.06738121 -0.013610672
0002e0 ec 93 e0 bc 4f f6 70 bd fa da db 3d e6 47 d1 bd
       -0.027414285 -0.05882865 0.10735126 -0.10218792
0002f0 be 7e 51 bd 50 52 b6 bb b6 b0 97 3d 44 a0 87 bc
       -0.05114626 -0.0055640116 0.07406752 -0.016555913
000300 ea 27 6a 3d b1 a5 92 bb 19 87 80 3d 83 e7 8c 3d
       0.05716697 -0.0044753184 0.06275768 0.06880095
000310 ac 92 21 bd bf 03 8f 3c 08 13 c9 bc 35 bd 38 bb
       -0.039446518 0.017457841 -0.024545208 -0.0028188948
000320 8a 6b 99 3d cb e2 c0 bd c9 c9 c4 3d d3 1b 0e bd
       0.074912146 -0.09418257 0.096088 -0.034694504
000330 df e7 81 3d ea d8 0d 3d cf db 5d bc a5 7d 85 bd
       0.06343054 0.034630693 -0.013541176 -0.065181054
000340 cb 6c 6b bd 97 b7 b3 3d 50 b1 37 3d 95 bc e8 bd
       -0.0574768 0.08775251 0.044846833 -0.11364094
000350 bd 75 b2 bc 84 fc 3c 3d 8b 03 56 3d 74 41 ba 3d
       -0.021784658 0.046139255 0.052249473 0.090945154
000360 2d 63 ab 3d f5 a1 00 00 0c 81 65 3c 14 a3 33 3a
       0.08368526 5.8099e-41 0.014007818 0.00068526086
000370 a9 dc 25 3d b1 8f 99 bb 53 87 21 bd 61 7f 9f 3d
       0.04049364 -0.004686319 -0.039435696 0.077879675
000380 00 eb 3f 3d c5 db 8e 3d 54 b3 00 00 02 af 83 3d
       0.046854973 0.069755115 6.4331e-41 0.064298645
000390 46 03 e1 3d 6e b3 42 bd a0 59 82 3d 91 67 a2 bc
       0.109869525 -0.0475344 0.06364751 -0.019824775
0003a0 ea d6 fb bc 3d 19 54 3d 02 5f e8 3d ab 56 56 bd
       -0.030742127 0.05178188 0.11346246 -0.052328747
0003b0 9b ae 00 00 49 bb 55 3d 67 c0 15 bc e5 2b 0c 3e
       6.2637e-41 0.052180562 -0.009140111 0.1368862
0003c0 4a c3 d2 3c 3f 4d 5f bd 05 89 c2 3c 56 bb 00 80
       0.025727887 -0.054517027 0.023746977 -6.7203e-41
0003d0 88 ac 85 bd a0 a5 b7 bc 40 99 a0 bd d4 a4 00 80
       -0.06527048 -0.022417843 -0.0784173 -5.9129e-41
0003e0 3f 7f 91 bc 91 75 6a bd c8 4d b7 bd 4f a6 d3 3d
       -0.017760871 -0.057241026 -0.089503825 0.10334455
0003f0 03 f9 17 3d ae 7a 21 3d 0b 77 b1 bc 1d ee a2 3d
       0.03710271 0.039423637 -0.02166321 0.07955573

bias f4 [128]
000000 25 22 b7 3d e3 d3 34 3c 52 28 0e bd b6 f6 09 bd
       0.089420594 0.011036846 -0.03470642 -0.033682548
000010 bc bc 82 3c b5 5a 5d 3d 0e c6 87 3d ee 98 7d bd
       0.015959136 0.054041583 0.06629573 -0.061913423
000020 1f 6f bc 3c 9f ba 00 80 a4 2a 19 bd 44 2b 5d bd
       0.023002205 -6.6947e-41 -0.03739418 -0.05399634
000030 5d b7 e7 3c 65 33 d8 bb b7 00 3e bd 4c 4e f9 bb
       0.028285677 -0.0065979236 -0.0463874 -0.0076082107
000040 7b d4 52 3d fb 1a e6 3d ac 3a 5b bd 93 8e 2e 3d
       0.05147217 0.11235615 -0.05352275 0.042616438
000050 ae e4 32 bd cd a8 e6 bc 36 db ca 3d 15 6d e5 a0
       -0.043675117 -0.028156662 0.099050924 -3.8866293e-19
000060 7d ba 00 80 fa b2 7b 3c 1b 49 a8 3d 3d cd f8 3d
       -6.69e-41 0.015362496 0.08217069 0.12148521
000070 a6 e7 63 87 62 3b 38 3c 02 91 7f bd 3b 5f 86 3d
       -1.7145657e-34 0.011244627 -0.06239415 0.065611325
000080 e9 10 c3 3d ec 4f 16 3d 12 62 1c 3d 46 9f c1 bb
       0.0952471 0.036697313 0.038179465 -0.0059088795
000090 44 e5 5c 3d a8 9e 3e bd fb 53 44 bd c9 9c 95 bc
       0.053929582 -0.046538025 -0.047931653 -0.018263238
0000a0 f9 35 3e bc 99 5a 20 bd f6 21 6c 3c 2f ac be 3d
       -0.011609548 -0.0391489 0.014412394 0.09310185
0000b0 18 a4 fc 3b 94 4a 57 3c d6 51 cb 3b c5 9a 30 bc
       0.007709991 0.013140339 0.006204824 -0.010779087
0000c0 93 01 b8 bc 3c 03 76 3d cf 92 58 3d 7b 60 b5 3b
       -0.022461688 0.06006168 0.052874383 0.005535183
0000d0 16 4d cb 3d a7 7b a7 3d 16 e8 85 3c b2 88 31 3d
       0.09926812 0.08177882 0.016346019 0.043343253
0000e0 37 fa 45 ba 36 be 00 80 de b4 38 3d 69 1c 9f 3d
       -0.00075522385 -6.8235e-41 0.045094363 0.07769091
0000f0 20 e1 be 3c 62 a5 00 80 0d 3b 75 3c 35 d6 a7 3c
       0.023300707 -5.9328e-41 0.014967692 0.020487884
000100 97 07 0a 3d cc 80 bd bd 54 54 9b 3d 6e 63 80 bc
       0.033698644 -0.09253082 0.07584444 -0.015672412
000110 cb 16 70 bd 8b 5e 0d bc 2d ca 8a bd ca 84 8e 3c
       -0.058615487 -0.008628498 -0.06776843 0.017397303
000120 fc a4 00 80 9e 59 fe 3c 9a 85 9f bd bb d4 23 3d
       -5.9185e-41 0.031048592 -0.07789154 0.039997797
000130 e6 69 7c 3c f2 63 bf 3d df cd bd 3d 46 56 b5 3d
       0.0154061075 0.09345235 0.092677824 0.08854346
000140 99 ef d8 3c d1 40 88 3d 86 fb af bd 18 a6 c1 bc
       0.026481437 0.06652988 -0.08592896 -0.02363877
000150 07 92 98 ba 76 eb 94 37 fc 94 70 3d c0 41 50 3c
       -0.0011640199 1.775262e-05 0.058735833 0.0127109885
000160 24 8b 1e bd 01 03 34 bd a9 97 21 b9 77 19 89 3c
       -0.038706914 -0.043948177 -0.00015410654 0.016735775
000170 3b dd 4e 3d 17 9f 00 00 ae b3 7f 3d 79 36 f1 3c
       0.05050395 5.707e-41 0.062427215 0.02944492
000180 15 1f 5d 3c 34 b3 7c ba 75 65 d5 3c 09 51 6c 3b
       0.01349618 -0.00096397405 0.026049355 0.0036059043
000190 4d f9 95 3a b4 86 51 a3 20 b7 83 bc 58 74 6e 3d
       0.0011442095 -1.1358437e-17 -0.016078532 0.058216423
0001a0 ed 4d fd bd 33 ec 84 3c e0 4b d1 3a 06 2c 52 3d
       -0.12368379 0.01622591 0.0015968047 0.051311515
0001b0 5f 60 6c bd 5b 03 b7 3c 6e 22 96 bc 28 a8 00 80
       -0.057709094 0.022340467 -0.018326964 -6.0323e-41
0001c0 2e 98 f2 3d 2d 16 ed 3d ed 8c 2f b7 a0 b4 00 00
       0.11845432 0.11576495 -1.0463625e-05 6.4796e-41
0001d0 aa 5b 06 3d c0 58 c5 bd af 4a 41 3d d5 09 fb bc
       0.03280226 -0.09636068 0.047190364 -0.030644337
0001e0 bd a2 e0 3d bb c1 b6 bc f9 d5 12 3d 9b c7 17 bd
       0.1096854 -0.022309175 0.03584859 -0.037055593
0001f0 22 eb 32 ba c3 1f 82 3d 51 c9 4a bd 0b 8e d5 3c
       -0.00068251987 0.06353714 -0.049508397 0.026068708

weight f4 [4, 128]
000000 ca 76 9a bb 62 0f 8f 3d cc 54 aa bd 32 d8 42 bd
       -0.004713868 0.06985356 -0.08316955 -0.04756946
000010 bd 5a 32 3d 47 5e 2a 3d 5f 12 f9 3c 67 1f eb bd
       0.043543566 0.041593816 0.030404268 -0.11480599
000020 9f 0a 66 bc 30 a8 00 00 dd da 96 bd 06 e3 ac 3d
       -0.014040618 6.0334e-41 -0.073659636 0.08441739
000030 b7 13 f6 bc cb 3e d1 3d 12 bc 7a 3d 7d 94 dd bd
       -0.030038698 0.10217055 0.061214514 -0.108193375
000040 e5 22 6f bb 89 ce a5 3d 00 cf 15 3d f4 23 51 3d
       -0.0036489305 0.08096034 0.036574364 0.05105968
000050 cd 77 2a 3d 55 17 99 3d b6 79 0c 3d d7 0a d9 39
       0.041618157 0.07475153 0.03429576 0.00041397542
000060 11 ae 00 80 12 5f c3 3d 31 76 a7 3d f3 77 31 3d
       -6.2443e-41 0.095396176 0.0817684 0.043327283
000070 fb 9e 00 00 fc 86 d5 3d 82 e6 c4 bd 18 87 ce 3d
       5.7031e-41 0.10426137 -0.096142784 0.10084361
000080 26 b3 85 3d 78 22 fc bd 8b 06 42 bd e4 48 66 3c
       0.065283105 -0.12311262 -0.04736952 0.014055464
000090 1c 76 9b bc 52 44 ae 3d fa 56 d1 3d 6e d6 9c bc
       -0.018977217 0.08509125 0.102216676 -0.019145217
0000a0 92 ee 3b bc f6 ee ab bd 74 fb 8b 3d d1 56 06 3d
       -0.011470454 -0.083951876 0.0683507 0.03279764
0000b0 e6 25 ab bd 22 31 4c 39 fb e3 65 bd ca 5d 21 bd
       -0.08356838 0.0001947326 -0.056125622 -0.039396085
0000c0 5b c7 41 bd ee 3f d3 bd db 44 6d bc 39 8f a1 3c
       -0.04730926 -0.10314928 -0.014481748 0.019721614
0000d0 e7 a7 38 3c 9f 44 da 3d 2d 5f 4d 3d a2 af 88 3d
       0.0112705 0.1065762 0.050139595 0.06674124
0000e0 88 71 88 36 cc a1 00 00 60 9c e2 bd 14 e9 26 bd
       4.0663326e-06 5.8042e-41 -0.110649824 -0.040749624
0000f0 59 52 3c bd a9 b0 00 00 b3 e1 cb bd 9b 32 a8 3d
       -0.04597697 6.3374e-41 -0.09955158 0.08212777
000100 f6 ae a0 3d 9d b2 89 bd fc 17 eb 3d 77 cb 2e bd
       0.07845871 -0.06723521 0.11479184 -0.042674508
000110 46 f5 37 3d d7 76 90 3d 1e c9 a1 bd c7 3b 4e 3d
       0.044911645 0.07053917 -0.07899688 0.050349977
000120 23 c0 00 80 ee 2f a1 3d af d9 f7 bd fd a4 aa 3d
       -6.8926e-41 0.0787047 -0.12102067 0.0833225
000130 58 93 c8 3b a5 7d d2 3c 2f 4a c3 3d a9 5d c1 3b
       0.0061210804 0.025694678 0.09535634 0.0059010577
000140 aa f6 f6 bd 86 57 cd 3c 98 76 d3 bd 07 2a 01 bc
       -0.12058766 0.025066148 -0.10325354 -0.007883555
000150 1a 44 80 3d 6f f5 c3 37 5b d1 2d bd 5e 79 60 3d
       0.06262989 2.33601e-05 -0.042435985 0.054803245
000160 a1 30 a3 3d 8e 81 c5 bd 53 7b 08 39 2e ba d3 ba
       0.079682596 -0.09643851 0.00013015913 -0.0016153508
000170 2a d2 a6 3d 7d bd 00 80 bd 66 c0 3d de f2 43 3d
       0.08145554 -6.7976e-41 0.09394596 0.047839038
000180 81 6a ed ba f6 6b d3 bc 1f 5b 10 be d1 53 b8 3d
       -0.0018113406 -0.025808316 -0.1409726 0.09000362
000190 48 f7 ba 3d 35 a6 00 80 59 cd aa 3d 07 34 af 3d
       0.091291964 -5.9624e-41 0.08339948 0.08554845
0001a0 ef e1 b0 bd 84 f7 cf bd 38 2a 97 3d ee 92 75 3d
       -0.086368434 -0.10154632 0.073810995 0.059954576
0001b0 d9 f4 3b 3d 1c ba a2 bc 75 17 c0 3d 5c b6 00 00
       0.0458878 -0.019864134 0.09379474 6.5418e-41
0001c0 7d 70 69 3d 71 58 5e 3d 4f d2 e2 b6 9a ab 00 00
       0.056992043 0.054283563 -6.759808e-06 6.1559e-41
0001d0 ef b0 6d 3d 0f ea a4 bd f9 f5 11 bd 72 df a1 bd
       0.058030065 -0.08052456 -0.03563497 -0.07903947
0001e0 d2 02 0b bc 8a 4a 5a 3d 96 55 7b 3d 3c bc 59 3d
       -0.008484559 0.053293742 0.061360918 0.05315803
0001f0 3e d0 49 bd 35 4f 92 bd ec fd 76 bd 9b c7 77 3d
       -0.04927086 -0.07144014 -0.060300753 0.060493093
000200 ba 26 05 bc 5f 90 c5 3b cd c0 b3 ba 24 9f 00 80
       -0.008126909 0.0060291733 -0.0013714075 -5.7089e-41
000210 99 bc 52 bc e5 c9 c1 ba 78 7a c9 ba 85 c3 9a ba
       -0.012862348 -0.0014784901 -0.0015371582 -0.0011807537
000220 42 83 3d bc 2c a5 00 00 6e c2 00 80 a9 7e d0 ba
       -0.011566939 5.9253e-41 -6.9748e-41 -0.0015906888
000230 11 a6 00 80 bc fa 85 bb 77 54 bf ba 3c 60 31 3c
       -5.9573e-41 -0.0040887278 -0.0014597316 0.010826167
000240 e4 e3 af ba 86 4b a0 bb 8f dd 2f 3c e4 8e 66 bb
       -0.0013419357 -0.0048918156 0.010733976 -0.0035180384
000250 0b 31 38 3c 38 79 cf 3b 06 24 b1 bb de ac 00 80
       0.0112421615 0.006331589 -0.0054059057 -6.2013e-41
000260 30 a1 00 00 05 e0 9b 3b 46 36 f8 ba 9b 92 86 ba
       5.7823e-41 0.00475693 -0.0018937073 -0.001026708
000270 9b b6 00 80 0d 63 be ba 83 a0 00 00 42 3f 73 8e
       -6.5506e-41 -0.0014525369 5.7581e-41 -2.998252e-30
000280 ad e8 ed 88 64 b6 00 80 51 a3 00 00 f0 fd b6 ba
       -1.43186205e-33 -6.543e-41 5.8587e-41 -0.0013961177
000290 7b cf 88 ba 51 a7 d9 ba de 6a c3 ba 08 5b 81 ba
       -0.001043781 -0.001660565 -0.0014909168 -0.0009869048
0002a0 07 68 82 ba b4 ba 00 00 b9 25 87 bb 1a 39 d8 ba
       -0.0009949215 6.6976e-41 -0.00412437 -0.001649651
0002b0 8c e9 1c 3c 01 a1 00 80 95 be 7b ba 55 8c a4 b8
       0.009577166 -5.7757e-41 -0.0009603289 -7.846268e-05
0002c0 ff 7b 7b ba 69 aa 00 00 e8 71 cd ba 12 f2 c7 ba
       -0.0009593367 6.1132e-41 -0.0015674205 -0.0015254638
0002d0 16 af d4 ba a6 21 d1 ba 82 d7 92 bb e4 e9 a0 9a
       -0.0016226496 -0.0015955463 -0.004481257 -6.655232e-23
0002e0 fe 9d 00 80 00 c2 00 00 9f e4 00 ba 52 b7 00 00
       -5.6677e-41 6.9594e-41 -0.00049168797 6.5763e-41
0002f0 52 a5 00 80 78 a5 00 00 cd b0 9f ba 6f 03 86 94
       -5.9306e-41 5.9359e-41 -0.0012183428 -1.3531897e-26
000300 df f6 b7 ba 7d 63 9d bb 75 22 0a bc b8 68 8b ba
       -0.0014035365 -0.0048031197 -0.008431067 -0.0010636067
000310 69 5c 68 bb 6b 07 c3 ba e5 b3 82 ba d3 46 c7 ba
       -0.0035455471 -0.001487953 -0.0009971826 -0.0015203602
000320 ac ab 00 00 72 08 c0 ba 52 e1 58 bb 37 f4 3f bb
       6.1584e-41 -0.0014650954 -0.0033093286 -0.002928985
000330 ae c2 00 00 01 e9 de ba d6 79 ab 3b e1 4e b0 bc
       6.9838e-41 -0.0017006696 0.00523303 -0.021521987
000340 33 a0 00 00 b2 eb 0b ba 90 6f c4 bb 2c c0 00 80
       5.7469e-41 -0.00053375505 -0.0059947446 -6.8938e-41
000350 5f ee 00 bc 9c 9e 00 80 fb a2 00 80 5e 4a 2a bc
       -0.007869332 -5.6898e-41 -5.8466e-41 -0.010393707
000360 c4 77 c7 ba b6 b6 00 80 f3 bf 00 00 e6 c8 96 3c
       -0.0015218188 -6.5544e-41 6.8858e-41 0.018406343
000370 34 6f e1 ba ff 9c 00 00 ab 16 19 3a e3 1a c2 ba
       -0.0017199279 5.632e-41 0.00058398646 -0.0014809038
000380 89 b0 00 80 47 ae 00 00 ea bc 00 00 0d 98 f0 3b
       -6.3329e-41 6.2519e-41 6.777e-41 0.0073423446
000390 f2 2f c2 ba c8 ad 00 00 e2 69 33 3c 65 b5 57 bc
       -0.0014815314 6.2341e-41 0.010950537 -0.013165806
0003a0 72 39 ae ba 83 a0 00 80 a4 9c 6c 3c 2a 33 06 bb
       -0.0013292267 -5.7581e-41 0.014441643 -0.0020477274
0003b0 38 e7 c3 ba de a8 00 80 32 d9 0a bc f7 ae 00 80
       -0.0014946228 -6.0578e-41 -0.008474635 -6.2766e-41
0003c0 86 85 db 9f 4d 3c 8a 17 88 be 00 00 f9 a5 00 80
       -9.2971004e-20 8.933263e-25 6.835e-41 -5.954e-41
0003d0 f3 6b d9 ba 98 95 7f ba 99 9e 00 80 60 31 45 bb
       -0.0016587958 -0.0009749769 -5.6894e-41 -0.0030089244
0003e0 6d f4 e8 ba 66 25 1b ba b2 a2 c9 ba 52 01 5e bb
       -0.001777304 -0.00059183536 -0.001538357 -0.0033875299
0003f0 35 ff e7 b9 60 12 7c ba 63 1c bf ba 49 ab c4 ba
       -0.00044249897 -0.0009615775 -0.0014580603 -0.001500466

bias f4 [4]
000000 80 25 2f 3d e1 31 b9 bb b8 97 e0 bc d1 b8 3c bd
       0.042760372 -0.005651698 -0.027416095 -0.046074692
