c220g2_bips.pt (torch, 84054 bytes, 6 tensors)

weight f4 [128, 5]
0	0xbbcec7c2	-0.006310434
1	0x3dbee844	0.09321645
2	0x3dc009e1	0.09376884
3	0xbd771bfb	-0.06032942
4	0xbbb81e54	-0.00561885
5	0x3e15f37a	0.1464366
6	0x3e96eb44	0.29476368
7	0xbe6a7f35	-0.22900088
8	0xbd7e8e16	-0.062147222
9	0xbec2ae61	-0.38023666
10	0x3d7412ed	0.05958836
11	0xbe4b4c40	-0.19853306
12	0x3e664460	0.2248702
13	0x3daa86b3	0.08326473
14	0x3e999625	0.29997364
15	0x3e0d7fe6	0.1381832
16	0xbecd65db	-0.40116772
17	0x3eccc34e	0.39992756
18	0x3e75e23a	0.2401208
19	0x3e874da0	0.2642641
20	0xbe131501	-0.14363481
21	0xbc83f0ae	-0.016105976
22	0xbddbef00	-0.10738945
23	0xbd11cfdb	-0.035598617
24	0x3cad652b	0.021166405
25	0xbe939161	-0.28821853
26	0xbd8149ad	-0.06312881
27	0x0000a00b	5.7413e-41
28	0x0000ac3f	6.179e-41
29	0xa1bc5bed	-1.2763708e-18
30	0x3cf7aa18	0.030232474
31	0xbe4c18a9	-0.19931282
32	0x3e627afd	0.22117229
33	0x3cb0a201	0.021561624
34	0x3e2f95b7	0.17146955
35	0x3eb02545	0.34403434
36	0xbec115f2	-0.37712055
37	0xbe86b1af	-0.26307437
38	0x3e947755	0.28997293
39	0x3d6e842f	0.05823153
40	0xbdd4a50c	-0.10383043
41	0xbea9eb75	-0.33187452
42	0xbe57cd83	-0.2107449
43	0xbe501ef0	-0.20324302
44	0x3ec874d3	0.3915163
45	0x3ed62773	0.41826972
46	0x3e833ad5	0.25630823
47	0xbe98e69f	-0.2986345
48	0x3e6557b6	0.2239674
49	0xbd661cc0	-0.056179762
50	0xbe2d3fc3	-0.16918854
51	0x3ecb3cd2	0.3969484
52	0xbd4e6762	-0.050391562
53	0x3d871140	0.06595087
54	0x3eb432dc	0.35195053
55	0x3ee404a8	0.44534802
56	0xbebe0ca9	-0.37119034
57	0x3ee3d0bd	0.44495192
58	0x3debcc58	0.11513585
59	0x3ecb8ad4	0.39754355
60	0xbe38c529	-0.1804396
61	0xbe7e8ea3	-0.24859099
62	0x3e969aef	0.2941508
63	0x3e549a4f	0.20761989
64	0x3e289a85	0.16465195
65	0x3ec9c8a7	0.39410898
66	0xbed8f343	-0.42373094
67	0x3e4f5149	0.20245852
68	0xbc3a1d8d	-0.0113595845
69	0x3d55954f	0.052144345
70	0xbe4d2574	-0.20033818
71	0x3e138296	0.14405283
72	0x33d1b81a	9.765809e-08
73	0xbd8d4613	-0.06898131
74	0xb188535d	-3.9675982e-09
75	0x3de9a436	0.11408274
76	0x3ea2270c	0.31670415
77	0xbde7f2c1	-0.113255985
78	0x3e35b7f9	0.17745961
79	0xbebdcbbf	-0.37069508
80	0xbd9cb1be	-0.07651089
81	0x3e33f644	0.17574412
82	0x3e6852eb	0.2268788
83	0x3e924984	0.28571713
84	0xbe952f25	-0.2913753
85	0x3e2e6677	0.17031275
86	0xbece6a22	-0.40315348
87	0xbd713772	-0.058890767
88	0xbeb98631	-0.36235192
89	0x3ed4ed3d	0.41587248
90	0x3e810794	0.25201094
91	0x3e14264d	0.14467736
92	0x3cb4e00b	0.022079488
93	0xbeecbd43	-0.46238145
94	0x3edb25f2	0.42802387
95	0x3ea51062	0.32239062
96	0x3e9c70fb	0.30554947
97	0x3dff3ed8	0.12463158
98	0xbe1b9bc6	-0.15196142
99	0x3e82b833	0.25531158
100	0x3df0b58a	0.11753376
101	0x3ed8aad2	0.42317826
102	0x3c8007a3	0.015628641
103	0x3e3be767	0.18349992
104	0x3e258132	0.16162565
105	0x3eb90281	0.36134723
106	0x3e83ce2a	0.25743228
107	0x3c5d2552	0.013497667
108	0x3e041dfb	0.12902062
109	0xbeb56a4e	-0.35432667
110	0x3eabd199	0.33558348
111	0xbedade66	-0.42747802
112	0xbe11ba20	-0.14231157
113	0xbf077201	-0.5290833
114	0x3edeeb7d	0.43539038
115	0x3e944e15	0.28965822
116	0xbe90c0c6	-0.28272074
117	0x3eb70b62	0.35750872
118	0x3e2649bd	0.16239066
119	0x3e3f14df	0.18660305
120	0xbe5930f5	-0.21210082
121	0x3e85c37e	0.2612571
122	0xbdf8634d	-0.12128315
123	0x3e1007a8	0.1406542
124	0x3845dcaa	4.717397e-05
125	0xbdd63dc2	-0.10460998
126	0x3ec69f82	0.3879357
127	0x3cf0fce7	0.029417468
128	0xbb8842d4	-0.004158357
129	0x3ebf4ec7	0.3736479
130	0xbe0ad290	-0.13556886
131	0xbdc1d314	-0.09464088
132	0xbd223b79	-0.0396075
133	0xbda2e3a6	-0.07953577
134	0xbe3fe5e1	-0.18740036
135	0xbd13bc87	-0.036068466
136	0x3dfb9f23	0.12286212
137	0x3e1d7872	0.15377977
138	0xbd5c05fb	-0.05371664
139	0x3e50cb59	0.20390071
140	0xbed784b2	-0.42093426
141	0x3e9c1ab3	0.3048912
142	0xbe93afdb	-0.28845105
143	0xbed663d0	-0.41873026
144	0x3ec1a43a	0.37820607
145	0x3e61c0c3	0.22046189
146	0x3e54293e	0.20718858
147	0xbeab5a2a	-0.33467227
148	0x3e42f032	0.1903694
149	0x3ec939f2	0.3930202
150	0xbe95aa64	-0.2923156
151	0x38f1365c	0.00011501901
152	0xbd813580	-0.063090324
153	0xbd739d2b	-0.05947606
154	0xbe83e891	-0.25763372
155	0xbe5b027d	-0.21387668
156	0x3d87864f	0.06617414
157	0x3cd99b1a	0.026563216
158	0x3ea07237	0.3133714
159	0xbe45a22b	-0.19300143
160	0xbea8d25e	-0.32972997
161	0xbed63189	-0.41834667
162	0xbe1186a0	-0.14211512
163	0x3e0b4f2a	0.13604417
164	0x3e273cfb	0.16331856
165	0xbeba34e0	-0.36368465
166	0x3e8a2977	0.2698476
167	0x3b17d05f	0.002316497
168	0x3cea6575	0.028612832
169	0x3ce4d3bd	0.027932996
170	0x3db39a19	0.08769626
171	0x3ebb966c	0.366382
172	0x3d95dbfe	0.07317351
173	0xbe51462d	-0.20436926
174	0x3ed1b47d	0.40958014
175	0x3c9a9255	0.018868605
176	0x3eced721	0.40398505
177	0x3e44269b	0.19155352
178	0xbd873b23	-0.06603076
179	0xbd7f7a54	-0.06237252
180	0xbe97a0c9	-0.29614857
181	0x3eba8ac1	0.36433986
182	0xbe2423a3	-0.1602922
183	0xbeef4802	-0.46734625
184	0x3ea395fe	0.31950372
185	0x261f3eb4	5.5249185e-16
186	0x2a357e47	1.611984e-13
187	0x3c36b75f	0.0111521175
188	0xbd2519cc	-0.040307805
189	0xbdc9307b	-0.098237
190	0x3e543a75	0.20725425
191	0xbe93821f	-0.28810212
192	0x3eda614e	0.42652363
193	0x3e9feef6	0.31237
194	0x3e322617	0.17397343
195	0xbe3a221c	-0.18177074
196	0x3e307ce4	0.17235142
197	0x3e92a20f	0.28639266
198	0x3dfd5f5a	0.123717025
199	0x3ebd361d	0.36955348
200	0x3e9ca7e7	0.3059685
201	0xbdd78766	-0.10523872
202	0x3e67d2df	0.22639035
203	0x3d359edb	0.04434095
204	0x3e0ae1df	0.13562725
205	0xbea5fb23	-0.32418165
206	0xbece8f55	-0.4034373
207	0x3e01690b	0.12637727
208	0xbe79a79c	-0.24380344
209	0x3ebce93a	0.36896688
210	0x3ee4f282	0.4471627
211	0xbea4d25f	-0.3219175
212	0x3d7cd661	0.061727885
213	0xbdc53d6c	-0.09630856
214	0xbec5ca3f	-0.38630864
215	0x3ee021f4	0.43775904
216	0x3e2bea17	0.16788517
217	0x3e258709	0.16164793
218	0xbef8772d	-0.48528424
219	0xbe980bf6	-0.29696625
220	0xbe9c8907	-0.30573294
221	0xbe3045b4	-0.1721409
222	0xbe38a5a9	-0.18031944
223	0xbe475f41	-0.1946993
224	0xbe73e1b6	-0.2381657
225	0xbea84beb	-0.3287042
226	0xbe799554	-0.2437337
227	0x3df6d34b	0.1205202
228	0x3b3860b9	0.0028133823
229	0xbdc8d9ed	-0.09807191
230	0x8e85a35c	-3.294434e-30
231	0xbdfb512a	-0.1227134
232	0x3e0b9da4	0.13634354
233	0x3a943e38	0.0011310047
234	0xbe4a734d	-0.19770546
235	0xbec5d8d3	-0.38641986
236	0x3ea9e455	0.33182016
237	0x3dc89a9a	0.09795113
238	0xbcaa0299	-0.020753192
239	0x3e6e0528	0.23244154
240	0xaa503961	-1.8494018e-13
241	0x1c9e1f51	1.0463658e-21
242	0x3d931b03	0.071828865
243	0xbe870f02	-0.26378638
244	0xbe674678	-0.22585475
245	0x3eb088f9	0.34479502
246	0x3e0a68e0	0.13516569
247	0x3d9ad3ab	0.07559904
248	0x3dba5e51	0.09100021
249	0x3ed6804f	0.41894767
250	0x3e8de6a3	0.27715024
251	0x3ed92a2f	0.42414996
252	0xbe9eeb34	-0.3103882
253	0xbe7dfab3	-0.24802665
254	0xbd804c4b	-0.06264552
255	0x3ed97016	0.42468327

bias f4 [128]
0	0xbbfeb779	-0.0077733365
1	0xbc4cb9e9	-0.012495496
2	0x3d1fd1b3	0.039018344
3	0x3cfd8e53	0.030951655
4	0x3e3bc62f	0.1833732
5	0xbe332d22	-0.17497686
6	0xbd38e576	-0.045140706
7	0x3ee4ae69	0.44664314
8	0xbe7c7b15	-0.24656327
9	0xbe705311	-0.23469187
10	0xbb414ec9	-0.0029496423
11	0xbe2b49de	-0.16727397
12	0x3ee7bc2f	0.4526076
13	0xbe495659	-0.19661845
14	0x1986f81a	1.3955483e-23
15	0x3e99d01c	0.30041587
16	0xb8389640	-4.400895e-05
17	0x3d4ddf96	0.050262056
18	0xbd9ad4d6	-0.075601265
19	0x3dff9f4d	0.12481556
20	0xbee26e51	-0.4422479
21	0x3e3d6c45	0.18498333
22	0x3e9fe5af	0.31229922
23	0xbd487895	-0.04894312
24	0x39baa674	0.00035600702
25	0x3d59c948	0.053170472
26	0xbe2176c2	-0.15767959
27	0x3eb6fe38	0.3574083
28	0x3eef1099	0.4669235
29	0xbe595219	-0.21222724
30	0xbe29efd0	-0.16595387
31	0x3ec3b4d2	0.38223892
32	0xbd818f85	-0.06326202
33	0x3ed5ae78	0.41734672
34	0xbe3a9648	-0.1822139
35	0x3dd5e270	0.1044358
36	0x3ed0238b	0.40652117
37	0xbd2d0e0e	-0.04224973
38	0xbe861fdc	-0.26196182
39	0x3dc2a160	0.09503436
40	0x3e065b7e	0.13120839
41	0xbec22332	-0.37917477
42	0x3ee6bade	0.45064443
43	0x3e460836	0.1933907
44	0x3df0ad4e	0.11751805
45	0x3e01206b	0.12610023
46	0xbda346bf	-0.07972478
47	0xbeb6b56b	-0.35685286
48	0xbdf95e69	-0.121762104
49	0x3dab024e	0.08350049
50	0x3dc925af	0.09821641
51	0x3eb2b999	0.34907225
52	0x3de9e3eb	0.11420425
53	0x3e065acf	0.13120578
54	0xbe9e292a	-0.3089078
55	0xbe52de08	-0.2059251
56	0xbd5a4034	-0.053283885
57	0x3e8b375f	0.27190682
58	0xbe157dd8	-0.14598787
59	0x3ee4c414	0.44680846
60	0x3ed06d8b	0.40708575
61	0x3e41a040	0.18908787
62	0xbd966659	-0.0734374
63	0xbe84bea4	-0.25926697
64	0x3e34fb4a	0.17673984
65	0xbeb2a253	-0.3488947
66	0x3ea9cb64	0.33162987
67	0x3e984878	0.2974279
68	0xbe5fb22a	-0.21845308
69	0x3ea853a0	0.328763
70	0xbd80d44c	-0.062904924
71	0x3d8868ac	0.066605896
72	0x3bb31f66	0.0054663895
73	0xa861db60	-1.2537578e-14
74	0x3ec12c96	0.3772933
75	0x3eab26ca	0.3342803
76	0x3d9561de	0.07294057
77	0xbeaee3d2	-0.34158188
78	0x3db6bcda	0.08922739
79	0xbe8a12df	-0.26967523
80	0x3e3c7efb	0.18407814
81	0xbd30dbfb	-0.04317854
82	0x3e5644f6	0.20924744
83	0xbe45d160	-0.19318151
84	0xbc5028fd	-0.012705085
85	0xbe664d3e	-0.22490403
86	0xbd5561a1	-0.05209506
87	0xbd5fbc35	-0.054622848
88	0x3ecc0e52	0.39854676
89	0x3eb472fa	0.3524397
90	0x3e1ecd72	0.15508059
91	0xbebd02f1	-0.36916307
92	0x3e969036	0.294069
93	0x3d46abf2	0.048503824
94	0x3edd9761	0.43279555
95	0x3dd7f55e	0.10544847
96	0x3e334ee4	0.17510563
97	0x391ff020	0.00015252875
98	0xbd1263cf	-0.035739716
99	0x3ce541ec	0.027985536
100	0x3d967af2	0.07347669
101	0xbc651481	-0.013981939
102	0xb7b6be4e	-2.1784708e-05
103	0xbecbf264	-0.39833367
104	0x3e359d0c	0.1773569
105	0x3eff91c1	0.4991589
106	0xbea993c2	-0.33120543
107	0x3d6644ad	0.056217838
108	0x3e0ec222	0.13941243
109	0x3de3d8ad	0.11125312
110	0x3db00c28	0.085960686
111	0x3ec943d5	0.39309564
112	0x3e3cad4a	0.1842548
113	0xbe055c51	-0.13023497
114	0x3e96f311	0.2948232
115	0xbe818c70	-0.25302458
116	0xbe7d0155	-0.2470754
117	0xbdffaa2b	-0.12483629
118	0xbdbf6b14	-0.093465954
119	0x3e14b17b	0.14520828
120	0xbe1071e7	-0.1410595
121	0x3ec323e2	0.38113314
122	0xbc25170e	-0.010076297
123	0x3e85c80c	0.26129186
124	0xbe00d900	-0.12582779
125	0xbd087d7f	-0.033322807
126	0x3dd1c204	0.10242084
127	0xbe45833c	-0.19288343

weight f4 [128, 128]
0	0xbd94117b	-0.07229897
1	0x3c87891e	0.016544875
2	0xbd9a2a62	-0.07527615
3	0xbc5ff9bc	-0.013670381
4	0x3cb238b4	0.021755554
5	0xae341906	-4.0949487e-11
6	0xbd17c257	-0.03705057
7	0xbc1ba3e1	-0.009499521
8	0x3cafadca	0.021445174
9	0xbddf8a0e	-0.10915004
10	0xbd03c9ed	-0.032174993
11	0xbd084588	-0.033269435
12	0x3c13bffd	0.009017942
13	0xbddd7722	-0.108137384
14	0xab37fcea	-6.536565e-13
15	0x3dc58106	0.0964375
16	0xb7186e13	-9.085535e-06
17	0x3cdd0696	0.02698068
18	0xbc03622c	-0.0080190115
19	0xbd2150fd	-0.039383877
20	0xbd550155	-0.052003223
21	0x3d6bf3ca	0.057605542
22	0x3c66e38a	0.0140923355
23	0x3af90c42	0.0019000845
24	0xb96545cd	-0.00021865145
25	0x3da77f81	0.08178616
26	0x8000bcf4	-6.7784e-41
27	0xbbba695d	-0.00568883
28	0xbc1cb550	-0.009564713
29	0xbd81e488	-0.06342417
30	0x0000a919	6.0661e-41
31	0xbadd534b	-0.0016885785
32	0x3dc51d91	0.0962478
33	0xbc98369f	-0.018580733
34	0xbd94cbfe	-0.07265471
35	0xbca574ed	-0.020197356
36	0x3dcd1433	0.10013618
37	0x97c44e02	-1.2685895e-24
38	0xbe075a35	-0.13218005
39	0x3d9fcff9	0.078033395
40	0x3c835964	0.016033836
41	0x3a9b1516	0.0011831846
42	0x3db51e38	0.088436544
43	0xbd5e6788	-0.054297954
44	0x3d16d6cf	0.03682595
45	0x3cd50c38	0.026006803
46	0x0000ad38	6.2139e-41
47	0xbcd698d9	-0.02619593
48	0x8000a8fc	-6.062e-41
49	0x3da0646d	0.07831655
50	0x3d149974	0.036279157
51	0x3da4ece5	0.080529965
52	0x3db57556	0.08860271
53	0xbaab26df	-0.0013057849
54	0x3cb1b4d1	0.021692665
55	0x0000ab51	6.1457e-41
56	0x3af3ae35	0.0018591346
57	0x3c29e316	0.010369083
58	0x0000b228	6.391e-41
59	0xbcd698a0	-0.026195824
60	0xbd293da7	-0.041318562
61	0x3cbda662	0.023150627
62	0xbdbc7fc6	-0.09204058
63	0x3115f563	2.182184e-09
64	0x3cfede15	0.031111756
65	0x3ca9b63e	0.020716783
66	0x3de4a922	0.11165072
67	0xbd861110	-0.06546223
68	0x3d0162b3	0.031588268
69	0x3cce5085	0.02518488
70	0xbcd91828	-0.026500776
71	0xbd070fe6	-0.032974146
72	0x3d262a77	0.04056784
73	0x8000a47d	-5.9007e-41
74	0xbd0468bf	-0.032326456
75	0xbad09fef	-0.0015916805
76	0x3cb4452f	0.022005646
77	0xbe10ca15	-0.14139588
78	0x3d9d1735	0.07670442
79	0xbc8296fe	-0.01594114
80	0x3cbbec59	0.022939848
81	0x3d889593	0.06669154
82	0x3d0c819e	0.0343033
83	0xbde90a47	-0.113789134
84	0xb6b800d2	-5.483723e-06
85	0xbe2d7bf3	-0.16941814
86	0x3c93766e	0.018000808
87	0xbd4ca823	-0.049965035
88	0x3ddf1add	0.10893796
89	0x3a2d3cd3	0.000660849
90	0x3d9aabdf	0.07552313
91	0xbe4894cb	-0.1958801
92	0x3e014562	0.12624124
93	0x3cc631fd	0.024193758
94	0xbdaf14ae	-0.08548866
95	0xbd1c223a	-0.03811858
96	0xbc4aeb9e	-0.012385277
97	0xb7997da5	-1.829753e-05
98	0xbd651853	-0.0559314
99	0x3d803ba9	0.06261379
100	0xbd6a0649	-0.0571349
101	0x8c019fc7	-9.98588e-32
102	0x1dc52c58	5.2191316e-21
103	0xbd712350	-0.058871567
104	0xbbccccba	-0.0062499912
105	0x3d888294	0.06665531
106	0xbd743e21	-0.059629563
107	0xbd38e9a6	-0.0451447
108	0xbd37bceb	-0.0448579
109	0xbd8d2d4e	-0.06893407
110	0x3d15b807	0.036552455
111	0x3bc9916d	0.0061513693
112	0x3d2ca5aa	0.042150177
113	0xbbf6e6dc	-0.007534845
114	0x3c9ce14b	0.019150397
115	0x1b36ea03	1.51303e-22
116	0x85116244	-6.835916e-36
117	0xbd468825	-0.04846968
118	0xaca1a0bc	-4.5937403e-12
119	0x3dd159ff	0.102222435
120	0xbd8fcce7	-0.07021504
121	0xbc9cdf86	-0.019149553
122	0x3a964449	0.0011464442
123	0x3b55f37b	0.0032646346
124	0xbd509c7e	-0.050930493
125	0xbbeb4040	-0.00717929
126	0xbd11bced	-0.035580564
127	0xbda7028b	-0.08154782
128	0x3d6950a0	0.056961656
129	0xbe00808c	-0.12549037
130	0xbd5d9f7e	-0.05410718
131	0x3b25b74e	0.002528626
132	0xbdc07616	-0.09397523
133	0x9ddc411f	-5.830085e-21
134	0x3db11139	0.08645863
135	0x3d1a5df8	0.03768727
136	0xba095e75	-0.00052402104
137	0xbd980274	-0.07422343
138	0x3d22a54c	0.03970842
139	0xbd51ac0f	-0.05118948
140	0xbc2f47de	-0.010698287
141	0xbbcda318	-0.006275546
142	0x1cf18069	1.5981235e-21
143	0x3ca78749	0.020450251
144	0x36889891	4.070877e-06
145	0x3cb08b2d	0.02155074
146	0xbcea9bbb	-0.028638711
147	0xbbc43319	-0.0059875366
148	0x3d95429a	0.07288094
149	0x3d06997b	0.032861214
150	0xbd56d47b	-0.05244873
151	0x3db2b5ba	0.08726068
152	0x3905adc9	0.00012748608
153	0xbcfbf4ac	-0.030756317
154	0x14716d1b	1.2188908e-26
155	0xbd2d2f37	-0.042281356
156	0x3d9f7aba	0.0778708
157	0x3db4ca30	0.08827627
158	0x983a3075	-2.4064401e-24
159	0xbd5ef7ca	-0.05443553
160	0xbba240c1	-0.004951567
161	0x3d1efc51	0.038814846
162	0x3d320a21	0.04346669
163	0xbb91e65f	-0.004452511
164	0xbd4d609d	-0.050140966
165	0x0000aadb	6.1291e-41
166	0xbd7cef6f	-0.06175178
167	0x3d45d923	0.04830278
168	0x3dd122ad	0.10211692
169	0xbd54fd54	-0.051999405
170	0x3d460d4f	0.048352536
171	0xbd3d6e4d	-0.04624777
172	0xbcbe1484	-0.023203142
173	0xbd775e4e	-0.06039267
174	0x06e3299f	8.5449066e-35
175	0xbd99f88f	-0.07518112
176	0x0000aa2c	6.1046e-41
177	0x3c606bab	0.013697545
178	0xbcf4ca33	-0.029881572
179	0x3cc39b7b	0.02387785
180	0xbc7d28e7	-0.015451646
181	0x3dadde8a	0.084897116
182	0x3bd66e0b	0.00654388
183	0x31d3441f	6.1486527e-09
184	0xbbd2713c	-0.00642219
185	0xbd359272	-0.044329114
186	0x0000af0c	6.2795e-41
187	0xbc369541	-0.011143983
188	0x3d67a9c7	0.056558397
189	0xbd049166	-0.032365225
190	0x3d852112	0.06500448
191	0x0000aa30	6.1052e-41
192	0xbd0c5dcb	-0.034269135
193	0xbdfe9621	-0.124309786
194	0x3de6c115	0.11267296
195	0x3d1cb0d9	0.038254593
196	0x3cb17af9	0.021665083
197	0xbc0bb6f8	-0.00852751
198	0xbd49d21d	-0.049272645
199	0x3d4eaf13	0.050459933
200	0x3e057b46	0.13035306
201	0x336f60b6	5.5734482e-08
202	0x3daabd3b	0.08336874
203	0x3dd4d742	0.1039262
204	0x3cded7f6	0.027202588
205	0x3d2322b1	0.039828006
206	0x3c237aa8	0.009977974
207	0x3da6d2db	0.08145686
208	0xbc478c20	-0.0121794045
209	0xbd42fdf1	-0.04760546
210	0x3c316e98	0.01082959
211	0x3cf87c76	0.030332785
212	0x36758300	3.6584097e-06
213	0x3d6555f1	0.055990163
214	0x3d33a173	0.04385514
215	0x3dcc629a	0.09979744
216	0x3d8a75b1	0.06760729
217	0x3cec86be	0.028872844
218	0x3cb03c0a	0.021513004
219	0xbd1a34e2	-0.03764809
220	0xbd840ea5	-0.06448106
221	0x3d9c12db	0.07620784
222	0x3d8b93d3	0.068153046
223	0x3d7498c3	0.059715997
224	0x3da8ac49	0.08235986
225	0xb734d4b9	-1.0778364e-05
226	0x3d95c2d9	0.07312555
227	0xbbb3f0ab	-0.0054913363
228	0x3d45672a	0.048194088
229	0xab28317d	-5.975427e-13
230	0x326ef956	1.3910116e-08
231	0xbb8de81f	-0.0043306495
232	0x3d812a2c	0.06306872
233	0xbc948b7d	-0.01813292
234	0x3c8b4819	0.017002152
235	0x3d833811	0.06407178
236	0xbd6b8503	-0.057499897
237	0xbd449365	-0.04799213
238	0x3d1cce7b	0.038282853
239	0x3db744bf	0.08948659
240	0xbd54ee3a	-0.051985003
241	0xbd56f031	-0.052475158
242	0xbb645b5c	-0.0034844493
243	0x8000bca8	-6.7677e-41
244	0x9c914888	-9.614044e-22
245	0xbc35b8bc	-0.011091407
246	0xa7e41b03	-6.3312e-15
247	0x3d82e15d	0.06390641
248	0xbc9500ff	-0.018188952
249	0x3d12f23d	0.035875548
250	0xbd6598d5	-0.056053955
251	0xbc7e3406	-0.015515333
252	0xbce94e99	-0.028479861
253	0xba274921	-0.00063814415
254	0x3db470a5	0.08810548
255	0x3cda9073	0.026680207

bias f4 [128]
0	0x3de33d85	0.11095718
1	0xbd64c8a9	-0.055855427
2	0xbc8af951	-0.016964586
3	0x3ce5753a	0.02801
4	0xbd387499	-0.04503307
5	0xbd039626	-0.032125615
6	0x3b9f9b14	0.0048707817
7	0xbd823c33	-0.06359138
8	0xbd694c4e	-0.056957535
9	0xbc876f37	-0.016532524
10	0x3d85c9df	0.065326445
11	0x3dd3aff1	0.103362925
12	0xbbbb304d	-0.005712545
13	0x3d2186f3	0.03943534
14	0x3d19b64f	0.03752738
15	0xbcb704a2	-0.022341076
16	0xbd6d95db	-0.05800424
17	0x3d853242	0.065037265
18	0x3dc9be49	0.09850747
19	0x3d9b2b67	0.07576638
20	0xb9d446fb	-0.00040488676
21	0xbb81548d	-0.003946847
22	0x3de60b69	0.11232645
23	0x3d23af38	0.039962023
24	0xbd2702a5	-0.040774006
25	0x3abaf10f	0.0014262515
26	0x3cd08b6f	0.025457112
27	0xbbec2d8c	-0.007207578
28	0x3d0aa27e	0.03384637
29	0x3d27a00d	0.04092412
30	0xbd388625	-0.045049805
31	0xbd46bcc5	-0.04851987
32	0xbd8909a8	-0.06691295
33	0x3d979e3a	0.07403226
34	0x3d1469e0	0.036233783
35	0xbcd8affa	-0.0264511
36	0xbd779994	-0.060449198
37	0x3dbdcb66	0.09267311
38	0x3d970921	0.07374788
39	0xbd2e059a	-0.04248581
40	0xbd785c47	-0.060634878
41	0xbd01e957	-0.03171667
42	0x3dd93975	0.10606662
43	0xbd180a66	-0.03711929
44	0xbd4bda0a	-0.049768485
45	0x3d408013	0.04699714
46	0x3d7c2901	0.061562542
47	0x3d8853b1	0.06656588
48	0x3d91430a	0.07092865
49	0xbd49743e	-0.049183123
50	0xbd2f767a	-0.042837597
51	0x3c6b2fab	0.014354627
52	0x3d96de21	0.073665865
53	0xbcde6cd2	-0.027151499
54	0x3be7361f	0.0070560123
55	0x3d121ebd	0.035673846
56	0x3d922feb	0.07138046
57	0x3d830ee1	0.06399322
58	0x3bb8a82d	0.0056352825
59	0xbd67998d	-0.05654292
60	0xbcf7da85	-0.030255565
61	0x3dc8917b	0.09793373
62	0xbd2b6b77	-0.041850533
63	0xbd84da18	-0.064869106
64	0xbda9eb9b	-0.08296891
65	0x3c881e39	0.016615974
66	0x3da3f62b	0.08005937
67	0xbdb9315a	-0.09042616
68	0xbca973a6	-0.020685028
69	0x3de11a6c	0.10991368
70	0x3d87b745	0.06626753
71	0xbd03c224	-0.03216757
72	0xbd6cc204	-0.057802215
73	0xbd28cae9	-0.041209135
74	0x3d7d42e3	0.061831366
75	0xbd4de7ff	-0.050270077
76	0x3ddb1c71	0.10698784
77	0x3de9a9f5	0.1140937
78	0x3c6a5c05	0.014304166
79	0xbd17ba10	-0.037042677
80	0x3d4f9ec0	0.050688505
81	0x3d9a3ebf	0.07531499
82	0xbd590a02	-0.05298806
83	0xbdbeb091	-0.09311021
84	0xbdb55553	-0.08854165
85	0xbd563b1e	-0.052302472
86	0x3b771938	0.003770424
87	0x3c60b2db	0.0137145175
88	0xbba7a88f	-0.0051165293
89	0x3c12c08e	0.008957041
90	0xbdc6dd72	-0.09710206
91	0x3d695c0e	0.056972556
92	0x3d8dbc2d	0.06920657
93	0x3daa776c	0.08323559
94	0x3cceea52	0.025258217
95	0xbd2fef88	-0.042953044
96	0x3d68c776	0.056830846
97	0x3d83ce3d	0.06435821
98	0x3b92c319	0.004478824
99	0x3aa4cbe5	0.0012572972
100	0xbcde8459	-0.027162718
101	0x3d9869d4	0.0744206
102	0x3da76d2f	0.08175122
103	0xbcd7d499	-0.026346492
104	0x3d99bf85	0.075072326
105	0x3dfdea4b	0.123982035
106	0xbc1bf6ca	-0.009519288
107	0xbd516d71	-0.051129762
108	0x3d9669ba	0.073443845
109	0x3d4bbb69	0.049739275
110	0x3dab6c39	0.08370251
111	0x3dcd0892	0.100114
112	0xbd9db8a1	-0.07701231
113	0xbc931612	-0.01795486
114	0x3cb3d18b	0.021950504
115	0x3d010ba9	0.03150526
116	0x3d2ea1af	0.042634662
117	0x3d169f29	0.03677288
118	0x3cc6daae	0.024274196
119	0x3db530b9	0.08847184
120	0x3d832544	0.06403592
121	0x3c9f81c6	0.01947106
122	0x3cc6f0ae	0.024284687
123	0x3dd5847f	0.10425662
124	0x3d5d339b	0.054004293
125	0xbcfa0fcc	-0.03052511
126	0xbd00c01a	-0.031433202
127	0x3d64c1f4	0.05584903

weight f4 [2, 128]
0	0xbda3e669	-0.080029316
1	0x3da725a6	0.08161478
2	0xbbd04c14	-0.0063567255
3	0x3d89f454	0.06736055
4	0x3dbdbbb7	0.092643194
5	0x3d99886e	0.07496725
6	0x3db241d7	0.08703964
7	0x3be3b448	0.0069489814
8	0xbdd12bbf	-0.10213422
9	0x3c052749	0.008127042
10	0x3b692a04	0.0035578022
11	0x3d151ec2	0.036406286
12	0x3d1d2b9b	0.038371664
13	0xbd5a5938	-0.053307742
14	0xbd898deb	-0.06716522
15	0xbc184cc1	-0.009295643
16	0xbd6deccb	-0.05808715
17	0xbc0b8d3e	-0.0085175615
18	0xbcb0dd35	-0.021589855
19	0xbc9fa33f	-0.019487021
20	0x3d8faef5	0.07015792
21	0xbc3811a0	-0.011234671
22	0x3d44b952	0.048028298
23	0x3da1aff1	0.07894886
24	0x3da528f3	0.08064451
25	0x3d07e202	0.033174522
26	0xbdad8596	-0.08472745
27	0x3dbf4b75	0.09340564
28	0xbd863194	-0.06552425
29	0xbb2800d1	-0.0025635252
30	0xbdd8824c	-0.10571727
31	0xbc63e684	-0.01390994
32	0x3d81138a	0.06302555
33	0x3d91d8ea	0.07121451
34	0x3ce0ba2d	0.027432526
35	0x3d22b0b3	0.039719295
36	0xbcffaf33	-0.031211471
37	0x3d4c1aeb	0.04983036
38	0x3c1d70ba	0.009609396
39	0x3b60772b	0.0034250717
40	0x3b71ff03	0.003692568
41	0xbd1cb612	-0.038259573
42	0x3dc75430	0.09732854
43	0xb7e896d7	-2.7726795e-05
44	0xbd9c088f	-0.0761882
45	0x3db1b837	0.08677714
46	0x3db56d25	0.08858708
47	0x3da68849	0.08131463
48	0xbd4eda4f	-0.050501164
49	0x3db194df	0.08670973
50	0x3d88bbf4	0.06676474
51	0x3d5137a7	0.051078465
52	0xbcbd3c3d	-0.023100013
53	0x3d8c6899	0.06855888
54	0xbd82e963	-0.06392171
55	0xbdbc3eeb	-0.09191688
56	0x3d72706a	0.059189238
57	0x3ca16b21	0.019704403
58	0xbdbd13ab	-0.09232267
59	0xbd077f24	-0.033080235
60	0xbd33d14b	-0.04390077
61	0x3d9f3406	0.077735946
62	0xbd7c9f75	-0.061675508
63	0xbd283452	-0.04106552
64	0xbdb15d71	-0.08660401
65	0x3daa69d6	0.08320968
66	0x3d39cd5c	0.04536186
67	0xbd730c2a	-0.059337772
68	0x3da86a7e	0.08223437
69	0x3d5b4bea	0.053539194
70	0x3cf41924	0.029797144
71	0xbc6e75c1	-0.014554442
72	0x3c90d828	0.017681196
73	0xbddb0f14	-0.10696235
74	0x3deb917d	0.11502359
75	0xbbe786b1	-0.007065617
76	0x3d8f7616	0.07004945
77	0x3d910684	0.07081321
78	0x3d1ef145	0.03880431
79	0x3cf19e26	0.029494356
80	0x3c751a2c	0.014959853
81	0xbdee7aba	-0.11644502
82	0xbd952306	-0.07282071
83	0xbdfff600	-0.12498093
84	0xbd3480a9	-0.044068012
85	0x3c81d5d7	0.015849037
86	0xbd1321bc	-0.035920843
87	0xbdd668ba	-0.10469194
88	0xbc09b854	-0.008405764
89	0x3d43898d	0.0477386
90	0xbcbfd04d	-0.023414755
91	0xbda6b722	-0.081403986
92	0x3d08a9e6	0.033365153
93	0x3d98eade	0.07466672
94	0xbd6572c7	-0.056017663
95	0xbdabad51	-0.08382667
96	0xbc99d8d0	-0.018780142
97	0x3c5e8f5e	0.013583986
98	0xbd9a8856	-0.07545535
99	0x3dcf3220	0.101169825
100	0xbd000526	-0.03125491
101	0x3ccf26bc	0.025287025
102	0xbd7d0c6a	-0.061779417
103	0xbd5c8338	-0.053836077
104	0x3c93584c	0.01798644
105	0xbdcd61d2	-0.10028423
106	0xbd6eebbb	-0.05833028
107	0xbd50a939	-0.050942633
108	0x3d26b811	0.040702883
109	0xbd0822b9	-0.03323624
110	0x3dc61019	0.09671039
111	0x3d86bf4f	0.06579458
112	0xbdde67c5	-0.10859636
113	0x3dd4a9f9	0.10383982
114	0x3dbec858	0.09315556
115	0x3d2aef36	0.041732036
116	0x3cc44a8a	0.023961324
117	0x3db8b08e	0.0901805
118	0x3d907d43	0.07055142
119	0x3d6a573e	0.057212107
120	0x3d3cd6da	0.046103336
121	0xbc34a20e	-0.011024965
122	0x3cca50c1	0.02469671
123	0x3d2d0e5b	0.04225002
124	0xbd74d8d6	-0.059777103
125	0x3bbef5d7	0.0058276462
126	0x3c3aa0c9	0.011390873
127	0xba770122	-0.0009422471
128	0xbd9f9682	-0.07792379
129	0xbb7f39ea	-0.0038944432
130	0x3db59a9a	0.088673785
131	0x3cd28257	0.025696917
132	0x3d0aa86a	0.03385202
133	0xbd9d8cf3	-0.076928996
134	0x3d9a1320	0.07523179
135	0x3db86538	0.09003681
136	0xbc991735	-0.018687824
137	0x3cce5e49	0.025191443
138	0xbd9219b7	-0.07133811
139	0xbb95c4dd	-0.004570587
140	0xbdb1e0af	-0.08685433
141	0x3d728c61	0.059215907
142	0x3d0766df	0.03305709
143	0x3d8e3149	0.06942994
144	0x3d732da3	0.059369694
145	0x3d8efa52	0.069813386
146	0xbdf81b96	-0.121146366
147	0xbe1020cb	-0.1407501
148	0x3d7b5fb8	0.06137058
149	0x3b9bda7f	0.0047562714
150	0x3ce8c329	0.028413372
151	0x3dc06829	0.09394867
152	0x3dc9e45f	0.098580115
153	0xbd45753d	-0.04820751
154	0xbd2a5a23	-0.041589867
155	0x3c7fc690	0.015611306
156	0xbd77b8a9	-0.06047884
157	0xbd7938a3	-0.06084503
158	0xbd63b7f5	-0.055595357
159	0xbd5d923c	-0.054094538
160	0x3d4daf78	0.05021617
161	0xbd2ff447	-0.04295757
162	0x3c658b94	0.014010329
163	0xbc4f4399	-0.012650394
164	0x3dd46ce9	0.103723355
165	0x3daed32d	0.08536372
166	0xbd28f030	-0.041244686
167	0x3dc53b2e	0.09630428
168	0xbc9f3fc1	-0.01943958
169	0x3d1fe25d	0.039034236
170	0xbd978d4f	-0.07399999
171	0xbd6f76f3	-0.05846305
172	0xbd01f46c	-0.03172724
173	0xbcf3356a	-0.029688556
174	0x3d2c04e9	0.04199687
175	0x3d7224a0	0.05911696
176	0xbdc0bd96	-0.09411161
177	0xbd1a71f2	-0.037706323
178	0xbd2d204d	-0.042267133
179	0xbd0839c7	-0.033258226
180	0x3dbbecb3	0.09176006
181	0x3b097456	0.0020973883
182	0x3da6649b	0.08124658
183	0xbd4355d9	-0.047689293
184	0xbd04a76d	-0.032386232
185	0x3d75865a	0.05994258
186	0xbc2bc53d	-0.010484037
187	0x3d1feae4	0.03904237
188	0xbd02873d	-0.031867255
189	0xbd1b5f61	-0.037932757
190	0xbd69a2c8	-0.057040006
191	0xbdb14933	-0.0865654
192	0xbd0df07f	-0.034653183
193	0x3cf7077b	0.030154934
194	0x3d178002	0.036987312
195	0x3cc63bb9	0.0241984
196	0x3ddb9753	0.10722222
197	0xbd6032a4	-0.054735795
198	0xbcae20b4	-0.021255828
199	0xbcf060e1	-0.02934307
200	0x3cd32bb3	0.025777673
201	0x3d35c745	0.04437949
202	0xbd82fab3	-0.06395473
203	0x3beadf1b	0.0071677095
204	0x3da5c9bd	0.08095119
205	0xbc5115f3	-0.012761581
206	0x3b305ce8	0.0026910845
207	0x3cbdce47	0.02316965
208	0x3db4f5dd	0.08835957
209	0xbd926340	-0.07147837
210	0x3d901cd9	0.07036752
211	0xbde2d477	-0.11075681
212	0x3ce040de	0.027374681
213	0xbd6d813b	-0.057984572
214	0x3b7c0752	0.0038456512
215	0xbd419413	-0.047260355
216	0xbda80d40	-0.08205652
217	0x3d21badb	0.03948484
218	0xbd9fe49b	-0.07807275
219	0xbdaca095	-0.08429066
220	0xbd764050	-0.060119927
221	0xbd8ea0c1	-0.06964255
222	0x3d6b171b	0.057395082
223	0xbcd410d5	-0.025886932
224	0x3df6f3f3	0.12058248
225	0xbd8a2a2a	-0.067463234
226	0x3d537c50	0.051632226
227	0x3c0daf80	0.0086477995
228	0x3d0d2639	0.03446028
229	0x3c4aff27	0.012389935
230	0xbccc00d0	-0.024902731
231	0x3d4c6c77	0.049908128
232	0x3dc2b471	0.09507073
233	0xbdf49b78	-0.11943716
234	0x3d7381d1	0.059449974
235	0x3d1e3f17	0.038634386
236	0xbc76373f	-0.01502782
237	0xbc4624ab	-0.012093703
238	0x3da18af9	0.07887835
239	0x3c1b8d5c	0.009494152
240	0xbd11c651	-0.03558952
241	0x3d9d8b30	0.076925635
242	0x3cca69b1	0.0247086
243	0x3d34a671	0.044104043
244	0x3bfc984b	0.0077085844
245	0xbca6154a	-0.020273823
246	0x3da57e8a	0.08080776
247	0xbd01f680	-0.03172922
248	0x3d0b7c1e	0.034053914
249	0x3c6b15dc	0.014348473
250	0x3d33a0bf	0.04385447
251	0x3c93b6ed	0.018031562
252	0xbcf98423	-0.030458516
253	0x3d820974	0.06349459
254	0xbd581d44	-0.052762285
255	0xbd7b3462	-0.061329253

bias f4 [2]
0	0x3d8b5dfe	0.06805037
1	0x3d774286	0.060366176
