cpuscript_rnn2_64.pt (torch, 125255 bytes, 7 tensors)

weight f4 [64, 32]
000000 5a 6c 40 3d 65 86 4c bd 96 50 b0 3d fd 80 8e bd
       0.046978332 -0.049932856 0.086091205 -0.06958196
000010 fb 09 0a 3c e3 ee 05 be 79 50 9a bd ad 74 c8 3b
       0.008425231 -0.1307941 -0.0753488 0.0061174245
000020 a8 6a f0 bb 66 d0 d8 bc 33 cb bc 3d 68 4b 81 bd
       -0.007336933 -0.02646656 0.09218445 -0.06313211
000030 f3 74 62 bd 20 b9 84 bc 55 6a 6e bd 78 3c 42 bd
       -0.055287313 -0.016201556 -0.058206875 -0.04742095
000040 ef 9e 25 3d 0f 4c c0 bd b7 12 df 3d 0a 26 c2 3b
       0.040434774 -0.09389507 0.108922414 0.0059249448
000050 a5 2e 06 be 61 36 2a 3e 1c ff 68 3d 51 4c 0a 3d
       -0.13103731 0.16622306 0.056883916 0.033764187
000060 a9 64 04 be fe f9 08 3c b3 49 10 be 3c 12 82 bd
       -0.12929024 0.008360384 -0.14090614 -0.06351134
000070 73 26 2d 3d 08 6b 86 bd 25 23 da bd 1d 51 c0 bc
       0.042272996 -0.06563383 -0.106512345 -0.023476178
000080 db f7 33 bd c2 08 de 3b b1 85 dc 3d 19 a5 22 3d
       -0.043937545 0.0067759464 0.10767687 0.03970823
000090 b8 55 18 3e 3f f8 76 bc 58 c7 ef bd db 59 c5 bd
       0.14876449 -0.015073835 -0.11707944 -0.09636279
0000a0 8f 20 9e 3d c4 38 51 3d fb e5 9e 3d aa bb 04 3e
       0.07721054 0.051079527 0.07758709 0.12962213
0000b0 01 eb 28 3d 7d 30 50 3d 40 5b 69 bd 7c 42 36 3d
       0.041239742 0.050827492 -0.05697179 0.044497
0000c0 b2 3a 00 bd e8 c7 d4 3d 64 b2 91 bd ce 2b 15 be
       -0.031305976 0.103896916 -0.071141034 -0.14567491
0000d0 b3 2f 70 bc 68 f3 1f be a8 ff 6e bd f7 1f 25 3e
       -0.01465981 -0.15620196 -0.05834928 0.16125475
0000e0 2f ec 19 3e c6 d6 60 3c 2a f8 01 be f3 2f 43 bc
       0.15031503 0.013723081 -0.12692323 -0.011913287
0000f0 5a e0 a4 3d c5 c9 42 3a 0c 8b cb 3d c4 07 1c be
       0.08050604 0.00074305787 0.099386305 -0.15237337
000100 1e 16 1d 3e f8 6a a0 bd de 0f eb bd 0f b9 ce bd
       0.15340468 -0.07832903 -0.11477636 -0.10093891
000110 5c 34 0b 3e 81 01 64 3d 4d ed 62 3d 6c a9 a9 bd
       0.13594192 0.055665497 0.05540209 -0.08284268
000120 fd 99 14 bd 4e 1b 8a bc 86 d4 fe 3d 11 9b db bd
       -0.036279667 -0.016858723 0.124428794 -0.10722936
000130 ea fe 15 be 52 1e c1 bd 75 83 b7 3d 9d e8 5f bd
       -0.14648023 -0.09429611 0.0896062 -0.054665197
000140 e3 18 17 3e 95 75 bd 3b 6f b2 bb bd 42 d4 0f be
       0.14755587 0.005781839 -0.09164893 -0.14045814
000150 93 84 29 3e 92 f8 8a bd e3 2c 4e 3d 93 8a 18 3e
       0.1655448 -0.06785692 0.050335776 0.14896612
000160 ff 18 27 bd 39 76 8c 3d 4b b4 93 bd 17 3c 1e be
       -0.040795323 0.06858487 -0.072121225 -0.1545261
000170 41 90 ee 3d 8d a2 9c 3d 4e e4 34 3c 9e 6b 76 bd
       0.11648608 0.076481916 0.01104076 -0.060161225
000180 2a 7f 9c 3d 95 d0 0b bd 1a db a7 3c 17 d8 f9 bc
       0.07641442 -0.034134466 0.020490218 -0.030498547
000190 d0 31 50 3e 05 10 bf 3a 5b 99 08 be 69 27 48 3e
       0.20331502 0.0014576918 -0.1333975 0.19546284
0001a0 a7 09 e3 3b 50 63 24 3e 5f 4a 91 bd e7 68 c0 3d
       0.006928641 0.1605351 -0.07094263 0.093950085
0001b0 39 14 c2 3d 83 1b d2 3d e9 12 13 3d 67 85 ad bd
       0.094765134 0.10259154 0.035906706 -0.0847271
0001c0 9b aa 6f 3d 0e 24 c3 bc 54 51 05 be d9 4b 88 3d
       0.05851231 -0.023820903 -0.13019305 0.06655092
0001d0 99 75 ea bc a9 e0 05 bd 88 9a 7a 3b ee f3 10 3e
       -0.028620528 -0.032684956 0.003823908 0.14155552
0001e0 24 a3 e6 bd c9 a5 c4 bd 74 32 80 3d 4f d7 b9 3d
       -0.11261585 -0.096019335 0.06259623 0.0907427
0001f0 11 5e 95 bd de 70 78 3d 8c 3f 8a bd b4 13 85 3d
       -0.07293332 0.060654514 -0.06750402 0.06497899
000200 76 9e fe bb 83 e1 4b bd 22 d9 b9 bd ac a2 a5 bc
       -0.007770355 -0.04977561 -0.09074618 -0.02021917
000210 43 fe ac 3d 62 d0 95 bd 38 f8 2c be 24 6d a6 3d
       0.08446934 -0.073151365 -0.16891563 0.08126286
000220 12 5f 3f be 81 a0 a7 bd 18 84 50 be 82 e9 c3 bd
       -0.1868861 -0.081849106 -0.2036289 -0.095660225
000230 a7 7a 68 be e6 ad 64 3d 97 3b 3e be b6 3a f2 bd
       -0.22703038 0.055829905 -0.18577419 -0.118276045
000240 59 45 a7 3d 20 e0 9a bd 34 ed fa 3d 36 74 40 3d
       0.08167524 -0.0756228 0.12252274 0.046985827
000250 66 11 67 be 48 2b fe ba a0 7d 99 bd d7 84 30 3d
       -0.2256523 -0.0019391561 -0.07494664 0.043095436
000260 fc e1 d7 bb a8 f1 93 bc da 92 87 bd 42 6a ee bd
       -0.0065882187 -0.018059567 -0.066198066 -0.11641361
000270 9c e7 63 be ee 94 dd bd be 84 1c be ee 91 53 bc
       -0.2225632 -0.10819422 -0.15285012 -0.01291321
000280 7b 5d 71 3d 24 3d ce 3c 8d b6 7c bd b9 4d 97 3d
       0.05892704 0.025175638 -0.06169753 0.07387871
000290 4d 12 91 bd 09 13 12 3e c9 f5 1e 3e 3d 27 65 3d
       -0.07083569 0.14265074 0.15523447 0.055945624
0002a0 89 2d 56 bd 71 2f 28 3e 05 7c 4f bd a0 28 1a 3d
       -0.05228952 0.16424347 -0.050655384 0.0376364
0002b0 9b 62 2c 3c 3a 99 7c bc 41 32 2f 3e 03 c9 ee 3c
       0.010521556 -0.015417391 0.17109014 0.029148584
0002c0 de 4f 79 3d d3 67 31 bd ac 30 0d 3d 32 eb eb 3d
       0.060867183 -0.043311905 0.034470245 0.11519469
0002d0 a9 74 2d 3d 33 fe 00 3e 16 09 96 3c b4 42 2e bd
       0.042347584 0.1259697 0.01831488 -0.04254408
0002e0 23 db 35 bd 32 76 11 3e 93 3a f2 bc 17 29 86 3c
       -0.04439844 0.14205244 -0.029568946 0.016377015
0002f0 19 ae fc bd 30 cd 5f be 6e 03 77 be ef 2b 83 be
       -0.12337894 -0.21855617 -0.24122402 -0.25619456
000300 a4 1a 86 3d 68 b5 2e 3c a7 e0 bf 3d 17 20 a5 3c
       0.0654805 0.010663368 0.09369021 0.020156903
000310 46 70 34 bd b1 96 5d 3d 23 7d d8 bd d9 59 19 be
       -0.044052385 0.05409879 -0.10570743 -0.1497568
000320 05 09 7f bd 13 7c 4a bd c4 e7 ec 3d cd a4 30 3d
       -0.06226446 -0.049434733 0.11567643 0.043125916
000330 3c af 3b 3d d1 ce 2e bd 9b 08 0c 3e 04 0c 88 bc
       0.045821413 -0.042677704 0.13675158 -0.016607292
000340 93 60 0e bc c4 43 12 3e 59 af 27 3e 95 58 d9 3d
       -0.008690017 0.14283663 0.16375484 0.10612599
000350 8c 13 22 3d 1d 90 04 bd dd b6 2d 3e 27 f9 15 3d
       0.039569423 -0.032364 0.16964288 0.036614563
000360 18 38 28 3d e0 b1 e6 3c 6a f0 08 be 63 31 20 bb
       0.04106912 0.02816099 -0.1337296 -0.00244435
000370 35 e3 ed bd 7f 81 30 3e c9 31 e7 3b 07 fa 1c be
       -0.11615602 0.17236899 0.0070554954 -0.15329753
000380 d9 e3 02 be 31 f5 32 3e 42 40 c7 bd 44 ac 24 3d
       -0.1278223 0.17476346 -0.09729053 0.040203348
000390 50 76 e5 bd 31 8f b4 3c 03 05 f4 3d fb b0 ee 3d
       -0.11204207 0.022040935 0.119150184 0.1165485
0003a0 2e 60 1b bc da ee 76 bd b9 07 a9 bd 72 d5 ef 3d
       -0.00948338 -0.06028638 -0.08253426 0.11710633
0003b0 cd e0 ef 3d 85 58 21 be 93 73 61 3d ba ee dc 3d
       0.11712799 -0.15756424 0.05504186 0.10787721
0003c0 b0 9f c9 bc 8d cc 52 bd c1 a7 f1 3d fe 2a cb 3d
       -0.024612278 -0.051464606 0.11799575 0.099203095
0003d0 25 40 65 3d 2d 7d 46 3d 72 d4 af bd e7 e7 f5 bd
       0.055969376 0.04845922 -0.085854426 -0.120071225
0003e0 84 19 07 3e ba 2b 5c 3d 97 0d 16 bc b0 2a 70 bc
       0.13193327 0.05375264 -0.0091585135 -0.014658615
0003f0 42 93 b4 3d e1 c4 b2 bd 87 0e df bd 32 99 65 3d
       0.0881715 -0.08728958 -0.10891443 0.0560543

bias f4 [64]
000000 85 4f bc bd 18 b2 e9 3d 2a f4 03 3e 83 d1 09 3d
       -0.09194855 0.11410922 0.1288611 0.03364707
000010 ff a1 27 3e c4 c6 ec bd 18 2f de 3d 35 56 02 be
       0.1637039 -0.11561349 0.10848826 -0.12728198
000020 cd 39 34 3e 22 d7 bb 3c de f0 70 3c 01 33 13 3e
       0.17600174 0.022929732 0.014705865 0.14374925
000030 ab 2c ea 3b 17 fd 2e 3d 58 63 ca 3d 10 05 59 3d
       0.007146438 0.042721834 0.098822296 0.052983344
000040 c7 60 a3 bd 5a 5b 4b bc 05 19 c9 3d a7 a3 fe bc
       -0.07977443 -0.012411917 0.09819225 -0.031083895
000050 aa 9b c6 bd fa fd 8a 3b 75 5c 00 be c0 63 02 3d
       -0.09697659 0.004241702 -0.1253527 0.03183341
000060 9b 4a 27 3e 55 ae 27 3e 75 0f cd 3d 2e 83 ef bd
       0.16337053 0.16375096 0.10012714 -0.116949424
000070 91 c5 15 3e 1f ff 9c 3d 2f 51 2f 3e 2a b8 82 3d
       0.14626147 0.07665848 0.17120813 0.06382783
000080 84 0c 35 bd 99 9d 9f 3d 42 33 ac bd 36 4f c5 bc
       -0.04420139 0.07793731 -0.08408214 -0.024085622
000090 3e 87 c3 3d f1 0b f4 3d 80 ee 63 3d a0 15 c0 3d
       0.0954728 0.1191634 0.055647373 0.09379125
0000a0 ad 9a c1 3d 29 eb 09 be 96 28 ca 3d 41 69 41 bc
       0.0945333 -0.13468613 0.098710224 -0.01180488
0000b0 a8 3a 02 bd d1 e1 31 be e5 5c a0 3d cd 5c 19 be
       -0.03179422 -0.17371298 0.07830218 -0.14976807
0000c0 a3 34 ff 3d 65 e3 6c bd a0 28 e2 bc 4e b2 2b 3e
       0.124612115 -0.057834048 -0.027607262 0.16767237
0000d0 a8 38 d2 bc 2a 80 d6 bd be a9 12 be 69 3c b2 bd
       -0.025661781 -0.10473664 -0.14322564 -0.087029286
0000e0 eb 27 d0 3d 83 a6 6e 3d 4e 68 93 3d 3d 95 02 3e
       0.10163864 0.058264267 0.07197629 0.12752242
0000f0 c5 23 10 bc a3 a2 15 3d bf a4 0b be 7e b2 61 3d
       -0.008797591 0.036532056 -0.13637064 0.055101864

weight_ih f4 [192, 64]
000000 63 fb d7 3c 26 87 d6 3b 7a c2 6e 3d 74 a0 08 bc
       0.026364988 0.0065468727 0.058290936 -0.008339036
000010 52 a7 d9 bc 6b 0b 47 bc 43 ae 5a 3d d2 1a 1b bc
       -0.026569042 -0.012148718 0.053388845 -0.009466844
000020 b6 c7 82 bd c5 80 b2 bc 79 d3 ed bc 0e f3 67 3c
       -0.06385748 -0.021789918 -0.029031502 0.01415707
000030 9a 39 3f 3d d0 08 b6 bd 21 0c bc 3d 2c eb 62 3d
       0.046685793 -0.088883996 0.09182001 0.05540006
000040 b9 27 13 3c d6 f7 66 b9 4a a4 18 3d f9 d7 b5 bc
       0.008981639 -0.00022026835 0.037266053 -0.02219771
000050 46 62 1e 3d 20 fd 1e bd 86 05 e6 bb 13 db 57 bc
       0.03866794 -0.038815618 -0.0070197014 -0.01317479
000060 cb 62 d5 3d df 5d bc 3d 2e 9c cf ba de 79 8a bc
       0.10419234 0.09197592 -0.0015839392 -0.016903814
000070 8b 26 a9 3d 8e b4 e9 bc 67 7c 80 3d 46 38 3f bd
       0.082593046 -0.028528478 0.06273728 -0.046684526
000080 2c 66 6b bd a0 84 de bb 09 4c 2e bd 52 ab 40 bc
       -0.057470486 -0.0067907125 -0.04255298 -0.011759596
000090 2e 33 a0 bd f5 41 ac 3d c3 2f 9a bb 5f 99 73 bd
       -0.07822262 0.08411018 -0.0047054007 -0.059472438
0000a0 6a ce 5a bd 09 39 92 3b bb c2 c6 3b c9 a3 9a bb
       -0.053419508 0.0044623655 0.006065694 -0.0047192317
0000b0 49 97 5f bc 09 bc 60 bc 1f b7 1c bb 66 aa 50 bd
       -0.013646909 -0.013716706 -0.002391286 -0.050943755
0000c0 d8 6b 45 3d 0f c5 36 3d 4d 9f 9c 3d b4 9c 7b bd
       0.04819855 0.044621523 0.07647572 -0.06142874
0000d0 78 19 00 3d ef 31 9e bb 18 a3 96 bd 48 d5 11 3d
       0.03127429 -0.00482773 -0.073553264 0.03560379
0000e0 d1 2e 83 3c e7 a4 ea 3d a4 60 a4 3d c5 ce ad 3d
       0.016013535 0.11457234 0.08026245 0.08486704
0000f0 8d 03 33 3d e0 8c 7b 3d 68 94 31 bd 3f 25 41 bd
       0.04370456 0.061413646 -0.04335442 -0.04715466
000100 2b 9a 6e 3b d7 44 7e bd 45 0d 69 3c 00 db ca bc
       0.003640781 -0.06207737 0.014224355 -0.02476263
000110 34 0a 3e 3d 7a de a4 bb 8a 85 b5 bb 82 45 cb bc
       0.04639645 -0.005031404 -0.0055396007 -0.024813417
000120 ec 90 f1 3d b6 f8 d6 bd 0c 5f 2a bd bf 8a c1 3d
       0.1179522 -0.104966566 -0.04159455 0.09450292
000130 14 75 4f 3d 03 c4 cd 3c 90 06 83 3c cc a2 e2 3c
       0.050648764 0.02511788 0.01599434 0.027665518
000140 1e ff 67 bb 88 54 42 3d 4f da 7c 3d b0 fe 84 bc
       -0.0035399864 0.047443897 0.061731633 -0.016234726
000150 ce 1f 7a bc 82 38 a9 bd 90 ce e6 bc 43 19 d4 3d
       -0.015266372 -0.08262731 -0.028174669 0.10356381
000160 c2 0d 01 bd 7d 6d 71 3d b6 6a 73 3d 88 3e 3e bd
       -0.03150726 0.058942307 0.05942794 -0.046446353
000170 00 bc 07 3d 6e c6 9c 3d 5d 19 1b 3d fe ad 5b bd
       0.033138275 0.07655035 0.037865985 -0.05363273
000180 bc 9f 77 bd 88 42 6f bb 86 7a ae bd c9 3d 1e ba
       -0.06045507 -0.0036508162 -0.08519463 -0.00060364284
000190 b3 db 8b 39 23 0a a5 3d 17 3a 22 3d 53 2f 14 bc
       0.00026675835 0.08058574 0.03960618 -0.009044486
0001a0 2d 9f f0 bc 14 4f 91 bd 6d 5a be 3d db 89 43 3d
       -0.029372776 -0.07095161 0.09294591 0.04773889
0001b0 78 bf 0a 3d d2 5d 01 3d a4 ca 19 3d 57 e5 9a 3d
       0.033874005 0.031583615 0.03754677 0.07563274
0001c0 af 9a df 3d 7c 6d ef bc 86 0a e9 bc dd 2c 89 3d
       0.109181754 -0.02922701 -0.0284474 0.0669801
0001d0 5c cd 11 3c ba 6b e4 3c d0 9f 9a 3c 46 f0 c0 3c
       0.008899059 0.0278834 0.018875033 0.023552071
0001e0 77 77 a4 bd 67 2d 59 3b 55 d4 d2 3b ad ab dd 3d
       -0.080305986 0.0033138634 0.0064340034 0.1082376
0001f0 d8 90 52 bd 31 b0 49 bc bd 7b 8b 3c ea d7 96 bc
       -0.051407665 -0.012310074 0.017026776 -0.018413503
000200 c6 6b cb 3c 16 f5 17 3d fa cb d8 3c 1d 78 39 3d
       0.024831664 0.037098967 0.026464451 0.045280565
000210 f4 1f 1c bd a9 e4 72 bd 35 9c 02 3d 3b 76 f4 bc
       -0.03811641 -0.0593001 0.031887252 -0.029841533
000220 a9 3b 1a bd bb fa 19 bd 0e df 7f bc 94 c5 b0 bc
       -0.037654553 -0.03759263 -0.015617145 -0.021578588
000230 2d 45 23 3c 60 db 34 bd 7f 65 08 3e 1d df a4 3c
       0.009965223 -0.044154525 0.13319968 0.02012592
000240 c2 9a 44 bd d9 27 cd 3c e3 16 45 3b 6a 85 b9 3b
       -0.04799915 0.025043415 0.0030073456 0.005661656
000250 98 2a 4c bc 4a fa 99 bc 17 ec 86 3c db c7 40 3d
       -0.012461327 -0.018796105 0.016469998 0.047065597
000260 15 fc 02 3c 2f 11 ed bb e0 8c 74 3d 6b f8 a1 bc
       0.007994671 -0.0072347145 0.05970466 -0.019771775
000270 5b 3c 34 3d f9 d4 02 3a 6f 66 94 bc 0a 13 8f bd
       0.044002872 0.0004990842 -0.01811525 -0.06986053
000280 d7 71 13 3d 00 c0 03 3d 04 2e 8c 3c 5b e3 e1 3c
       0.035997238 0.032165527 0.017111786 0.027574232
000290 ec f1 3d bb a3 79 1e bd 27 fa ef 3c 06 72 eb 3c
       -0.0028983308 -0.03869022 0.029294087 0.028740894
0002a0 15 6b 54 3c 96 78 66 3d a7 a9 b7 3b e6 3c d7 3b
       0.0129649835 0.056267343 0.005604941 0.006568539
0002b0 30 57 3e 3c 99 1f 85 3d b8 b2 f7 3b dc 84 a0 3c
       0.011617467 0.065001674 0.0075591467 0.019594602
0002c0 8a ba 0c 3c 07 e3 a7 3c d7 de 99 bd d0 a7 01 bd
       0.008589396 0.020493997 -0.075132065 -0.03165418
0002d0 86 31 e7 3c 2b d4 14 bd b5 a6 a7 3c 3f 17 10 3c
       0.028221857 -0.03633515 0.020465234 0.008794605
0002e0 eb 97 24 bd 2a ed f6 bc 2b 42 41 3d 9f 81 59 3c
       -0.040183943 -0.030142386 0.047182243 0.013275533
0002f0 45 f3 c5 3c bd fa 95 3c 49 ab 12 bd 99 53 c3 bc
       0.024163852 0.018308038 -0.03580788 -0.023843573
000300 ab e9 76 bd c2 a9 d0 3d 37 db ae bd 64 c3 39 3d
       -0.060281437 0.10188629 -0.08537906 0.045352355
000310 3e 23 bc 3d 00 79 c2 3d 30 fa a9 bd 65 3b 64 3c
       0.091864094 0.09495735 -0.082996726 0.013930176
000320 23 2d 75 bd 57 40 23 bc 3c d9 75 bd 45 8b d7 3d
       -0.0598575 -0.00996407 -0.060021624 0.105246104
000330 ce 12 94 3d b8 fa dc bd 9a 98 b1 3d 51 36 95 bc
       0.07230149 -0.10790008 0.086716846 -0.018214377
000340 81 a0 ae bd e5 ea 83 bd 57 8b d7 3d 62 33 ef 3c
       -0.085267074 -0.06441287 0.10524624 0.029199306
000350 5f a8 11 bc 09 71 10 3d c5 95 2a bd ef b0 9b bd
       -0.00889024 0.03526405 -0.041646738 -0.07602107
000360 f9 81 f3 3d a7 79 f8 3c 82 2f 05 3e b7 59 11 bd
       0.11890025 0.030331446 0.13006404 -0.03548595
000370 a4 99 bd bc 58 39 f6 3c df 7c 13 3e 04 04 aa 3d
       -0.02314455 0.03005664 0.14403103 0.08301547
000380 08 d5 68 bd 5d 91 ab bd 26 de b7 bd 37 68 30 bd
       -0.056843787 -0.08377335 -0.08977918 -0.043068137
000390 65 b4 73 3d 4c 4a 69 bd 91 e9 1e 3e 5b 4e d6 bc
       0.05949821 -0.05695562 0.15518786 -0.02616041
0003a0 4f 37 d8 bd 7c 97 93 bc 8a dc 6e 3d c9 1d a7 3d
       -0.10557424 -0.01801657 0.05831579 0.08159978
0003b0 af 88 2c 3d 16 3a 63 bd e9 bf d1 bc 20 f0 6d bd
       0.04212254 -0.055475317 -0.025604205 -0.05809033
0003c0 53 68 c6 3d 18 da 18 bd 73 98 23 3d b4 ba 25 3d
       0.09687867 -0.037317365 0.03994031 0.040461257
0003d0 90 55 80 bd 1f 6e ae 3d dc 3a 06 bd 1f c4 a7 3c
       -0.0626632 0.08517098 -0.032770976 0.02047926
0003e0 08 a3 ca 3d 40 03 c8 3d 46 10 90 bd 66 8e 26 3b
       0.09894377 0.09766245 -0.07034354 0.0025414466
0003f0 18 cb 55 3d da df a0 3d c6 04 f2 3d 3b 29 74 3c
       0.05219564 0.07855196 0.11817317 0.014902408

weight_hh f4 [192, 64]
000000 1f 55 87 3d e2 ad 96 bc 82 29 53 3d 70 a5 dc bb
       0.066080324 -0.01839346 0.051553257 -0.006733589
000010 8d 30 f2 bc 99 cc 9d bc ce cd 0a 3c 74 8c 9d 3d
       -0.029564166 -0.019262599 0.008471919 0.07692805
000020 cb 5c de bb dd c4 79 bd 54 df 42 3c dc d5 51 3d
       -0.006785964 -0.06097876 0.011894066 0.051229343
000030 54 4f 07 bd 1b fb 75 3d 0b 21 d6 b9 4c fc 67 3d
       -0.033034638 0.060053926 -0.0004084188 0.056637093
000040 e2 d0 ae bb cf 06 76 3d 10 4b da bd b6 78 64 3d
       -0.0053349594 0.060065087 -0.10658848 0.05577918
000050 ca a4 f2 bd 94 19 50 bd 5f d8 9a bd a5 74 5b 3c
       -0.11847837 -0.050805643 -0.07560801 0.013394509
000060 46 e3 db bc b9 24 82 3d 79 92 3a bd b9 7c 93 3d
       -0.02684177 0.063546605 -0.045549843 0.07201523
000070 7f dd 65 3d 64 af 55 bc 82 df 25 3d 41 44 4e bd
       0.05611944 -0.013042305 0.040496357 -0.05035806
000080 c0 44 20 bd d1 a5 76 bd 83 a5 2a bd 31 53 b5 3c
       -0.039128065 -0.06021673 -0.04166175 0.022134395
000090 a3 80 76 bd 0c 8c 11 bd 90 00 b6 bc ac 17 98 3c
       -0.06018127 -0.03553395 -0.022217065 0.018565975
0000a0 3f 90 73 3d 9d bf bb 3d 0a db e3 3c 25 06 ef bb
       0.059463736 0.09167407 0.027814407 -0.0072944337
0000b0 5a c4 f1 bc 9b 65 d3 bc 30 42 cd 3d f0 3b aa 3d
       -0.029512573 -0.025805285 0.1002239 0.083122134
0000c0 f2 09 ca 3c c1 bf 8d 3d 36 6a 0d 3d 29 ec 56 3c
       0.024662945 0.0692134 0.03452512 0.013117828
0000d0 b5 44 44 3d 47 99 4b bd 3b 2d 02 bd 2c 88 de 3c
       0.047917087 -0.049706724 -0.031781416 0.027164541
0000e0 18 c3 d7 bc 84 e4 b0 3d 74 c7 85 3d d3 16 ae 3d
       -0.026338145 0.08637336 0.06532183 0.08500447
0000f0 ba a4 8f bd 4b 7c 58 bd 4e 70 93 bd f7 80 5e bd
       -0.07013841 -0.05285291 -0.07199155 -0.05432221
000100 d8 d2 c1 bd 33 0f aa 3d 5b 66 d9 bb 86 6b dd bd
       -0.094640434 0.0830368 -0.006634516 -0.10811524
000110 b8 7a cf bd b9 11 1a bd 39 ef 9c 3d f0 36 85 3a
       -0.101308286 -0.037614558 0.076628156 0.0010163467
000120 ee ce 83 3d 13 0c b5 bb fe 64 cf bd 3d c5 c9 bc
       0.06435953 -0.005525121 -0.101266846 -0.024630183
000130 8d a3 91 3d d6 45 2c 3d 5c ba a6 3d 9b 2f 0f 3b
       0.07111273 0.04205879 0.08141014 0.0021848443
000140 d6 8c 85 bc 7d 85 c0 bb f6 c9 05 3d 55 0b 13 3e
       -0.016302507 -0.005875288 0.032663308 0.14359792
000150 f5 2c 83 bc 26 ab a5 bd 27 6f 9e bc e8 78 7e bd
       -0.016012648 -0.080892846 -0.019340111 -0.062127024
000160 0e 5e bd bc 75 29 7f bd fc 32 e0 3c 4a b3 6d bd
       -0.023116138 -0.062295396 0.027368061 -0.05803231
000170 bd 41 48 bd 0b ae 3e 3d 26 24 66 bd e9 f3 cd 3b
       -0.048890818 0.0465527 -0.056186818 0.00628518
000180 8a fe 94 3d 46 22 16 bd 43 11 01 bd 85 f0 d2 3c
       0.07275112 -0.03665378 -0.031510603 0.025749454
000190 17 ed 35 3d 09 b6 1b bd c2 af 9f 3d 05 eb 3e 3d
       0.04441556 -0.0380154 0.07797195 0.04661085
0001a0 1a 1d d2 3c a2 c0 64 bd e9 f2 9f bc 7a 6e 41 bc
       0.025648642 -0.05584777 -0.019525008 -0.011806125
0001b0 f1 16 63 bd 06 0d f1 bd d5 98 f8 3d cb 73 7f 3d
       -0.0554418 -0.11770062 0.121385254 0.06236629
0001c0 7b 60 26 3d d7 58 42 bc fe 78 f7 bc 30 77 93 bd
       0.040619355 -0.011862001 -0.03020906 -0.072004676
0001d0 c3 c6 79 3c 00 c7 46 3d ba 99 31 bd c1 7f 0e bd
       0.015245142 0.048529625 -0.043359496 -0.034789804
0001e0 d4 b8 c2 bd 6a 81 ea 3d bb db fa 3c 73 e4 b0 3d
       -0.095079094 0.11450465 0.030622354 0.08637323
0001f0 27 d1 ba 3d 2d b0 b6 bd 2e ab 28 3d e3 a5 3c bd
       0.09121924 -0.089203216 0.041178875 -0.04605664
000200 c7 f2 0a bd e8 5a 5f 3c 95 b1 7c 3c c1 16 83 bb
       -0.033922937 0.013632514 0.015423198 -0.004000515
000210 c4 74 fd bc 02 06 4c bc 2c ea 7a 3d 91 bf 91 39
       -0.030939467 -0.012452604 0.06125848 0.00027799283
000220 86 b8 39 bd 3e 7e 39 3c 3b 78 37 bd fd 9d 9c 3c
       -0.04534199 0.011321602 -0.044792395 0.019118303
000230 38 0d ba bc 60 7f 16 3c 68 36 bd ba 3d aa 27 bc
       -0.022711381 0.009185642 -0.001443577 -0.010233459
000240 6b a1 c2 bc 5d 87 f2 3c c7 97 10 3d ef bf 40 3d
       -0.02375861 0.029605562 0.035300996 0.047058042
000250 96 1b c6 bc 0a 48 87 3c 12 0a 2b bc 7f b2 9e 3c
       -0.024183076 0.016513843 -0.010439413 0.019372223
000260 60 29 e8 3a 1c 16 02 bd 9b e6 40 3c 63 dd e5 bc
       0.0017712526 -0.031759366 0.011773731 -0.028059667
000270 bd 76 c6 bc 17 01 26 3d f3 67 0d 3d e0 ee d8 bc
       -0.02422654 0.040528383 0.03452296 -0.026481092
000280 f1 a1 d4 bc 41 2c 09 3c 31 d7 a0 3c 28 b1 00 3d
       -0.025956126 0.008372367 0.019633861 0.03141895
000290 58 b9 0a 3b 17 49 89 bb 8d a0 54 bd f7 47 83 bc
       0.0021167602 -0.004189621 -0.051910926 -0.016025526
0002a0 aa eb 8b bc 95 e2 3a bd e5 61 e1 bb 32 6e 46 3c
       -0.017080147 -0.04562624 -0.006878125 0.012111234
0002b0 05 38 a6 3a 6d 32 73 bd a3 6f 57 3d 69 ed 8d 3c
       0.001268149 -0.05937426 0.0525967 0.01732512
0002c0 a7 f2 a8 bb 4e 01 a7 bd 45 64 38 bd 42 fc 0f bb
       -0.0051558795 -0.08154546 -0.0450175 -0.0021970426
0002d0 fe 31 48 bb d1 7f 15 3b 9a 09 58 3d 0a 73 e7 3c
       -0.0030547376 0.002281178 0.05274353 0.028253097
0002e0 3a 4b 93 bd f9 64 7a 3c 11 22 15 bc 15 08 6e 3c
       -0.07192083 0.015282863 -0.00910236 0.014528294
0002f0 8b 9b 97 bc 6f 20 17 3d ba 3b f8 bc 59 31 56 bc
       -0.018506786 0.036896165 -0.030301917 -0.013073289
000300 4d f0 d0 bc 53 14 b1 3d 9b 95 ce 3d ee 48 95 bd
       -0.02550521 0.08646455 0.10087129 -0.07289301
000310 fa db 89 3d 0a 39 f7 3d cb 28 18 bd 9a cf 2f bd
       0.0673141 0.12071426 -0.03714828 -0.042922594
000320 89 9a 9d bd 69 87 4d 3d 1e 5c 03 be 12 45 89 3d
       -0.07695491 0.050177965 -0.12828109 0.06702627
000330 66 38 92 3d fa 8f 84 3d e9 ee 34 bd 4b d5 19 bc
       0.071396634 0.06472774 -0.044173155 -0.009389232
000340 12 7e bf 3d 75 21 0e 3d 10 c4 b0 3c 1e 9a b4 3d
       0.09350218 0.034699876 0.021577865 0.08818458
000350 ed 75 32 bd 26 34 90 bd a0 be 4c bd 53 8c 16 bc
       -0.043569494 -0.070411965 -0.04998648 -0.009188729
000360 99 2e 19 3d 49 94 b0 3d e3 14 b1 bc 37 35 8a bd
       0.037397955 0.08622033 -0.021616405 -0.06748431
000370 4a 93 97 3c 70 85 84 3d bd 6f 6b bc d1 49 43 3b
       0.01850285 0.06470764 -0.014369902 0.0029798637
000380 00 c5 90 3b 21 29 30 3d b7 54 14 3c 6c 4f 85 3d
       0.0044180155 0.043007974 0.009053401 0.06509289
000390 11 9c 84 3c f8 11 88 bd 77 af 72 bc 34 42 bf bd
       0.0161877 -0.06644052 -0.014812342 -0.09338799
0003a0 74 6b 8c 3d 08 e8 ca 3d 75 30 03 bc 1f 95 1c bd
       0.068564326 0.09907538 -0.0080071585 -0.03822815
0003b0 d8 ea 9e bd e4 ed b5 bd cb 75 02 3d 7e be b9 bb
       -0.07759637 -0.08883265 0.031850617 -0.0056684604
0003c0 b2 a1 52 3d f6 ea 85 3d d4 24 81 3d ed 33 d4 bd
       0.051423736 0.06538956 0.063058525 -0.103614666
0003d0 3a 36 f1 3c 1f 9f a9 bd da 83 c2 bd 63 47 3e 3d
       0.029444803 -0.08282303 -0.09497805 0.0464548
0003e0 e7 59 00 be b6 41 ba bb 7d 18 02 3c 97 f6 96 bc
       -0.12534295 -0.005684103 0.007940409 -0.01842813
0003f0 d3 c0 cc bd 02 69 da bd a8 9f 27 3d 51 bf ae bc
       -0.09997716 -0.1066456 0.040923744 -0.021331461

bias_ih f4 [192]
000000 2e 1b 82 3d 19 98 d3 3d bd 4c bf 3d bc c8 84 bd
       0.0635284 0.10331745 0.093408085 -0.064835995
000010 80 83 80 3d 97 bc 64 bd 17 8f 58 bc 0a 49 79 bd
       0.06275082 -0.055843916 -0.013217709 -0.06086067
000020 05 45 9e bd 64 e7 95 3d 58 bf cb bd ad 13 85 bc
       -0.07728008 0.07319525 -0.09948605 -0.016244734
000030 45 94 c0 3d 5d 3a 91 3d 33 0d bb 3d 60 54 85 3d
       0.0940328 0.0709121 0.09133377 0.06510234
000040 77 02 57 3d 3c b8 b7 bd 95 f2 cd bd 5e f6 08 3d
       0.052492585 -0.08970687 -0.100560345 0.03343808
000050 99 84 4a bc be ee 28 bd dd 98 2a 3c 4b b6 cc 3c
       -0.012360715 -0.041243307 0.010412422 0.024989268
000060 2d c7 a0 3b b5 1e ff 3d a8 e4 e0 3d 83 81 9a 3d
       0.004906556 0.12457029 0.10981113 0.07544234
000070 cd 03 98 3d ef a5 2b b8 06 ff c5 bd fc 5e ad bd
       0.074226 -4.0924115e-05 -0.096677825 -0.084653825
000080 ac 7d 4b 3c a9 50 44 3d 32 33 b1 3d b7 4a 89 3d
       0.012420099 0.047928486 0.08652343 0.06703704
000090 0d a7 c2 3d 81 15 59 3d 87 59 49 bc fd 41 d6 3c
       0.09504519 0.052999023 -0.012289411 0.026154513
0000a0 c1 d1 20 3d 9c e1 63 3c 6d 37 fb 3d 24 33 60 bd
       0.039262537 0.01390877 0.12266431 -0.05473627
0000b0 61 4e 62 bd 46 6b 51 bd ad 9c 05 bd fa c6 25 3d
       -0.05525053 -0.051127695 -0.03262012 0.040472962
0000c0 f1 7c b3 3d 34 d2 0f 3e 4a 04 5a ba c0 2a 4f bd
       0.08764065 0.1404503 -0.0008316679 -0.05057788
0000d0 5f 2c ab bd 7d cd 48 3d 97 92 26 bd c2 3a ac bc
       -0.083580725 0.049024094 -0.040667143 -0.021024112
0000e0 c5 0b 06 3e 4a 98 08 bc e3 8f 8d 3d 9a a6 a6 3a
       0.13090427 -0.00833709 0.0691221 0.0012714446
0000f0 9e 17 97 3d 02 51 ad bd 6c af f9 3c 0f 10 98 3d
       0.073775515 -0.08462717 0.030479155 0.07424938
000100 27 61 15 bd f8 02 86 bd 61 a1 0e bc 2d a3 6e 3d
       -0.036469605 -0.06543535 -0.008705468 0.058261085
000110 3c 3a b2 bd 01 f6 83 3c 28 26 0f be 35 28 89 bd
       -0.087025136 0.016108515 -0.13979399 -0.06697122
000120 8c c2 ed bc 49 50 07 3e f2 0e 0b be 0d 60 bd bd
       -0.029023431 0.1321422 -0.1357992 -0.09246836
000130 40 2e f4 bd 3d c5 b0 bd 5e c1 06 be ff 58 99 bd
       -0.11922884 -0.0863137 -0.13159701 -0.07487678
000140 a6 d5 31 be 58 1f db bd 63 f0 20 3c b6 17 13 bd
       -0.17366657 -0.10699338 0.009822938 -0.035911284
000150 a7 a7 9d bd 88 89 b7 bd 5a 4f e9 bc 78 bb 5f bb
       -0.07697993 -0.08961779 -0.02848022 -0.003413884
000160 f3 21 bd bd 81 96 06 be 7a 24 8b bd a2 01 d5 bc
       -0.09234991 -0.1314335 -0.06794067 -0.026001755
000170 bb 4e 26 bd 3e 67 38 be ab dd 77 3c e1 b1 b6 bc
       -0.040602427 -0.18008134 0.015128533 -0.022301616
000180 40 cd c1 bd 8c 75 be 3d 3b 7a 7b 3d b7 5a 00 be
       -0.094629765 0.09299764 0.061395865 -0.12534605
000190 48 9e 45 3d 31 cf 22 be 3f 14 79 3c 1e f6 1b be
       0.048246652 -0.1589935 0.015202581 -0.15230605
0001a0 11 4f 5c be e9 cd 99 bd e5 6d fe bd 26 9c 21 bd
       -0.21514536 -0.07509977 -0.124233045 -0.039455555
0001b0 01 44 00 be eb 14 14 bd b3 ae ec bd 91 fb b1 bc
       -0.12525941 -0.03615276 -0.11556759 -0.021726402
0001c0 96 96 31 bd 1f 85 0a be b1 3d bb bc 03 a6 75 bd
       -0.0433565 -0.13527344 -0.022856565 -0.059972774
0001d0 f4 3b 61 bd db c9 06 be d7 fb 43 be 7b 3a 8c 3d
       -0.054988816 -0.13162939 -0.19139038 0.06847092
0001e0 2b 6b dc bd bc 5f 1c bd 31 be cf bc 8c 3e d2 bd
       -0.10762628 -0.038177237 -0.025359245 -0.10265836
0001f0 4e 03 bc bd 55 27 26 3d c3 4f b6 bd 51 6b 8f bd
       -0.09180318 0.040564854 -0.08901932 -0.07002891
000200 d5 2c f1 3c 69 52 7c bd f2 a6 8c bd fd fd 65 bd
       0.029440323 -0.06160203 -0.0686778 -0.056150425
000210 45 6a 01 be e8 42 0a 3b 9d 22 e2 3d f9 9e a8 bd
       -0.12638195 0.0021097008 0.11041758 -0.08233447
000220 8b 69 69 3c 8b 1c ad bd da cf 91 bd 3a 48 a3 ba
       0.014246355 -0.0845271 -0.07119723 -0.0012457438
000230 e3 4d ab bd c1 cb 9e 3d 6a d3 af 3c d1 37 0f 3d
       -0.08364465 0.07753707 0.021463115 0.03496534
000240 11 66 24 3d 62 fe a7 bd f4 6b 02 be ff 0d e2 3d
       0.0401364 -0.082028165 -0.12736493 0.11037826
000250 14 7d e2 bb 4f 1c 61 3d c3 20 91 3c 80 7e b8 3d
       -0.006911883 0.054958638 0.017715817 0.09008503
000260 92 43 24 bd 7d 15 8a bd 03 2d e1 bd 54 9a ef bd
       -0.040103503 -0.0674238 -0.109949134 -0.11699358
000270 62 0c b9 bd ae c0 f5 bd c8 c7 be 3a db 68 3e bd
       -0.09035565 -0.11999641 0.0014555389 -0.046486717
000280 8c 5d ab 3d d1 1e b8 bd e1 30 4c bd dd 3e ed bd
       0.08367452 -0.08990253 -0.049851302 -0.11584256
000290 01 88 9b bd 9c c4 af bd 77 b9 f1 3d e2 9d 53 bd
       -0.075943 -0.08582422 0.11802953 -0.05166424
0002a0 85 d6 68 3c 2b 8a e0 3d 46 a4 1c 3d 9f 81 df bd
       0.014211302 0.109638534 0.0382426 -0.10913395
0002b0 b7 3d c4 3d a8 39 db bd d8 2d eb 3d 05 b3 73 3d
       0.09582084 -0.107043564 0.114833534 0.0594969
0002c0 8b ff e0 bd d9 f2 0d be b8 50 ff bd a2 19 6c 3d
       -0.10986241 -0.1386217 -0.12466568 0.057641633
0002d0 8c 4c 69 3c 0d 5d 9e 3d 0f 0a ff 3d 20 9b 8b bb
       0.014239442 0.07732592 0.124530904 -0.0042604357
0002e0 bb c0 4f bd 36 8d d3 3c 5d 44 f0 bc bb 7f 8b bc
       -0.05072091 0.02582417 -0.029329473 -0.01702868
0002f0 99 aa 93 3d 0a 02 ce bd c0 26 8b bc 3b a5 5c 3d
       0.07210273 -0.10058983 -0.01698625 0.053868514

bias_hh f4 [192]
000000 84 1f 53 3d a1 ce 9a bd e1 29 86 ba 18 52 81 bd
       0.051543728 -0.075589426 -0.001023587 -0.06314486
000010 2c 08 28 bd 92 2b da 3c 18 3c 94 3d 5f ec c7 3d
       -0.04102342 0.026632104 0.072380245 0.09761881
000020 a9 4b fd 3d 02 de cf 3d 9a 75 0f 3e f3 6e 56 bd
       0.12367947 0.101497665 0.14009705 -0.052351903
000030 d4 c8 9f 3d 08 dd 85 bd 76 84 3a bd f0 72 da bd
       0.07801977 -0.06536299 -0.04553648 -0.10666454
000040 5c 3b b6 bd 2c 7b a8 3d f1 18 c4 bd ac b1 87 3d
       -0.08898041 0.08226618 -0.0957507 0.06625685
000050 38 28 0a 3e 00 4c 57 bd 00 3f da 3d 64 33 c9 3c
       0.13491905 -0.052562714 0.106565475 0.024560638
000060 33 1c 00 3e a4 c7 1a bc e0 15 9f 3d 2d d1 0a bd
       0.12510757 -0.009447012 0.07767844 -0.03389089
000070 0c c3 1f 3e 9f 33 6f bc 2c 51 30 bc bd e1 8c bd
       0.15601748 -0.01459971 -0.01076154 -0.06878994
000080 3a 45 9c bc e0 bf 8e 3d 6c 87 90 bc 8c b2 04 be
       -0.019075979 0.06970191 -0.0176427 -0.12958735
000090 7e aa ab 3d d1 89 4d 3c c7 9e a5 bd 03 32 ac bd
       0.08382128 0.012545065 -0.08086925 -0.084079765
0000a0 2c 3b 82 bd dd 57 18 3c b9 3d 5b bd 8d e2 e0 3d
       -0.063589424 0.009298292 -0.05352566 0.10980711
0000b0 50 fc e3 3d 55 72 26 3d 7e 93 65 3c dd 87 2c bd
       0.11132109 0.04063638 0.014012216 -0.042121757
0000c0 4f 53 29 bc 35 d9 de 3d d7 dd af bd 13 d8 49 bd
       -0.010334804 0.10881273 -0.085872345 -0.04927833
0000d0 e2 3d 6b 3d f7 b0 b6 3d 55 af 64 3d 17 5e 03 3e
       0.057432063 0.08920472 0.055831272 0.12828861
0000e0 bc 30 b9 3c c8 ae af bd b1 9c 89 bd d8 02 cb bc
       0.022606246 -0.08578259 -0.0671934 -0.02478163
0000f0 c4 83 7d 3a 5b d5 88 bd 0e 7d f9 3d 71 2b 68 3d
       0.00096708187 -0.06681319 0.121820554 0.056682054
000100 2e 69 8a bd 94 4d 03 be e0 61 f7 bd d8 fd a8 3d
       -0.06758343 -0.12822562 -0.12079215 0.08251542
000110 19 e5 b0 3c 6d c2 76 3a 91 c6 b0 bd 6d 81 7b bb
       0.021593617 0.0009413127 -0.086316235 -0.0038376704
000120 9b e5 c9 bd 8b 95 89 3d 19 86 9f bd c0 72 ad bd
       -0.09858247 0.06717976 -0.07789249 -0.084691525
000130 54 8a 35 be 65 c3 51 3d 8d f1 28 3d f5 67 53 bb
       -0.17728549 0.051211733 0.041245986 -0.0032258008
000140 e6 e4 29 be da ef 17 be 2a b1 1a be ea a7 ce bd
       -0.16591224 -0.1483759 -0.15106645 -0.10090621
000150 67 3e 16 be b3 2d 12 be 68 0a 9f bc c7 41 82 3d
       -0.14672242 -0.14275245 -0.019414142 0.06360202
000160 bc dc fa bd 14 0c 37 be 60 76 a6 3d d4 11 b3 bc
       -0.12249133 -0.17875701 0.08128047 -0.021859087
000170 a4 47 d6 bd 88 92 9c 3c cc 18 8d bc bb 88 f1 bd
       -0.10462883 0.01911284 -0.017223738 -0.117936574
000180 b1 85 65 bd c2 d3 45 3e a1 ee 43 3c 04 bf 15 be
       -0.0560357 0.1931906 0.011958749 -0.14623648
000190 43 ae b1 3d c1 c4 27 bd fd dc 5c 3d 76 b9 aa bc
       0.08675816 -0.040959124 0.05392169 -0.020840388
0001a0 62 ba f2 bd 8e 58 79 bd 48 05 9c bc 5a 1b 26 3c
       -0.11851956 -0.060875468 -0.019045487 0.010138357
0001b0 c3 3c cd b9 0c 1a 2b 3c 59 6e cf bd 89 d3 20 3e
       -0.00039145918 0.010443222 -0.10128469 0.15705694
0001c0 08 3e 1b 3d d3 52 81 3b 14 a3 8f bd 8e 1f c7 bd
       0.037900954 0.003946641 -0.070135266 -0.097228155
0001d0 8f 8a 20 bd 91 9b 16 be 62 ef eb bd 5f 36 fd ba
       -0.03919464 -0.14707781 -0.11520268 -0.0019318572
0001e0 2b ec 12 be 68 6f f8 3b eb c0 37 be 44 33 39 bd
       -0.14347903 0.00758164 -0.17944686 -0.045214906
0001f0 53 75 14 be 7f 44 50 bd ef 71 27 bd 2a 46 d0 bd
       -0.1449788 -0.050846573 -0.04088014 -0.10169633
000200 d1 c4 35 bd dd e2 99 bd 69 b3 6e 3d ec a6 75 bb
       -0.044377152 -0.07513974 0.058276568 -0.0037483526
000210 60 08 16 be 54 2f bd 3d 7a c2 08 3e 95 46 b0 bd
       -0.14651632 0.09237543 0.13355437 -0.086072125
000220 4d cf 83 bd 40 a4 b6 bd 31 e0 9e bd 05 94 8f 3d
       -0.06436024 -0.08918047 -0.07757605 0.07010654
000230 5a 74 e6 3d b4 c4 17 3d ba ec 5d bd 50 b0 a4 3c
       0.11252661 0.037052825 -0.05418084 0.020103604
000240 2f f1 1f 3d 2d db b0 3d e4 53 42 bd b1 eb 26 3d
       0.03904837 0.086355545 -0.047443286 0.040752117
000250 d4 ba e8 bd 2f 8a a2 3d 91 63 36 3d 83 ec 82 3c
       -0.1136376 0.07936513 0.044528548 0.015981918
000260 b9 a5 5d 3d 37 ca 85 3c f8 2c bf bd b3 0c d6 3d
       0.054113124 0.016331775 -0.09334749 0.10451641
000270 1e 17 b9 3d 67 0f 9d bd ae 6f 67 3a f3 af 8a 3d
       0.090376124 -0.076689534 0.0008828592 0.06771841
000280 83 78 01 be 56 49 38 bd e3 e4 19 3c 07 28 88 3d
       -0.12643628 -0.044991814 0.00939295 0.066482596
000290 ed a4 f6 bd ad 1e e4 bd 9d 27 c0 3d 94 1a eb 3c
       -0.12043176 -0.111386634 0.09382556 0.028699197
0002a0 64 38 ae 3d 26 71 27 3e 23 99 8e bd 23 e2 b2 3d
       0.085068494 0.16351756 -0.06962802 0.087345384
0002b0 14 8b c8 3d 00 92 81 bd e1 9f bb 3d 20 6c 80 3d
       0.09792152 -0.063266754 0.09161354 0.06270623
0002c0 5b 1c 36 bd de 96 5f bd 7f 91 f6 bd c3 f8 06 be
       -0.044460636 -0.054587238 -0.1203947 -0.13180833
0002d0 7d fd 06 bd bf a4 b9 3d 51 ff d7 bd ca 0f a7 3d
       -0.03295659 0.09064626 -0.105467446 0.081573084
0002e0 c6 97 62 bc 45 9b 3d bb fd 90 e1 bd f7 be 63 3d
       -0.013830131 -0.002893166 -0.110139824 0.05560204
0002f0 d5 93 8f bd 46 1e cd bd 2f 77 e6 3b 01 f5 2d bd
       -0.070106186 -0.1001554 0.0070332508 -0.042469982

weight f4 [1, 64]
000000 44 c5 37 bd 1b 68 cf bd 0e 4e 32 bd 80 17 f7 bd
       -0.04486586 -0.101272784 -0.04353147 -0.12065029
000010 84 54 a6 3d 68 bf e5 3d 7e 89 3a bd 8a ef a5 bd
       0.08121589 0.112181485 -0.04554128 -0.08102329
000020 18 6e ed bd e9 dd 99 bd 3f 74 14 be 5f 06 ce 3d
       -0.11593264 -0.07513029 -0.1449747 0.10059809
000030 90 3a 11 3e 09 15 bd bc 38 75 bd bd e5 be 4b 3d
       0.14182496 -0.02308132 -0.09250873 0.049742598
000040 12 b4 35 3d 87 81 01 be 4c 3b c9 bd be 4b 31 3d
       0.04436118 -0.12647067 -0.09825763 0.043285124
000050 49 42 3f bc 95 4d 01 be 58 16 32 bd 8d 75 b9 bd
       -0.011673518 -0.12627251 -0.04347834 -0.09055624
000060 1d fe 5c 3d 22 72 b6 3d 4d 38 7c 3d 41 c9 c2 bc
       0.05395328 0.08908488 0.06157713 -0.023777606
000070 a7 18 f8 bd aa 2b 9f 3d d7 be bb bc cc 4d 19 3e
       -0.12114077 0.07772 -0.022918148 0.14971083
000080 eb bb 14 be 2f 01 f7 bd bf 11 af bd dd 92 dc bd
       -0.1452481 -0.12060773 -0.08548307 -0.107701994
000090 30 2f 9d bd c1 93 d0 3d 8b 8d 00 3e 06 8a 1c bd
       -0.07675016 0.10184432 0.12553994 -0.038217567
0000a0 2f 09 fb bd 3b 74 de bc f6 ac 4f 3d a3 41 e1 3d
       -0.12257611 -0.027155032 0.050702058 0.10998847
0000b0 a9 1e 18 bc e4 bf b6 bd 6d 1a a1 bc e6 2e eb bd
       -0.009284654 -0.08923319 -0.019665921 -0.114835545
0000c0 87 9e e4 3d bc f4 c1 bc 5c 4a c7 bd 7f 2a 0b 3d
       0.11163049 -0.023676269 -0.0973098 0.033976074
0000d0 da fc e0 bd 28 90 c7 3d f9 7c 09 3b ff 86 80 3d
       -0.109857276 0.097442925 0.002097903 0.062757485
0000e0 ac ae 8e bd df ec 6b 3d 3d 41 00 be 7e 47 ea bd
       -0.0696691 0.057598945 -0.12524886 -0.11439417
0000f0 ec e8 7c bb f1 f6 f3 3d 75 92 86 3d e6 34 18 3e
       -0.003859098 0.11912335 0.06570903 0.14863929
